<?xml version="1.0" ?>
<net name="/home/xd/184/intel_install/xdai/deeplearn/yolov5s/weights/PHY_small_light_test_power_pubilc/switch_keypoint" version="10">
	<layers>
		<layer id="0" name="inputs" type="Parameter" version="opset1">
			<data shape="1, 3, 224, 224" element_type="f16"/>
			<output>
				<port id="0" precision="FP16">
					<dim>1</dim>
					<dim>3</dim>
					<dim>224</dim>
					<dim>224</dim>
				</port>
			</output>
		</layer>
		<layer id="1" name="inputs/scale_copy" type="Const" version="opset1">
			<data element_type="f16" shape="32, 3, 3, 3" offset="0" size="1728"/>
			<output>
				<port id="0" precision="FP16" names="2017">
					<dim>32</dim>
					<dim>3</dim>
					<dim>3</dim>
					<dim>3</dim>
				</port>
			</output>
		</layer>
		<layer id="2" name="Conv_0/WithoutBiases" type="Convolution" version="opset1">
			<data strides="2, 2" dilations="1, 1" pads_begin="1, 1" pads_end="1, 1" auto_pad="explicit"/>
			<input>
				<port id="0" precision="FP16">
					<dim>1</dim>
					<dim>3</dim>
					<dim>224</dim>
					<dim>224</dim>
				</port>
				<port id="1" precision="FP16">
					<dim>32</dim>
					<dim>3</dim>
					<dim>3</dim>
					<dim>3</dim>
				</port>
			</input>
			<output>
				<port id="2" precision="FP16">
					<dim>1</dim>
					<dim>32</dim>
					<dim>112</dim>
					<dim>112</dim>
				</port>
			</output>
		</layer>
		<layer id="3" name="Conv_0/Dims18905" type="Const" version="opset1">
			<data element_type="f16" shape="1, 32, 1, 1" offset="1728" size="64"/>
			<output>
				<port id="0" precision="FP16">
					<dim>1</dim>
					<dim>32</dim>
					<dim>1</dim>
					<dim>1</dim>
				</port>
			</output>
		</layer>
		<layer id="4" name="Conv_0" type="Add" version="opset1">
			<data auto_broadcast="numpy"/>
			<input>
				<port id="0" precision="FP16">
					<dim>1</dim>
					<dim>32</dim>
					<dim>112</dim>
					<dim>112</dim>
				</port>
				<port id="1" precision="FP16">
					<dim>1</dim>
					<dim>32</dim>
					<dim>1</dim>
					<dim>1</dim>
				</port>
			</input>
			<output>
				<port id="2" precision="FP16" names="2016">
					<dim>1</dim>
					<dim>32</dim>
					<dim>112</dim>
					<dim>112</dim>
				</port>
			</output>
		</layer>
		<layer id="5" name="Relu_1" type="ReLU" version="opset1">
			<input>
				<port id="0" precision="FP16">
					<dim>1</dim>
					<dim>32</dim>
					<dim>112</dim>
					<dim>112</dim>
				</port>
			</input>
			<output>
				<port id="1" precision="FP16" names="613">
					<dim>1</dim>
					<dim>32</dim>
					<dim>112</dim>
					<dim>112</dim>
				</port>
			</output>
		</layer>
		<layer id="6" name="2306674552" type="Const" version="opset1">
			<data element_type="i64" shape="" offset="1792" size="8"/>
			<output>
				<port id="0" precision="I64"/>
			</output>
		</layer>
		<layer id="7" name="2306875074" type="Const" version="opset1">
			<data element_type="i64" shape="2" offset="1800" size="16"/>
			<output>
				<port id="0" precision="I64">
					<dim>2</dim>
				</port>
			</output>
		</layer>
		<layer id="8" name="Slice_12/Split" type="VariadicSplit" version="opset1">
			<input>
				<port id="0" precision="FP16">
					<dim>1</dim>
					<dim>32</dim>
					<dim>112</dim>
					<dim>112</dim>
				</port>
				<port id="1" precision="I64"/>
				<port id="2" precision="I64">
					<dim>2</dim>
				</port>
			</input>
			<output>
				<port id="3" precision="FP16" names="624">
					<dim>1</dim>
					<dim>16</dim>
					<dim>112</dim>
					<dim>112</dim>
				</port>
				<port id="4" precision="FP16" names="627">
					<dim>1</dim>
					<dim>16</dim>
					<dim>112</dim>
					<dim>112</dim>
				</port>
			</output>
		</layer>
		<layer id="9" name="2029" type="Const" version="opset1">
			<data element_type="f16" shape="16, 1, 1, 3, 3" offset="1816" size="288"/>
			<output>
				<port id="0" precision="FP16" names="2029">
					<dim>16</dim>
					<dim>1</dim>
					<dim>1</dim>
					<dim>3</dim>
					<dim>3</dim>
				</port>
			</output>
		</layer>
		<layer id="10" name="Conv_21/WithoutBiases" type="GroupConvolution" version="opset1">
			<data strides="2, 2" pads_begin="1, 1" pads_end="1, 1" dilations="1, 1" auto_pad="explicit"/>
			<input>
				<port id="0" precision="FP16">
					<dim>1</dim>
					<dim>16</dim>
					<dim>112</dim>
					<dim>112</dim>
				</port>
				<port id="1" precision="FP16">
					<dim>16</dim>
					<dim>1</dim>
					<dim>1</dim>
					<dim>3</dim>
					<dim>3</dim>
				</port>
			</input>
			<output>
				<port id="2" precision="FP16">
					<dim>1</dim>
					<dim>16</dim>
					<dim>56</dim>
					<dim>56</dim>
				</port>
			</output>
		</layer>
		<layer id="11" name="Conv_21/Dims18707" type="Const" version="opset1">
			<data element_type="f16" shape="1, 16, 1, 1" offset="2104" size="32"/>
			<output>
				<port id="0" precision="FP16">
					<dim>1</dim>
					<dim>16</dim>
					<dim>1</dim>
					<dim>1</dim>
				</port>
			</output>
		</layer>
		<layer id="12" name="Conv_21" type="Add" version="opset1">
			<data auto_broadcast="numpy"/>
			<input>
				<port id="0" precision="FP16">
					<dim>1</dim>
					<dim>16</dim>
					<dim>56</dim>
					<dim>56</dim>
				</port>
				<port id="1" precision="FP16">
					<dim>1</dim>
					<dim>16</dim>
					<dim>1</dim>
					<dim>1</dim>
				</port>
			</input>
			<output>
				<port id="2" precision="FP16" names="2028">
					<dim>1</dim>
					<dim>16</dim>
					<dim>56</dim>
					<dim>56</dim>
				</port>
			</output>
		</layer>
		<layer id="13" name="2032" type="Const" version="opset1">
			<data element_type="f16" shape="16, 16, 1, 1" offset="2136" size="512"/>
			<output>
				<port id="0" precision="FP16" names="2032">
					<dim>16</dim>
					<dim>16</dim>
					<dim>1</dim>
					<dim>1</dim>
				</port>
			</output>
		</layer>
		<layer id="14" name="Conv_22/WithoutBiases" type="Convolution" version="opset1">
			<data strides="1, 1" dilations="1, 1" pads_begin="0, 0" pads_end="0, 0" auto_pad="explicit"/>
			<input>
				<port id="0" precision="FP16">
					<dim>1</dim>
					<dim>16</dim>
					<dim>56</dim>
					<dim>56</dim>
				</port>
				<port id="1" precision="FP16">
					<dim>16</dim>
					<dim>16</dim>
					<dim>1</dim>
					<dim>1</dim>
				</port>
			</input>
			<output>
				<port id="2" precision="FP16">
					<dim>1</dim>
					<dim>16</dim>
					<dim>56</dim>
					<dim>56</dim>
				</port>
			</output>
		</layer>
		<layer id="15" name="Conv_22/Dims18821" type="Const" version="opset1">
			<data element_type="f16" shape="1, 16, 1, 1" offset="2648" size="32"/>
			<output>
				<port id="0" precision="FP16">
					<dim>1</dim>
					<dim>16</dim>
					<dim>1</dim>
					<dim>1</dim>
				</port>
			</output>
		</layer>
		<layer id="16" name="Conv_22" type="Add" version="opset1">
			<data auto_broadcast="numpy"/>
			<input>
				<port id="0" precision="FP16">
					<dim>1</dim>
					<dim>16</dim>
					<dim>56</dim>
					<dim>56</dim>
				</port>
				<port id="1" precision="FP16">
					<dim>1</dim>
					<dim>16</dim>
					<dim>1</dim>
					<dim>1</dim>
				</port>
			</input>
			<output>
				<port id="2" precision="FP16" names="2031">
					<dim>1</dim>
					<dim>16</dim>
					<dim>56</dim>
					<dim>56</dim>
				</port>
			</output>
		</layer>
		<layer id="17" name="Relu_23" type="ReLU" version="opset1">
			<input>
				<port id="0" precision="FP16">
					<dim>1</dim>
					<dim>16</dim>
					<dim>56</dim>
					<dim>56</dim>
				</port>
			</input>
			<output>
				<port id="1" precision="FP16" names="640">
					<dim>1</dim>
					<dim>16</dim>
					<dim>56</dim>
					<dim>56</dim>
				</port>
			</output>
		</layer>
		<layer id="18" name="2020" type="Const" version="opset1">
			<data element_type="f16" shape="32, 16, 1, 1" offset="2680" size="1024"/>
			<output>
				<port id="0" precision="FP16" names="2020">
					<dim>32</dim>
					<dim>16</dim>
					<dim>1</dim>
					<dim>1</dim>
				</port>
			</output>
		</layer>
		<layer id="19" name="Conv_16/WithoutBiases" type="Convolution" version="opset1">
			<data strides="1, 1" dilations="1, 1" pads_begin="0, 0" pads_end="0, 0" auto_pad="explicit"/>
			<input>
				<port id="0" precision="FP16">
					<dim>1</dim>
					<dim>16</dim>
					<dim>112</dim>
					<dim>112</dim>
				</port>
				<port id="1" precision="FP16">
					<dim>32</dim>
					<dim>16</dim>
					<dim>1</dim>
					<dim>1</dim>
				</port>
			</input>
			<output>
				<port id="2" precision="FP16">
					<dim>1</dim>
					<dim>32</dim>
					<dim>112</dim>
					<dim>112</dim>
				</port>
			</output>
		</layer>
		<layer id="20" name="Conv_16/Dims18395" type="Const" version="opset1">
			<data element_type="f16" shape="1, 32, 1, 1" offset="3704" size="64"/>
			<output>
				<port id="0" precision="FP16">
					<dim>1</dim>
					<dim>32</dim>
					<dim>1</dim>
					<dim>1</dim>
				</port>
			</output>
		</layer>
		<layer id="21" name="Conv_16" type="Add" version="opset1">
			<data auto_broadcast="numpy"/>
			<input>
				<port id="0" precision="FP16">
					<dim>1</dim>
					<dim>32</dim>
					<dim>112</dim>
					<dim>112</dim>
				</port>
				<port id="1" precision="FP16">
					<dim>1</dim>
					<dim>32</dim>
					<dim>1</dim>
					<dim>1</dim>
				</port>
			</input>
			<output>
				<port id="2" precision="FP16" names="2019">
					<dim>1</dim>
					<dim>32</dim>
					<dim>112</dim>
					<dim>112</dim>
				</port>
			</output>
		</layer>
		<layer id="22" name="Relu_17" type="ReLU" version="opset1">
			<input>
				<port id="0" precision="FP16">
					<dim>1</dim>
					<dim>32</dim>
					<dim>112</dim>
					<dim>112</dim>
				</port>
			</input>
			<output>
				<port id="1" precision="FP16" names="630">
					<dim>1</dim>
					<dim>32</dim>
					<dim>112</dim>
					<dim>112</dim>
				</port>
			</output>
		</layer>
		<layer id="23" name="2023" type="Const" version="opset1">
			<data element_type="f16" shape="32, 1, 1, 3, 3" offset="3768" size="576"/>
			<output>
				<port id="0" precision="FP16" names="2023">
					<dim>32</dim>
					<dim>1</dim>
					<dim>1</dim>
					<dim>3</dim>
					<dim>3</dim>
				</port>
			</output>
		</layer>
		<layer id="24" name="Conv_18/WithoutBiases" type="GroupConvolution" version="opset1">
			<data strides="2, 2" pads_begin="1, 1" pads_end="1, 1" dilations="1, 1" auto_pad="explicit"/>
			<input>
				<port id="0" precision="FP16">
					<dim>1</dim>
					<dim>32</dim>
					<dim>112</dim>
					<dim>112</dim>
				</port>
				<port id="1" precision="FP16">
					<dim>32</dim>
					<dim>1</dim>
					<dim>1</dim>
					<dim>3</dim>
					<dim>3</dim>
				</port>
			</input>
			<output>
				<port id="2" precision="FP16">
					<dim>1</dim>
					<dim>32</dim>
					<dim>56</dim>
					<dim>56</dim>
				</port>
			</output>
		</layer>
		<layer id="25" name="Conv_18/Dims18107" type="Const" version="opset1">
			<data element_type="f16" shape="1, 32, 1, 1" offset="4344" size="64"/>
			<output>
				<port id="0" precision="FP16">
					<dim>1</dim>
					<dim>32</dim>
					<dim>1</dim>
					<dim>1</dim>
				</port>
			</output>
		</layer>
		<layer id="26" name="Conv_18" type="Add" version="opset1">
			<data auto_broadcast="numpy"/>
			<input>
				<port id="0" precision="FP16">
					<dim>1</dim>
					<dim>32</dim>
					<dim>56</dim>
					<dim>56</dim>
				</port>
				<port id="1" precision="FP16">
					<dim>1</dim>
					<dim>32</dim>
					<dim>1</dim>
					<dim>1</dim>
				</port>
			</input>
			<output>
				<port id="2" precision="FP16" names="2022">
					<dim>1</dim>
					<dim>32</dim>
					<dim>56</dim>
					<dim>56</dim>
				</port>
			</output>
		</layer>
		<layer id="27" name="2026" type="Const" version="opset1">
			<data element_type="f16" shape="16, 32, 1, 1" offset="4408" size="1024"/>
			<output>
				<port id="0" precision="FP16" names="2026">
					<dim>16</dim>
					<dim>32</dim>
					<dim>1</dim>
					<dim>1</dim>
				</port>
			</output>
		</layer>
		<layer id="28" name="Conv_19/WithoutBiases" type="Convolution" version="opset1">
			<data strides="1, 1" dilations="1, 1" pads_begin="0, 0" pads_end="0, 0" auto_pad="explicit"/>
			<input>
				<port id="0" precision="FP16">
					<dim>1</dim>
					<dim>32</dim>
					<dim>56</dim>
					<dim>56</dim>
				</port>
				<port id="1" precision="FP16">
					<dim>16</dim>
					<dim>32</dim>
					<dim>1</dim>
					<dim>1</dim>
				</port>
			</input>
			<output>
				<port id="2" precision="FP16">
					<dim>1</dim>
					<dim>16</dim>
					<dim>56</dim>
					<dim>56</dim>
				</port>
			</output>
		</layer>
		<layer id="29" name="Conv_19/Dims18599" type="Const" version="opset1">
			<data element_type="f16" shape="1, 16, 1, 1" offset="5432" size="32"/>
			<output>
				<port id="0" precision="FP16">
					<dim>1</dim>
					<dim>16</dim>
					<dim>1</dim>
					<dim>1</dim>
				</port>
			</output>
		</layer>
		<layer id="30" name="Conv_19" type="Add" version="opset1">
			<data auto_broadcast="numpy"/>
			<input>
				<port id="0" precision="FP16">
					<dim>1</dim>
					<dim>16</dim>
					<dim>56</dim>
					<dim>56</dim>
				</port>
				<port id="1" precision="FP16">
					<dim>1</dim>
					<dim>16</dim>
					<dim>1</dim>
					<dim>1</dim>
				</port>
			</input>
			<output>
				<port id="2" precision="FP16" names="2025">
					<dim>1</dim>
					<dim>16</dim>
					<dim>56</dim>
					<dim>56</dim>
				</port>
			</output>
		</layer>
		<layer id="31" name="Relu_20" type="ReLU" version="opset1">
			<input>
				<port id="0" precision="FP16">
					<dim>1</dim>
					<dim>16</dim>
					<dim>56</dim>
					<dim>56</dim>
				</port>
			</input>
			<output>
				<port id="1" precision="FP16" names="635">
					<dim>1</dim>
					<dim>16</dim>
					<dim>56</dim>
					<dim>56</dim>
				</port>
			</output>
		</layer>
		<layer id="32" name="Concat_24" type="Concat" version="opset1">
			<data axis="1"/>
			<input>
				<port id="0" precision="FP16">
					<dim>1</dim>
					<dim>16</dim>
					<dim>56</dim>
					<dim>56</dim>
				</port>
				<port id="1" precision="FP16">
					<dim>1</dim>
					<dim>16</dim>
					<dim>56</dim>
					<dim>56</dim>
				</port>
			</input>
			<output>
				<port id="2" precision="FP16" names="641">
					<dim>1</dim>
					<dim>32</dim>
					<dim>56</dim>
					<dim>56</dim>
				</port>
			</output>
		</layer>
		<layer id="33" name="Shape_25" type="ShapeOf" version="opset3">
			<data output_type="i64"/>
			<input>
				<port id="0" precision="FP16">
					<dim>1</dim>
					<dim>32</dim>
					<dim>56</dim>
					<dim>56</dim>
				</port>
			</input>
			<output>
				<port id="1" precision="I64" names="642">
					<dim>4</dim>
				</port>
			</output>
		</layer>
		<layer id="34" name="Constant_26" type="Const" version="opset1">
			<data element_type="i32" shape="" offset="5464" size="4"/>
			<output>
				<port id="0" precision="I32" names="643"/>
			</output>
		</layer>
		<layer id="35" name="Gather_27/axis" type="Const" version="opset1">
			<data element_type="i64" shape="" offset="5468" size="8"/>
			<output>
				<port id="0" precision="I64"/>
			</output>
		</layer>
		<layer id="36" name="Gather_272024" type="Gather" version="opset7">
			<data batch_dims="0"/>
			<input>
				<port id="0" precision="I64">
					<dim>4</dim>
				</port>
				<port id="1" precision="I32"/>
				<port id="2" precision="I64"/>
			</input>
			<output>
				<port id="3" precision="I64" names="644"/>
			</output>
		</layer>
		<layer id="37" name="Unsqueeze_41/Dims" type="Const" version="opset1">
			<data element_type="i64" shape="1" offset="5468" size="8"/>
			<output>
				<port id="0" precision="I64">
					<dim>1</dim>
				</port>
			</output>
		</layer>
		<layer id="38" name="Unsqueeze_41/Unsqueeze" type="Unsqueeze" version="opset1">
			<input>
				<port id="0" precision="I64"/>
				<port id="1" precision="I64">
					<dim>1</dim>
				</port>
			</input>
			<output>
				<port id="2" precision="I64" names="659">
					<dim>1</dim>
				</port>
			</output>
		</layer>
		<layer id="39" name="2349" type="Const" version="opset1">
			<data element_type="i64" shape="1" offset="5476" size="8"/>
			<output>
				<port id="0" precision="I64" names="2349">
					<dim>1</dim>
				</port>
			</output>
		</layer>
		<layer id="40" name="Shape_28" type="ShapeOf" version="opset3">
			<data output_type="i64"/>
			<input>
				<port id="0" precision="FP16">
					<dim>1</dim>
					<dim>32</dim>
					<dim>56</dim>
					<dim>56</dim>
				</port>
			</input>
			<output>
				<port id="1" precision="I64" names="645">
					<dim>4</dim>
				</port>
			</output>
		</layer>
		<layer id="41" name="Constant_29" type="Const" version="opset1">
			<data element_type="i32" shape="" offset="5484" size="4"/>
			<output>
				<port id="0" precision="I32" names="646"/>
			</output>
		</layer>
		<layer id="42" name="Gather_30/axis" type="Const" version="opset1">
			<data element_type="i64" shape="" offset="5468" size="8"/>
			<output>
				<port id="0" precision="I64"/>
			</output>
		</layer>
		<layer id="43" name="Gather_302114" type="Gather" version="opset7">
			<data batch_dims="0"/>
			<input>
				<port id="0" precision="I64">
					<dim>4</dim>
				</port>
				<port id="1" precision="I32"/>
				<port id="2" precision="I64"/>
			</input>
			<output>
				<port id="3" precision="I64" names="647"/>
			</output>
		</layer>
		<layer id="44" name="Constant_37" type="Const" version="opset1">
			<data element_type="i64" shape="" offset="5476" size="8"/>
			<output>
				<port id="0" precision="I64" names="654"/>
			</output>
		</layer>
		<layer id="45" name="Div_38" type="Divide" version="opset1">
			<data auto_broadcast="numpy" m_pythondiv="true"/>
			<input>
				<port id="0" precision="I64"/>
				<port id="1" precision="I64"/>
			</input>
			<output>
				<port id="2" precision="I64" names="655,656,657"/>
			</output>
		</layer>
		<layer id="46" name="Unsqueeze_42/Dims" type="Const" version="opset1">
			<data element_type="i64" shape="1" offset="5468" size="8"/>
			<output>
				<port id="0" precision="I64">
					<dim>1</dim>
				</port>
			</output>
		</layer>
		<layer id="47" name="Unsqueeze_42/Unsqueeze" type="Unsqueeze" version="opset1">
			<input>
				<port id="0" precision="I64"/>
				<port id="1" precision="I64">
					<dim>1</dim>
				</port>
			</input>
			<output>
				<port id="2" precision="I64" names="661">
					<dim>1</dim>
				</port>
			</output>
		</layer>
		<layer id="48" name="Shape_31" type="ShapeOf" version="opset3">
			<data output_type="i64"/>
			<input>
				<port id="0" precision="FP16">
					<dim>1</dim>
					<dim>32</dim>
					<dim>56</dim>
					<dim>56</dim>
				</port>
			</input>
			<output>
				<port id="1" precision="I64" names="648">
					<dim>4</dim>
				</port>
			</output>
		</layer>
		<layer id="49" name="Constant_32" type="Const" version="opset1">
			<data element_type="i32" shape="" offset="5488" size="4"/>
			<output>
				<port id="0" precision="I32" names="649"/>
			</output>
		</layer>
		<layer id="50" name="Gather_33/axis" type="Const" version="opset1">
			<data element_type="i64" shape="" offset="5468" size="8"/>
			<output>
				<port id="0" precision="I64"/>
			</output>
		</layer>
		<layer id="51" name="Gather_331960" type="Gather" version="opset7">
			<data batch_dims="0"/>
			<input>
				<port id="0" precision="I64">
					<dim>4</dim>
				</port>
				<port id="1" precision="I32"/>
				<port id="2" precision="I64"/>
			</input>
			<output>
				<port id="3" precision="I64" names="650"/>
			</output>
		</layer>
		<layer id="52" name="Unsqueeze_43/Dims" type="Const" version="opset1">
			<data element_type="i64" shape="1" offset="5468" size="8"/>
			<output>
				<port id="0" precision="I64">
					<dim>1</dim>
				</port>
			</output>
		</layer>
		<layer id="53" name="Unsqueeze_43/Unsqueeze" type="Unsqueeze" version="opset1">
			<input>
				<port id="0" precision="I64"/>
				<port id="1" precision="I64">
					<dim>1</dim>
				</port>
			</input>
			<output>
				<port id="2" precision="I64" names="662">
					<dim>1</dim>
				</port>
			</output>
		</layer>
		<layer id="54" name="Shape_34" type="ShapeOf" version="opset3">
			<data output_type="i64"/>
			<input>
				<port id="0" precision="FP16">
					<dim>1</dim>
					<dim>32</dim>
					<dim>56</dim>
					<dim>56</dim>
				</port>
			</input>
			<output>
				<port id="1" precision="I64" names="651">
					<dim>4</dim>
				</port>
			</output>
		</layer>
		<layer id="55" name="Constant_35" type="Const" version="opset1">
			<data element_type="i32" shape="" offset="5492" size="4"/>
			<output>
				<port id="0" precision="I32" names="652"/>
			</output>
		</layer>
		<layer id="56" name="Gather_36/axis" type="Const" version="opset1">
			<data element_type="i64" shape="" offset="5468" size="8"/>
			<output>
				<port id="0" precision="I64"/>
			</output>
		</layer>
		<layer id="57" name="Gather_362032" type="Gather" version="opset7">
			<data batch_dims="0"/>
			<input>
				<port id="0" precision="I64">
					<dim>4</dim>
				</port>
				<port id="1" precision="I32"/>
				<port id="2" precision="I64"/>
			</input>
			<output>
				<port id="3" precision="I64" names="653"/>
			</output>
		</layer>
		<layer id="58" name="Unsqueeze_44/Dims" type="Const" version="opset1">
			<data element_type="i64" shape="1" offset="5468" size="8"/>
			<output>
				<port id="0" precision="I64">
					<dim>1</dim>
				</port>
			</output>
		</layer>
		<layer id="59" name="Unsqueeze_44/Unsqueeze" type="Unsqueeze" version="opset1">
			<input>
				<port id="0" precision="I64"/>
				<port id="1" precision="I64">
					<dim>1</dim>
				</port>
			</input>
			<output>
				<port id="2" precision="I64" names="663">
					<dim>1</dim>
				</port>
			</output>
		</layer>
		<layer id="60" name="Concat_45" type="Concat" version="opset1">
			<data axis="0"/>
			<input>
				<port id="0" precision="I64">
					<dim>1</dim>
				</port>
				<port id="1" precision="I64">
					<dim>1</dim>
				</port>
				<port id="2" precision="I64">
					<dim>1</dim>
				</port>
				<port id="3" precision="I64">
					<dim>1</dim>
				</port>
				<port id="4" precision="I64">
					<dim>1</dim>
				</port>
			</input>
			<output>
				<port id="5" precision="I64" names="664">
					<dim>5</dim>
				</port>
			</output>
		</layer>
		<layer id="61" name="Reshape_46" type="Reshape" version="opset1">
			<data special_zero="true"/>
			<input>
				<port id="0" precision="FP16">
					<dim>1</dim>
					<dim>32</dim>
					<dim>56</dim>
					<dim>56</dim>
				</port>
				<port id="1" precision="I64">
					<dim>5</dim>
				</port>
			</input>
			<output>
				<port id="2" precision="FP16" names="665">
					<dim>1</dim>
					<dim>2</dim>
					<dim>16</dim>
					<dim>56</dim>
					<dim>56</dim>
				</port>
			</output>
		</layer>
		<layer id="62" name="1529" type="Const" version="opset1">
			<data element_type="i64" shape="5" offset="5496" size="40"/>
			<output>
				<port id="0" precision="I64">
					<dim>5</dim>
				</port>
			</output>
		</layer>
		<layer id="63" name="Transpose_47" type="Transpose" version="opset1">
			<input>
				<port id="0" precision="FP16">
					<dim>1</dim>
					<dim>2</dim>
					<dim>16</dim>
					<dim>56</dim>
					<dim>56</dim>
				</port>
				<port id="1" precision="I64">
					<dim>5</dim>
				</port>
			</input>
			<output>
				<port id="2" precision="FP16" names="666">
					<dim>1</dim>
					<dim>16</dim>
					<dim>2</dim>
					<dim>56</dim>
					<dim>56</dim>
				</port>
			</output>
		</layer>
		<layer id="64" name="Unsqueeze_48/Dims" type="Const" version="opset1">
			<data element_type="i64" shape="1" offset="5468" size="8"/>
			<output>
				<port id="0" precision="I64">
					<dim>1</dim>
				</port>
			</output>
		</layer>
		<layer id="65" name="Unsqueeze_48/Unsqueeze" type="Unsqueeze" version="opset1">
			<input>
				<port id="0" precision="I64"/>
				<port id="1" precision="I64">
					<dim>1</dim>
				</port>
			</input>
			<output>
				<port id="2" precision="I64" names="668">
					<dim>1</dim>
				</port>
			</output>
		</layer>
		<layer id="66" name="2350" type="Const" version="opset1">
			<data element_type="i64" shape="1" offset="5536" size="8"/>
			<output>
				<port id="0" precision="I64" names="2350">
					<dim>1</dim>
				</port>
			</output>
		</layer>
		<layer id="67" name="Unsqueeze_49/Dims" type="Const" version="opset1">
			<data element_type="i64" shape="1" offset="5468" size="8"/>
			<output>
				<port id="0" precision="I64">
					<dim>1</dim>
				</port>
			</output>
		</layer>
		<layer id="68" name="Unsqueeze_49/Unsqueeze" type="Unsqueeze" version="opset1">
			<input>
				<port id="0" precision="I64"/>
				<port id="1" precision="I64">
					<dim>1</dim>
				</port>
			</input>
			<output>
				<port id="2" precision="I64" names="670">
					<dim>1</dim>
				</port>
			</output>
		</layer>
		<layer id="69" name="Unsqueeze_50/Dims" type="Const" version="opset1">
			<data element_type="i64" shape="1" offset="5468" size="8"/>
			<output>
				<port id="0" precision="I64">
					<dim>1</dim>
				</port>
			</output>
		</layer>
		<layer id="70" name="Unsqueeze_50/Unsqueeze" type="Unsqueeze" version="opset1">
			<input>
				<port id="0" precision="I64"/>
				<port id="1" precision="I64">
					<dim>1</dim>
				</port>
			</input>
			<output>
				<port id="2" precision="I64" names="671">
					<dim>1</dim>
				</port>
			</output>
		</layer>
		<layer id="71" name="Concat_51" type="Concat" version="opset1">
			<data axis="0"/>
			<input>
				<port id="0" precision="I64">
					<dim>1</dim>
				</port>
				<port id="1" precision="I64">
					<dim>1</dim>
				</port>
				<port id="2" precision="I64">
					<dim>1</dim>
				</port>
				<port id="3" precision="I64">
					<dim>1</dim>
				</port>
			</input>
			<output>
				<port id="4" precision="I64" names="672">
					<dim>4</dim>
				</port>
			</output>
		</layer>
		<layer id="72" name="Reshape_52" type="Reshape" version="opset1">
			<data special_zero="true"/>
			<input>
				<port id="0" precision="FP16">
					<dim>1</dim>
					<dim>16</dim>
					<dim>2</dim>
					<dim>56</dim>
					<dim>56</dim>
				</port>
				<port id="1" precision="I64">
					<dim>4</dim>
				</port>
			</input>
			<output>
				<port id="2" precision="FP16" names="673">
					<dim>1</dim>
					<dim>32</dim>
					<dim>56</dim>
					<dim>56</dim>
				</port>
			</output>
		</layer>
		<layer id="73" name="2035" type="Const" version="opset1">
			<data element_type="f16" shape="32, 1, 1, 3, 3" offset="5544" size="576"/>
			<output>
				<port id="0" precision="FP16" names="2035">
					<dim>32</dim>
					<dim>1</dim>
					<dim>1</dim>
					<dim>3</dim>
					<dim>3</dim>
				</port>
			</output>
		</layer>
		<layer id="74" name="Conv_53/WithoutBiases" type="GroupConvolution" version="opset1">
			<data strides="1, 1" pads_begin="1, 1" pads_end="1, 1" dilations="1, 1" auto_pad="explicit"/>
			<input>
				<port id="0" precision="FP16">
					<dim>1</dim>
					<dim>32</dim>
					<dim>56</dim>
					<dim>56</dim>
				</port>
				<port id="1" precision="FP16">
					<dim>32</dim>
					<dim>1</dim>
					<dim>1</dim>
					<dim>3</dim>
					<dim>3</dim>
				</port>
			</input>
			<output>
				<port id="2" precision="FP16">
					<dim>1</dim>
					<dim>32</dim>
					<dim>56</dim>
					<dim>56</dim>
				</port>
			</output>
		</layer>
		<layer id="75" name="Conv_53/Dims18611" type="Const" version="opset1">
			<data element_type="f16" shape="1, 32, 1, 1" offset="6120" size="64"/>
			<output>
				<port id="0" precision="FP16">
					<dim>1</dim>
					<dim>32</dim>
					<dim>1</dim>
					<dim>1</dim>
				</port>
			</output>
		</layer>
		<layer id="76" name="Conv_53" type="Add" version="opset1">
			<data auto_broadcast="numpy"/>
			<input>
				<port id="0" precision="FP16">
					<dim>1</dim>
					<dim>32</dim>
					<dim>56</dim>
					<dim>56</dim>
				</port>
				<port id="1" precision="FP16">
					<dim>1</dim>
					<dim>32</dim>
					<dim>1</dim>
					<dim>1</dim>
				</port>
			</input>
			<output>
				<port id="2" precision="FP16" names="2034">
					<dim>1</dim>
					<dim>32</dim>
					<dim>56</dim>
					<dim>56</dim>
				</port>
			</output>
		</layer>
		<layer id="77" name="2038" type="Const" version="opset1">
			<data element_type="f16" shape="16, 32, 3, 3" offset="6184" size="9216"/>
			<output>
				<port id="0" precision="FP16" names="2038">
					<dim>16</dim>
					<dim>32</dim>
					<dim>3</dim>
					<dim>3</dim>
				</port>
			</output>
		</layer>
		<layer id="78" name="Conv_54/WithoutBiases" type="Convolution" version="opset1">
			<data strides="1, 1" dilations="1, 1" pads_begin="1, 1" pads_end="1, 1" auto_pad="explicit"/>
			<input>
				<port id="0" precision="FP16">
					<dim>1</dim>
					<dim>32</dim>
					<dim>56</dim>
					<dim>56</dim>
				</port>
				<port id="1" precision="FP16">
					<dim>16</dim>
					<dim>32</dim>
					<dim>3</dim>
					<dim>3</dim>
				</port>
			</input>
			<output>
				<port id="2" precision="FP16">
					<dim>1</dim>
					<dim>16</dim>
					<dim>56</dim>
					<dim>56</dim>
				</port>
			</output>
		</layer>
		<layer id="79" name="Conv_54/Dims18203" type="Const" version="opset1">
			<data element_type="f16" shape="1, 16, 1, 1" offset="15400" size="32"/>
			<output>
				<port id="0" precision="FP16">
					<dim>1</dim>
					<dim>16</dim>
					<dim>1</dim>
					<dim>1</dim>
				</port>
			</output>
		</layer>
		<layer id="80" name="Conv_54" type="Add" version="opset1">
			<data auto_broadcast="numpy"/>
			<input>
				<port id="0" precision="FP16">
					<dim>1</dim>
					<dim>16</dim>
					<dim>56</dim>
					<dim>56</dim>
				</port>
				<port id="1" precision="FP16">
					<dim>1</dim>
					<dim>16</dim>
					<dim>1</dim>
					<dim>1</dim>
				</port>
			</input>
			<output>
				<port id="2" precision="FP16" names="2037">
					<dim>1</dim>
					<dim>16</dim>
					<dim>56</dim>
					<dim>56</dim>
				</port>
			</output>
		</layer>
		<layer id="81" name="Relu_55" type="ReLU" version="opset1">
			<input>
				<port id="0" precision="FP16">
					<dim>1</dim>
					<dim>16</dim>
					<dim>56</dim>
					<dim>56</dim>
				</port>
			</input>
			<output>
				<port id="1" precision="FP16" names="678">
					<dim>1</dim>
					<dim>16</dim>
					<dim>56</dim>
					<dim>56</dim>
				</port>
			</output>
		</layer>
		<layer id="82" name="2307173592" type="Const" version="opset1">
			<data element_type="i64" shape="" offset="1792" size="8"/>
			<output>
				<port id="0" precision="I64"/>
			</output>
		</layer>
		<layer id="83" name="2307374975" type="Const" version="opset1">
			<data element_type="i64" shape="2" offset="15432" size="16"/>
			<output>
				<port id="0" precision="I64">
					<dim>2</dim>
				</port>
			</output>
		</layer>
		<layer id="84" name="Slice_69/Split" type="VariadicSplit" version="opset1">
			<input>
				<port id="0" precision="FP16">
					<dim>1</dim>
					<dim>16</dim>
					<dim>56</dim>
					<dim>56</dim>
				</port>
				<port id="1" precision="I64"/>
				<port id="2" precision="I64">
					<dim>2</dim>
				</port>
			</input>
			<output>
				<port id="3" precision="FP16" names="694">
					<dim>1</dim>
					<dim>8</dim>
					<dim>56</dim>
					<dim>56</dim>
				</port>
				<port id="4" precision="FP16" names="697,713">
					<dim>1</dim>
					<dim>8</dim>
					<dim>56</dim>
					<dim>56</dim>
				</port>
			</output>
		</layer>
		<layer id="85" name="AveragePool_89" type="AvgPool" version="opset1">
			<data kernel="2, 2" strides="2, 2" pads_begin="0, 0" pads_end="0, 0" exclude-pad="true" auto_pad="explicit" rounding_type="floor"/>
			<input>
				<port id="0" precision="FP16">
					<dim>1</dim>
					<dim>8</dim>
					<dim>56</dim>
					<dim>56</dim>
				</port>
			</input>
			<output>
				<port id="1" precision="FP16" names="714">
					<dim>1</dim>
					<dim>8</dim>
					<dim>28</dim>
					<dim>28</dim>
				</port>
			</output>
		</layer>
		<layer id="86" name="2041" type="Const" version="opset1">
			<data element_type="f16" shape="32, 1, 1, 3, 3" offset="15448" size="576"/>
			<output>
				<port id="0" precision="FP16" names="2041">
					<dim>32</dim>
					<dim>1</dim>
					<dim>1</dim>
					<dim>3</dim>
					<dim>3</dim>
				</port>
			</output>
		</layer>
		<layer id="87" name="Conv_56/WithoutBiases" type="GroupConvolution" version="opset1">
			<data strides="2, 2" pads_begin="1, 1" pads_end="1, 1" dilations="1, 1" auto_pad="explicit"/>
			<input>
				<port id="0" precision="FP16">
					<dim>1</dim>
					<dim>32</dim>
					<dim>56</dim>
					<dim>56</dim>
				</port>
				<port id="1" precision="FP16">
					<dim>32</dim>
					<dim>1</dim>
					<dim>1</dim>
					<dim>3</dim>
					<dim>3</dim>
				</port>
			</input>
			<output>
				<port id="2" precision="FP16">
					<dim>1</dim>
					<dim>32</dim>
					<dim>28</dim>
					<dim>28</dim>
				</port>
			</output>
		</layer>
		<layer id="88" name="Conv_56/Dims18527" type="Const" version="opset1">
			<data element_type="f16" shape="1, 32, 1, 1" offset="16024" size="64"/>
			<output>
				<port id="0" precision="FP16">
					<dim>1</dim>
					<dim>32</dim>
					<dim>1</dim>
					<dim>1</dim>
				</port>
			</output>
		</layer>
		<layer id="89" name="Conv_56" type="Add" version="opset1">
			<data auto_broadcast="numpy"/>
			<input>
				<port id="0" precision="FP16">
					<dim>1</dim>
					<dim>32</dim>
					<dim>28</dim>
					<dim>28</dim>
				</port>
				<port id="1" precision="FP16">
					<dim>1</dim>
					<dim>32</dim>
					<dim>1</dim>
					<dim>1</dim>
				</port>
			</input>
			<output>
				<port id="2" precision="FP16" names="2040">
					<dim>1</dim>
					<dim>32</dim>
					<dim>28</dim>
					<dim>28</dim>
				</port>
			</output>
		</layer>
		<layer id="90" name="2044" type="Const" version="opset1">
			<data element_type="f16" shape="32, 32, 1, 1" offset="16088" size="2048"/>
			<output>
				<port id="0" precision="FP16" names="2044">
					<dim>32</dim>
					<dim>32</dim>
					<dim>1</dim>
					<dim>1</dim>
				</port>
			</output>
		</layer>
		<layer id="91" name="Conv_57/WithoutBiases" type="Convolution" version="opset1">
			<data strides="1, 1" dilations="1, 1" pads_begin="0, 0" pads_end="0, 0" auto_pad="explicit"/>
			<input>
				<port id="0" precision="FP16">
					<dim>1</dim>
					<dim>32</dim>
					<dim>28</dim>
					<dim>28</dim>
				</port>
				<port id="1" precision="FP16">
					<dim>32</dim>
					<dim>32</dim>
					<dim>1</dim>
					<dim>1</dim>
				</port>
			</input>
			<output>
				<port id="2" precision="FP16">
					<dim>1</dim>
					<dim>32</dim>
					<dim>28</dim>
					<dim>28</dim>
				</port>
			</output>
		</layer>
		<layer id="92" name="Conv_57/Dims18389" type="Const" version="opset1">
			<data element_type="f16" shape="1, 32, 1, 1" offset="18136" size="64"/>
			<output>
				<port id="0" precision="FP16">
					<dim>1</dim>
					<dim>32</dim>
					<dim>1</dim>
					<dim>1</dim>
				</port>
			</output>
		</layer>
		<layer id="93" name="Conv_57" type="Add" version="opset1">
			<data auto_broadcast="numpy"/>
			<input>
				<port id="0" precision="FP16">
					<dim>1</dim>
					<dim>32</dim>
					<dim>28</dim>
					<dim>28</dim>
				</port>
				<port id="1" precision="FP16">
					<dim>1</dim>
					<dim>32</dim>
					<dim>1</dim>
					<dim>1</dim>
				</port>
			</input>
			<output>
				<port id="2" precision="FP16" names="2043">
					<dim>1</dim>
					<dim>32</dim>
					<dim>28</dim>
					<dim>28</dim>
				</port>
			</output>
		</layer>
		<layer id="94" name="Relu_58" type="ReLU" version="opset1">
			<input>
				<port id="0" precision="FP16">
					<dim>1</dim>
					<dim>32</dim>
					<dim>28</dim>
					<dim>28</dim>
				</port>
			</input>
			<output>
				<port id="1" precision="FP16" names="683">
					<dim>1</dim>
					<dim>32</dim>
					<dim>28</dim>
					<dim>28</dim>
				</port>
			</output>
		</layer>
		<layer id="95" name="2307674360" type="Const" version="opset1">
			<data element_type="i64" shape="" offset="1792" size="8"/>
			<output>
				<port id="0" precision="I64"/>
			</output>
		</layer>
		<layer id="96" name="2307875230" type="Const" version="opset1">
			<data element_type="i64" shape="2" offset="1800" size="16"/>
			<output>
				<port id="0" precision="I64">
					<dim>2</dim>
				</port>
			</output>
		</layer>
		<layer id="97" name="Slice_83/Split" type="VariadicSplit" version="opset1">
			<input>
				<port id="0" precision="FP16">
					<dim>1</dim>
					<dim>32</dim>
					<dim>28</dim>
					<dim>28</dim>
				</port>
				<port id="1" precision="I64"/>
				<port id="2" precision="I64">
					<dim>2</dim>
				</port>
			</input>
			<output>
				<port id="3" precision="FP16" names="708">
					<dim>1</dim>
					<dim>16</dim>
					<dim>28</dim>
					<dim>28</dim>
				</port>
				<port id="4" precision="FP16" names="711">
					<dim>1</dim>
					<dim>16</dim>
					<dim>28</dim>
					<dim>28</dim>
				</port>
			</output>
		</layer>
		<layer id="98" name="Concat_90" type="Concat" version="opset1">
			<data axis="1"/>
			<input>
				<port id="0" precision="FP16">
					<dim>1</dim>
					<dim>8</dim>
					<dim>28</dim>
					<dim>28</dim>
				</port>
				<port id="1" precision="FP16">
					<dim>1</dim>
					<dim>16</dim>
					<dim>28</dim>
					<dim>28</dim>
				</port>
			</input>
			<output>
				<port id="2" precision="FP16" names="715">
					<dim>1</dim>
					<dim>24</dim>
					<dim>28</dim>
					<dim>28</dim>
				</port>
			</output>
		</layer>
		<layer id="99" name="stage0.0.layers.0.cross_resolution_weighting.conv1.0.weight" type="Const" version="opset1">
			<data element_type="f16" shape="3, 24, 1, 1" offset="18200" size="144"/>
			<output>
				<port id="0" precision="FP16" names="stage0.0.layers.0.cross_resolution_weighting.conv1.0.weight">
					<dim>3</dim>
					<dim>24</dim>
					<dim>1</dim>
					<dim>1</dim>
				</port>
			</output>
		</layer>
		<layer id="100" name="Conv_91/WithoutBiases" type="Convolution" version="opset1">
			<data strides="1, 1" dilations="1, 1" pads_begin="0, 0" pads_end="0, 0" auto_pad="explicit"/>
			<input>
				<port id="0" precision="FP16">
					<dim>1</dim>
					<dim>24</dim>
					<dim>28</dim>
					<dim>28</dim>
				</port>
				<port id="1" precision="FP16">
					<dim>3</dim>
					<dim>24</dim>
					<dim>1</dim>
					<dim>1</dim>
				</port>
			</input>
			<output>
				<port id="2" precision="FP16">
					<dim>1</dim>
					<dim>3</dim>
					<dim>28</dim>
					<dim>28</dim>
				</port>
			</output>
		</layer>
		<layer id="101" name="Conv_91/Dims18563" type="Const" version="opset1">
			<data element_type="f16" shape="1, 3, 1, 1" offset="18344" size="6"/>
			<output>
				<port id="0" precision="FP16">
					<dim>1</dim>
					<dim>3</dim>
					<dim>1</dim>
					<dim>1</dim>
				</port>
			</output>
		</layer>
		<layer id="102" name="Conv_91" type="Add" version="opset1">
			<data auto_broadcast="numpy"/>
			<input>
				<port id="0" precision="FP16">
					<dim>1</dim>
					<dim>3</dim>
					<dim>28</dim>
					<dim>28</dim>
				</port>
				<port id="1" precision="FP16">
					<dim>1</dim>
					<dim>3</dim>
					<dim>1</dim>
					<dim>1</dim>
				</port>
			</input>
			<output>
				<port id="2" precision="FP16" names="716">
					<dim>1</dim>
					<dim>3</dim>
					<dim>28</dim>
					<dim>28</dim>
				</port>
			</output>
		</layer>
		<layer id="103" name="Relu_92" type="ReLU" version="opset1">
			<input>
				<port id="0" precision="FP16">
					<dim>1</dim>
					<dim>3</dim>
					<dim>28</dim>
					<dim>28</dim>
				</port>
			</input>
			<output>
				<port id="1" precision="FP16" names="717">
					<dim>1</dim>
					<dim>3</dim>
					<dim>28</dim>
					<dim>28</dim>
				</port>
			</output>
		</layer>
		<layer id="104" name="stage0.0.layers.0.cross_resolution_weighting.conv2.0.weight" type="Const" version="opset1">
			<data element_type="f16" shape="24, 3, 1, 1" offset="18350" size="144"/>
			<output>
				<port id="0" precision="FP16" names="stage0.0.layers.0.cross_resolution_weighting.conv2.0.weight">
					<dim>24</dim>
					<dim>3</dim>
					<dim>1</dim>
					<dim>1</dim>
				</port>
			</output>
		</layer>
		<layer id="105" name="Conv_93/WithoutBiases" type="Convolution" version="opset1">
			<data strides="1, 1" dilations="1, 1" pads_begin="0, 0" pads_end="0, 0" auto_pad="explicit"/>
			<input>
				<port id="0" precision="FP16">
					<dim>1</dim>
					<dim>3</dim>
					<dim>28</dim>
					<dim>28</dim>
				</port>
				<port id="1" precision="FP16">
					<dim>24</dim>
					<dim>3</dim>
					<dim>1</dim>
					<dim>1</dim>
				</port>
			</input>
			<output>
				<port id="2" precision="FP16">
					<dim>1</dim>
					<dim>24</dim>
					<dim>28</dim>
					<dim>28</dim>
				</port>
			</output>
		</layer>
		<layer id="106" name="Conv_93/Dims18881" type="Const" version="opset1">
			<data element_type="f16" shape="1, 24, 1, 1" offset="18494" size="48"/>
			<output>
				<port id="0" precision="FP16">
					<dim>1</dim>
					<dim>24</dim>
					<dim>1</dim>
					<dim>1</dim>
				</port>
			</output>
		</layer>
		<layer id="107" name="Conv_93" type="Add" version="opset1">
			<data auto_broadcast="numpy"/>
			<input>
				<port id="0" precision="FP16">
					<dim>1</dim>
					<dim>24</dim>
					<dim>28</dim>
					<dim>28</dim>
				</port>
				<port id="1" precision="FP16">
					<dim>1</dim>
					<dim>24</dim>
					<dim>1</dim>
					<dim>1</dim>
				</port>
			</input>
			<output>
				<port id="2" precision="FP16" names="718">
					<dim>1</dim>
					<dim>24</dim>
					<dim>28</dim>
					<dim>28</dim>
				</port>
			</output>
		</layer>
		<layer id="108" name="Sigmoid_94" type="Sigmoid" version="opset1">
			<input>
				<port id="0" precision="FP16">
					<dim>1</dim>
					<dim>24</dim>
					<dim>28</dim>
					<dim>28</dim>
				</port>
			</input>
			<output>
				<port id="1" precision="FP16" names="719">
					<dim>1</dim>
					<dim>24</dim>
					<dim>28</dim>
					<dim>28</dim>
				</port>
			</output>
		</layer>
		<layer id="109" name="Split_95/VariadicSplit_input_port_1/value" type="Const" version="opset1">
			<data element_type="i64" shape="" offset="1792" size="8"/>
			<output>
				<port id="0" precision="I64"/>
			</output>
		</layer>
		<layer id="110" name="Split_95/VariadicSplit_input_port_2/value" type="Const" version="opset1">
			<data element_type="i64" shape="2" offset="18542" size="16"/>
			<output>
				<port id="0" precision="I64">
					<dim>2</dim>
				</port>
			</output>
		</layer>
		<layer id="111" name="Split_95/VariadicSplit" type="VariadicSplit" version="opset1">
			<input>
				<port id="0" precision="FP16">
					<dim>1</dim>
					<dim>24</dim>
					<dim>28</dim>
					<dim>28</dim>
				</port>
				<port id="1" precision="I64"/>
				<port id="2" precision="I64">
					<dim>2</dim>
				</port>
			</input>
			<output>
				<port id="3" precision="FP16" names="720">
					<dim>1</dim>
					<dim>8</dim>
					<dim>28</dim>
					<dim>28</dim>
				</port>
				<port id="4" precision="FP16" names="721">
					<dim>1</dim>
					<dim>16</dim>
					<dim>28</dim>
					<dim>28</dim>
				</port>
			</output>
		</layer>
		<layer id="112" name="Shape_105" type="ShapeOf" version="opset3">
			<data output_type="i64"/>
			<input>
				<port id="0" precision="FP16">
					<dim>1</dim>
					<dim>8</dim>
					<dim>28</dim>
					<dim>28</dim>
				</port>
			</input>
			<output>
				<port id="1" precision="I64" names="731">
					<dim>4</dim>
				</port>
			</output>
		</layer>
		<layer id="113" name="Slice_109/Concat2028173730" type="Const" version="opset1">
			<data element_type="i64" shape="1" offset="5468" size="8"/>
			<output>
				<port id="0" precision="I64">
					<dim>1</dim>
				</port>
			</output>
		</layer>
		<layer id="114" name="Slice_109/Concat202712028273604" type="Const" version="opset1">
			<data element_type="i64" shape="1" offset="5476" size="8"/>
			<output>
				<port id="0" precision="I64">
					<dim>1</dim>
				</port>
			</output>
		</layer>
		<layer id="115" name="Slice_109/Strides2028373829" type="Const" version="opset1">
			<data element_type="i64" shape="1" offset="1792" size="8"/>
			<output>
				<port id="0" precision="I64">
					<dim>1</dim>
				</port>
			</output>
		</layer>
		<layer id="116" name="Slice_109" type="StridedSlice" version="opset1">
			<data begin_mask="0" end_mask="0" new_axis_mask="0" shrink_axis_mask="0" ellipsis_mask="0"/>
			<input>
				<port id="0" precision="I64">
					<dim>4</dim>
				</port>
				<port id="1" precision="I64">
					<dim>1</dim>
				</port>
				<port id="2" precision="I64">
					<dim>1</dim>
				</port>
				<port id="3" precision="I64">
					<dim>1</dim>
				</port>
			</input>
			<output>
				<port id="4" precision="I64" names="735">
					<dim>2</dim>
				</port>
			</output>
		</layer>
		<layer id="117" name="Shape_96" type="ShapeOf" version="opset3">
			<data output_type="i64"/>
			<input>
				<port id="0" precision="FP16">
					<dim>1</dim>
					<dim>8</dim>
					<dim>56</dim>
					<dim>56</dim>
				</port>
			</input>
			<output>
				<port id="1" precision="I64" names="722">
					<dim>4</dim>
				</port>
			</output>
		</layer>
		<layer id="118" name="Constant_97" type="Const" version="opset1">
			<data element_type="i32" shape="" offset="5488" size="4"/>
			<output>
				<port id="0" precision="I32" names="723"/>
			</output>
		</layer>
		<layer id="119" name="Gather_98/axis" type="Const" version="opset1">
			<data element_type="i64" shape="" offset="5468" size="8"/>
			<output>
				<port id="0" precision="I64"/>
			</output>
		</layer>
		<layer id="120" name="Gather_981980" type="Gather" version="opset7">
			<data batch_dims="0"/>
			<input>
				<port id="0" precision="I64">
					<dim>4</dim>
				</port>
				<port id="1" precision="I32"/>
				<port id="2" precision="I64"/>
			</input>
			<output>
				<port id="3" precision="I64" names="724"/>
			</output>
		</layer>
		<layer id="121" name="Unsqueeze_102/Dims" type="Const" version="opset1">
			<data element_type="i64" shape="1" offset="5468" size="8"/>
			<output>
				<port id="0" precision="I64">
					<dim>1</dim>
				</port>
			</output>
		</layer>
		<layer id="122" name="Unsqueeze_102/Unsqueeze" type="Unsqueeze" version="opset1">
			<input>
				<port id="0" precision="I64"/>
				<port id="1" precision="I64">
					<dim>1</dim>
				</port>
			</input>
			<output>
				<port id="2" precision="I64" names="728">
					<dim>1</dim>
				</port>
			</output>
		</layer>
		<layer id="123" name="Shape_99" type="ShapeOf" version="opset3">
			<data output_type="i64"/>
			<input>
				<port id="0" precision="FP16">
					<dim>1</dim>
					<dim>8</dim>
					<dim>56</dim>
					<dim>56</dim>
				</port>
			</input>
			<output>
				<port id="1" precision="I64" names="725">
					<dim>4</dim>
				</port>
			</output>
		</layer>
		<layer id="124" name="Constant_100" type="Const" version="opset1">
			<data element_type="i32" shape="" offset="5492" size="4"/>
			<output>
				<port id="0" precision="I32" names="726"/>
			</output>
		</layer>
		<layer id="125" name="Gather_101/axis" type="Const" version="opset1">
			<data element_type="i64" shape="" offset="5468" size="8"/>
			<output>
				<port id="0" precision="I64"/>
			</output>
		</layer>
		<layer id="126" name="Gather_1012070" type="Gather" version="opset7">
			<data batch_dims="0"/>
			<input>
				<port id="0" precision="I64">
					<dim>4</dim>
				</port>
				<port id="1" precision="I32"/>
				<port id="2" precision="I64"/>
			</input>
			<output>
				<port id="3" precision="I64" names="727"/>
			</output>
		</layer>
		<layer id="127" name="Unsqueeze_103/Dims" type="Const" version="opset1">
			<data element_type="i64" shape="1" offset="5468" size="8"/>
			<output>
				<port id="0" precision="I64">
					<dim>1</dim>
				</port>
			</output>
		</layer>
		<layer id="128" name="Unsqueeze_103/Unsqueeze" type="Unsqueeze" version="opset1">
			<input>
				<port id="0" precision="I64"/>
				<port id="1" precision="I64">
					<dim>1</dim>
				</port>
			</input>
			<output>
				<port id="2" precision="I64" names="729">
					<dim>1</dim>
				</port>
			</output>
		</layer>
		<layer id="129" name="Concat_104" type="Concat" version="opset1">
			<data axis="0"/>
			<input>
				<port id="0" precision="I64">
					<dim>1</dim>
				</port>
				<port id="1" precision="I64">
					<dim>1</dim>
				</port>
			</input>
			<output>
				<port id="2" precision="I64" names="730,736">
					<dim>2</dim>
				</port>
			</output>
		</layer>
		<layer id="130" name="Concat_111" type="Concat" version="opset1">
			<data axis="0"/>
			<input>
				<port id="0" precision="I64">
					<dim>2</dim>
				</port>
				<port id="1" precision="I64">
					<dim>2</dim>
				</port>
			</input>
			<output>
				<port id="2" precision="I64" names="737">
					<dim>4</dim>
				</port>
			</output>
		</layer>
		<layer id="131" name="Resize_114/StridedSlice_sizes_input_port_1/value1400573556" type="Const" version="opset1">
			<data element_type="i64" shape="1" offset="5476" size="8"/>
			<output>
				<port id="0" precision="I64">
					<dim>1</dim>
				</port>
			</output>
		</layer>
		<layer id="132" name="Resize_114/StridedSlice_sizes_input_port_2/value1400772653" type="Const" version="opset1">
			<data element_type="i64" shape="1" offset="18558" size="8"/>
			<output>
				<port id="0" precision="I64">
					<dim>1</dim>
				</port>
			</output>
		</layer>
		<layer id="133" name="Resize_114/StridedSlice_sizes_input_port_3/value1400974726" type="Const" version="opset1">
			<data element_type="i64" shape="1" offset="1792" size="8"/>
			<output>
				<port id="0" precision="I64">
					<dim>1</dim>
				</port>
			</output>
		</layer>
		<layer id="134" name="Resize_114/StridedSlice_sizes" type="StridedSlice" version="opset1">
			<data begin_mask="0" end_mask="0" new_axis_mask="0" shrink_axis_mask="0" ellipsis_mask="0"/>
			<input>
				<port id="0" precision="I64">
					<dim>4</dim>
				</port>
				<port id="1" precision="I64">
					<dim>1</dim>
				</port>
				<port id="2" precision="I64">
					<dim>1</dim>
				</port>
				<port id="3" precision="I64">
					<dim>1</dim>
				</port>
			</input>
			<output>
				<port id="4" precision="I64">
					<dim>2</dim>
				</port>
			</output>
		</layer>
		<layer id="135" name="14025" type="Convert" version="opset1">
			<data destination_type="f32"/>
			<input>
				<port id="0" precision="I64">
					<dim>4</dim>
				</port>
			</input>
			<output>
				<port id="1" precision="FP32">
					<dim>4</dim>
				</port>
			</output>
		</layer>
		<layer id="136" name="Resize_114/ShapeOf" type="ShapeOf" version="opset3">
			<data output_type="i64"/>
			<input>
				<port id="0" precision="FP16">
					<dim>1</dim>
					<dim>8</dim>
					<dim>28</dim>
					<dim>28</dim>
				</port>
			</input>
			<output>
				<port id="1" precision="I64">
					<dim>4</dim>
				</port>
			</output>
		</layer>
		<layer id="137" name="14024" type="Convert" version="opset1">
			<data destination_type="f32"/>
			<input>
				<port id="0" precision="I64">
					<dim>4</dim>
				</port>
			</input>
			<output>
				<port id="1" precision="FP32">
					<dim>4</dim>
				</port>
			</output>
		</layer>
		<layer id="138" name="Resize_114/Div" type="Divide" version="opset1">
			<data auto_broadcast="numpy" m_pythondiv="true"/>
			<input>
				<port id="0" precision="FP32">
					<dim>4</dim>
				</port>
				<port id="1" precision="FP32">
					<dim>4</dim>
				</port>
			</input>
			<output>
				<port id="2" precision="FP32">
					<dim>4</dim>
				</port>
			</output>
		</layer>
		<layer id="139" name="Resize_114/Add_input_port_1/value1402373892" type="Const" version="opset1">
			<data element_type="f32" shape="1" offset="18566" size="4"/>
			<output>
				<port id="0" precision="FP32">
					<dim>1</dim>
				</port>
			</output>
		</layer>
		<layer id="140" name="Resize_114/Add" type="Add" version="opset1">
			<data auto_broadcast="numpy"/>
			<input>
				<port id="0" precision="FP32">
					<dim>4</dim>
				</port>
				<port id="1" precision="FP32">
					<dim>1</dim>
				</port>
			</input>
			<output>
				<port id="2" precision="FP32">
					<dim>4</dim>
				</port>
			</output>
		</layer>
		<layer id="141" name="Resize_114/StridedSlice_scales_input_port_1/value1401273985" type="Const" version="opset1">
			<data element_type="i64" shape="1" offset="5476" size="8"/>
			<output>
				<port id="0" precision="I64">
					<dim>1</dim>
				</port>
			</output>
		</layer>
		<layer id="142" name="Resize_114/StridedSlice_scales_input_port_2/value1401473796" type="Const" version="opset1">
			<data element_type="i64" shape="1" offset="18558" size="8"/>
			<output>
				<port id="0" precision="I64">
					<dim>1</dim>
				</port>
			</output>
		</layer>
		<layer id="143" name="Resize_114/StridedSlice_scales_input_port_3/value1401673574" type="Const" version="opset1">
			<data element_type="i64" shape="1" offset="1792" size="8"/>
			<output>
				<port id="0" precision="I64">
					<dim>1</dim>
				</port>
			</output>
		</layer>
		<layer id="144" name="Resize_114/StridedSlice_scales" type="StridedSlice" version="opset1">
			<data begin_mask="0" end_mask="0" new_axis_mask="0" shrink_axis_mask="0" ellipsis_mask="0"/>
			<input>
				<port id="0" precision="FP32">
					<dim>4</dim>
				</port>
				<port id="1" precision="I64">
					<dim>1</dim>
				</port>
				<port id="2" precision="I64">
					<dim>1</dim>
				</port>
				<port id="3" precision="I64">
					<dim>1</dim>
				</port>
			</input>
			<output>
				<port id="4" precision="FP32">
					<dim>2</dim>
				</port>
			</output>
		</layer>
		<layer id="145" name="Resize_114/axis1401973931" type="Const" version="opset1">
			<data element_type="i64" shape="2" offset="18570" size="16"/>
			<output>
				<port id="0" precision="I64">
					<dim>2</dim>
				</port>
			</output>
		</layer>
		<layer id="146" name="Resize_114" type="Interpolate" version="opset4">
			<data mode="nearest" shape_calculation_mode="sizes" coordinate_transformation_mode="asymmetric" nearest_mode="floor" antialias="false" pads_begin="0, 0, 0, 0" pads_end="0, 0, 0, 0" cube_coeff="-0.75"/>
			<input>
				<port id="0" precision="FP16">
					<dim>1</dim>
					<dim>8</dim>
					<dim>28</dim>
					<dim>28</dim>
				</port>
				<port id="1" precision="I64">
					<dim>2</dim>
				</port>
				<port id="2" precision="FP32">
					<dim>2</dim>
				</port>
				<port id="3" precision="I64">
					<dim>2</dim>
				</port>
			</input>
			<output>
				<port id="4" precision="FP16" names="740">
					<dim>1</dim>
					<dim>8</dim>
					<dim>56</dim>
					<dim>56</dim>
				</port>
			</output>
		</layer>
		<layer id="147" name="Mul_115" type="Multiply" version="opset1">
			<data auto_broadcast="numpy"/>
			<input>
				<port id="0" precision="FP16">
					<dim>1</dim>
					<dim>8</dim>
					<dim>56</dim>
					<dim>56</dim>
				</port>
				<port id="1" precision="FP16">
					<dim>1</dim>
					<dim>8</dim>
					<dim>56</dim>
					<dim>56</dim>
				</port>
			</input>
			<output>
				<port id="2" precision="FP16" names="741">
					<dim>1</dim>
					<dim>8</dim>
					<dim>56</dim>
					<dim>56</dim>
				</port>
			</output>
		</layer>
		<layer id="148" name="2047" type="Const" version="opset1">
			<data element_type="f16" shape="8, 1, 1, 3, 3" offset="18586" size="144"/>
			<output>
				<port id="0" precision="FP16" names="2047">
					<dim>8</dim>
					<dim>1</dim>
					<dim>1</dim>
					<dim>3</dim>
					<dim>3</dim>
				</port>
			</output>
		</layer>
		<layer id="149" name="Conv_136/WithoutBiases" type="GroupConvolution" version="opset1">
			<data strides="1, 1" pads_begin="1, 1" pads_end="1, 1" dilations="1, 1" auto_pad="explicit"/>
			<input>
				<port id="0" precision="FP16">
					<dim>1</dim>
					<dim>8</dim>
					<dim>56</dim>
					<dim>56</dim>
				</port>
				<port id="1" precision="FP16">
					<dim>8</dim>
					<dim>1</dim>
					<dim>1</dim>
					<dim>3</dim>
					<dim>3</dim>
				</port>
			</input>
			<output>
				<port id="2" precision="FP16">
					<dim>1</dim>
					<dim>8</dim>
					<dim>56</dim>
					<dim>56</dim>
				</port>
			</output>
		</layer>
		<layer id="150" name="Conv_136/Dims18677" type="Const" version="opset1">
			<data element_type="f16" shape="1, 8, 1, 1" offset="18730" size="16"/>
			<output>
				<port id="0" precision="FP16">
					<dim>1</dim>
					<dim>8</dim>
					<dim>1</dim>
					<dim>1</dim>
				</port>
			</output>
		</layer>
		<layer id="151" name="Conv_136" type="Add" version="opset1">
			<data auto_broadcast="numpy"/>
			<input>
				<port id="0" precision="FP16">
					<dim>1</dim>
					<dim>8</dim>
					<dim>56</dim>
					<dim>56</dim>
				</port>
				<port id="1" precision="FP16">
					<dim>1</dim>
					<dim>8</dim>
					<dim>1</dim>
					<dim>1</dim>
				</port>
			</input>
			<output>
				<port id="2" precision="FP16" names="2046">
					<dim>1</dim>
					<dim>8</dim>
					<dim>56</dim>
					<dim>56</dim>
				</port>
			</output>
		</layer>
		<layer id="152" name="1814" type="Const" version="opset1">
			<data element_type="i64" shape="" offset="5476" size="8"/>
			<output>
				<port id="0" precision="I64"/>
			</output>
		</layer>
		<layer id="153" name="GlobalAveragePool_138/input_rank/shape_of" type="ShapeOf" version="opset3">
			<data output_type="i64"/>
			<input>
				<port id="0" precision="FP16">
					<dim>1</dim>
					<dim>8</dim>
					<dim>56</dim>
					<dim>56</dim>
				</port>
			</input>
			<output>
				<port id="1" precision="I64">
					<dim>4</dim>
				</port>
			</output>
		</layer>
		<layer id="154" name="GlobalAveragePool_138/input_rank/rank_of" type="ShapeOf" version="opset3">
			<data output_type="i64"/>
			<input>
				<port id="0" precision="I64">
					<dim>4</dim>
				</port>
			</input>
			<output>
				<port id="1" precision="I64">
					<dim>1</dim>
				</port>
			</output>
		</layer>
		<layer id="155" name="GlobalAveragePool_138/input_rank/0d_rank_of/value" type="Const" version="opset1">
			<data element_type="i64" shape="1" offset="5468" size="8"/>
			<output>
				<port id="0" precision="I64">
					<dim>1</dim>
				</port>
			</output>
		</layer>
		<layer id="156" name="GlobalAveragePool_138/input_rank" type="Squeeze" version="opset1">
			<input>
				<port id="0" precision="I64">
					<dim>1</dim>
				</port>
				<port id="1" precision="I64">
					<dim>1</dim>
				</port>
			</input>
			<output>
				<port id="2" precision="I64"/>
			</output>
		</layer>
		<layer id="157" name="1816" type="Const" version="opset1">
			<data element_type="i64" shape="" offset="1792" size="8"/>
			<output>
				<port id="0" precision="I64"/>
			</output>
		</layer>
		<layer id="158" name="GlobalAveragePool_138/global_pooling_reduce_axis" type="Range" version="opset4">
			<data output_type="i64"/>
			<input>
				<port id="0" precision="I64"/>
				<port id="1" precision="I64"/>
				<port id="2" precision="I64"/>
			</input>
			<output>
				<port id="3" precision="I64">
					<dim>2</dim>
				</port>
			</output>
		</layer>
		<layer id="159" name="GlobalAveragePool_138/reduce" type="ReduceMean" version="opset1">
			<data keep_dims="true"/>
			<input>
				<port id="0" precision="FP16">
					<dim>1</dim>
					<dim>8</dim>
					<dim>56</dim>
					<dim>56</dim>
				</port>
				<port id="1" precision="I64">
					<dim>2</dim>
				</port>
			</input>
			<output>
				<port id="2" precision="FP16" names="766">
					<dim>1</dim>
					<dim>8</dim>
					<dim>1</dim>
					<dim>1</dim>
				</port>
			</output>
		</layer>
		<layer id="160" name="stage0.0.layers.0.spatial_weighting.0.conv1.0.weight" type="Const" version="opset1">
			<data element_type="f16" shape="2, 8, 1, 1" offset="18746" size="32"/>
			<output>
				<port id="0" precision="FP16" names="stage0.0.layers.0.spatial_weighting.0.conv1.0.weight">
					<dim>2</dim>
					<dim>8</dim>
					<dim>1</dim>
					<dim>1</dim>
				</port>
			</output>
		</layer>
		<layer id="161" name="Conv_139/WithoutBiases" type="Convolution" version="opset1">
			<data strides="1, 1" dilations="1, 1" pads_begin="0, 0" pads_end="0, 0" auto_pad="explicit"/>
			<input>
				<port id="0" precision="FP16">
					<dim>1</dim>
					<dim>8</dim>
					<dim>1</dim>
					<dim>1</dim>
				</port>
				<port id="1" precision="FP16">
					<dim>2</dim>
					<dim>8</dim>
					<dim>1</dim>
					<dim>1</dim>
				</port>
			</input>
			<output>
				<port id="2" precision="FP16">
					<dim>1</dim>
					<dim>2</dim>
					<dim>1</dim>
					<dim>1</dim>
				</port>
			</output>
		</layer>
		<layer id="162" name="Conv_139/Dims18521" type="Const" version="opset1">
			<data element_type="f16" shape="1, 2, 1, 1" offset="18778" size="4"/>
			<output>
				<port id="0" precision="FP16">
					<dim>1</dim>
					<dim>2</dim>
					<dim>1</dim>
					<dim>1</dim>
				</port>
			</output>
		</layer>
		<layer id="163" name="Conv_139" type="Add" version="opset1">
			<data auto_broadcast="numpy"/>
			<input>
				<port id="0" precision="FP16">
					<dim>1</dim>
					<dim>2</dim>
					<dim>1</dim>
					<dim>1</dim>
				</port>
				<port id="1" precision="FP16">
					<dim>1</dim>
					<dim>2</dim>
					<dim>1</dim>
					<dim>1</dim>
				</port>
			</input>
			<output>
				<port id="2" precision="FP16" names="767">
					<dim>1</dim>
					<dim>2</dim>
					<dim>1</dim>
					<dim>1</dim>
				</port>
			</output>
		</layer>
		<layer id="164" name="Relu_140" type="ReLU" version="opset1">
			<input>
				<port id="0" precision="FP16">
					<dim>1</dim>
					<dim>2</dim>
					<dim>1</dim>
					<dim>1</dim>
				</port>
			</input>
			<output>
				<port id="1" precision="FP16" names="768">
					<dim>1</dim>
					<dim>2</dim>
					<dim>1</dim>
					<dim>1</dim>
				</port>
			</output>
		</layer>
		<layer id="165" name="stage0.0.layers.0.spatial_weighting.0.conv2.0.weight" type="Const" version="opset1">
			<data element_type="f16" shape="8, 2, 1, 1" offset="18782" size="32"/>
			<output>
				<port id="0" precision="FP16" names="stage0.0.layers.0.spatial_weighting.0.conv2.0.weight">
					<dim>8</dim>
					<dim>2</dim>
					<dim>1</dim>
					<dim>1</dim>
				</port>
			</output>
		</layer>
		<layer id="166" name="Conv_141/WithoutBiases" type="Convolution" version="opset1">
			<data strides="1, 1" dilations="1, 1" pads_begin="0, 0" pads_end="0, 0" auto_pad="explicit"/>
			<input>
				<port id="0" precision="FP16">
					<dim>1</dim>
					<dim>2</dim>
					<dim>1</dim>
					<dim>1</dim>
				</port>
				<port id="1" precision="FP16">
					<dim>8</dim>
					<dim>2</dim>
					<dim>1</dim>
					<dim>1</dim>
				</port>
			</input>
			<output>
				<port id="2" precision="FP16">
					<dim>1</dim>
					<dim>8</dim>
					<dim>1</dim>
					<dim>1</dim>
				</port>
			</output>
		</layer>
		<layer id="167" name="Conv_141/Dims18353" type="Const" version="opset1">
			<data element_type="f16" shape="1, 8, 1, 1" offset="18814" size="16"/>
			<output>
				<port id="0" precision="FP16">
					<dim>1</dim>
					<dim>8</dim>
					<dim>1</dim>
					<dim>1</dim>
				</port>
			</output>
		</layer>
		<layer id="168" name="Conv_141" type="Add" version="opset1">
			<data auto_broadcast="numpy"/>
			<input>
				<port id="0" precision="FP16">
					<dim>1</dim>
					<dim>8</dim>
					<dim>1</dim>
					<dim>1</dim>
				</port>
				<port id="1" precision="FP16">
					<dim>1</dim>
					<dim>8</dim>
					<dim>1</dim>
					<dim>1</dim>
				</port>
			</input>
			<output>
				<port id="2" precision="FP16" names="769">
					<dim>1</dim>
					<dim>8</dim>
					<dim>1</dim>
					<dim>1</dim>
				</port>
			</output>
		</layer>
		<layer id="169" name="Sigmoid_142" type="Sigmoid" version="opset1">
			<input>
				<port id="0" precision="FP16">
					<dim>1</dim>
					<dim>8</dim>
					<dim>1</dim>
					<dim>1</dim>
				</port>
			</input>
			<output>
				<port id="1" precision="FP16" names="770">
					<dim>1</dim>
					<dim>8</dim>
					<dim>1</dim>
					<dim>1</dim>
				</port>
			</output>
		</layer>
		<layer id="170" name="Mul_143" type="Multiply" version="opset1">
			<data auto_broadcast="numpy"/>
			<input>
				<port id="0" precision="FP16">
					<dim>1</dim>
					<dim>8</dim>
					<dim>56</dim>
					<dim>56</dim>
				</port>
				<port id="1" precision="FP16">
					<dim>1</dim>
					<dim>8</dim>
					<dim>1</dim>
					<dim>1</dim>
				</port>
			</input>
			<output>
				<port id="2" precision="FP16" names="771">
					<dim>1</dim>
					<dim>8</dim>
					<dim>56</dim>
					<dim>56</dim>
				</port>
			</output>
		</layer>
		<layer id="171" name="Concat_150" type="Concat" version="opset1">
			<data axis="1"/>
			<input>
				<port id="0" precision="FP16">
					<dim>1</dim>
					<dim>8</dim>
					<dim>56</dim>
					<dim>56</dim>
				</port>
				<port id="1" precision="FP16">
					<dim>1</dim>
					<dim>8</dim>
					<dim>56</dim>
					<dim>56</dim>
				</port>
			</input>
			<output>
				<port id="2" precision="FP16" names="778">
					<dim>1</dim>
					<dim>16</dim>
					<dim>56</dim>
					<dim>56</dim>
				</port>
			</output>
		</layer>
		<layer id="172" name="Shape_152" type="ShapeOf" version="opset3">
			<data output_type="i64"/>
			<input>
				<port id="0" precision="FP16">
					<dim>1</dim>
					<dim>16</dim>
					<dim>56</dim>
					<dim>56</dim>
				</port>
			</input>
			<output>
				<port id="1" precision="I64" names="780">
					<dim>4</dim>
				</port>
			</output>
		</layer>
		<layer id="173" name="Constant_153" type="Const" version="opset1">
			<data element_type="i32" shape="" offset="5464" size="4"/>
			<output>
				<port id="0" precision="I32" names="781"/>
			</output>
		</layer>
		<layer id="174" name="Gather_154/axis" type="Const" version="opset1">
			<data element_type="i64" shape="" offset="5468" size="8"/>
			<output>
				<port id="0" precision="I64"/>
			</output>
		</layer>
		<layer id="175" name="Gather_1542072" type="Gather" version="opset7">
			<data batch_dims="0"/>
			<input>
				<port id="0" precision="I64">
					<dim>4</dim>
				</port>
				<port id="1" precision="I32"/>
				<port id="2" precision="I64"/>
			</input>
			<output>
				<port id="3" precision="I64" names="782"/>
			</output>
		</layer>
		<layer id="176" name="Unsqueeze_168/Dims" type="Const" version="opset1">
			<data element_type="i64" shape="1" offset="5468" size="8"/>
			<output>
				<port id="0" precision="I64">
					<dim>1</dim>
				</port>
			</output>
		</layer>
		<layer id="177" name="Unsqueeze_168/Unsqueeze" type="Unsqueeze" version="opset1">
			<input>
				<port id="0" precision="I64"/>
				<port id="1" precision="I64">
					<dim>1</dim>
				</port>
			</input>
			<output>
				<port id="2" precision="I64" names="797">
					<dim>1</dim>
				</port>
			</output>
		</layer>
		<layer id="178" name="2351" type="Const" version="opset1">
			<data element_type="i64" shape="1" offset="5476" size="8"/>
			<output>
				<port id="0" precision="I64" names="2351">
					<dim>1</dim>
				</port>
			</output>
		</layer>
		<layer id="179" name="Shape_155" type="ShapeOf" version="opset3">
			<data output_type="i64"/>
			<input>
				<port id="0" precision="FP16">
					<dim>1</dim>
					<dim>16</dim>
					<dim>56</dim>
					<dim>56</dim>
				</port>
			</input>
			<output>
				<port id="1" precision="I64" names="783">
					<dim>4</dim>
				</port>
			</output>
		</layer>
		<layer id="180" name="Constant_156" type="Const" version="opset1">
			<data element_type="i32" shape="" offset="5484" size="4"/>
			<output>
				<port id="0" precision="I32" names="784"/>
			</output>
		</layer>
		<layer id="181" name="Gather_157/axis" type="Const" version="opset1">
			<data element_type="i64" shape="" offset="5468" size="8"/>
			<output>
				<port id="0" precision="I64"/>
			</output>
		</layer>
		<layer id="182" name="Gather_1571976" type="Gather" version="opset7">
			<data batch_dims="0"/>
			<input>
				<port id="0" precision="I64">
					<dim>4</dim>
				</port>
				<port id="1" precision="I32"/>
				<port id="2" precision="I64"/>
			</input>
			<output>
				<port id="3" precision="I64" names="785"/>
			</output>
		</layer>
		<layer id="183" name="Constant_164" type="Const" version="opset1">
			<data element_type="i64" shape="" offset="5476" size="8"/>
			<output>
				<port id="0" precision="I64" names="792"/>
			</output>
		</layer>
		<layer id="184" name="Div_165" type="Divide" version="opset1">
			<data auto_broadcast="numpy" m_pythondiv="true"/>
			<input>
				<port id="0" precision="I64"/>
				<port id="1" precision="I64"/>
			</input>
			<output>
				<port id="2" precision="I64" names="793,794,795"/>
			</output>
		</layer>
		<layer id="185" name="Unsqueeze_169/Dims" type="Const" version="opset1">
			<data element_type="i64" shape="1" offset="5468" size="8"/>
			<output>
				<port id="0" precision="I64">
					<dim>1</dim>
				</port>
			</output>
		</layer>
		<layer id="186" name="Unsqueeze_169/Unsqueeze" type="Unsqueeze" version="opset1">
			<input>
				<port id="0" precision="I64"/>
				<port id="1" precision="I64">
					<dim>1</dim>
				</port>
			</input>
			<output>
				<port id="2" precision="I64" names="799">
					<dim>1</dim>
				</port>
			</output>
		</layer>
		<layer id="187" name="Shape_158" type="ShapeOf" version="opset3">
			<data output_type="i64"/>
			<input>
				<port id="0" precision="FP16">
					<dim>1</dim>
					<dim>16</dim>
					<dim>56</dim>
					<dim>56</dim>
				</port>
			</input>
			<output>
				<port id="1" precision="I64" names="786">
					<dim>4</dim>
				</port>
			</output>
		</layer>
		<layer id="188" name="Constant_159" type="Const" version="opset1">
			<data element_type="i32" shape="" offset="5488" size="4"/>
			<output>
				<port id="0" precision="I32" names="787"/>
			</output>
		</layer>
		<layer id="189" name="Gather_160/axis" type="Const" version="opset1">
			<data element_type="i64" shape="" offset="5468" size="8"/>
			<output>
				<port id="0" precision="I64"/>
			</output>
		</layer>
		<layer id="190" name="Gather_1602026" type="Gather" version="opset7">
			<data batch_dims="0"/>
			<input>
				<port id="0" precision="I64">
					<dim>4</dim>
				</port>
				<port id="1" precision="I32"/>
				<port id="2" precision="I64"/>
			</input>
			<output>
				<port id="3" precision="I64" names="788"/>
			</output>
		</layer>
		<layer id="191" name="Unsqueeze_170/Dims" type="Const" version="opset1">
			<data element_type="i64" shape="1" offset="5468" size="8"/>
			<output>
				<port id="0" precision="I64">
					<dim>1</dim>
				</port>
			</output>
		</layer>
		<layer id="192" name="Unsqueeze_170/Unsqueeze" type="Unsqueeze" version="opset1">
			<input>
				<port id="0" precision="I64"/>
				<port id="1" precision="I64">
					<dim>1</dim>
				</port>
			</input>
			<output>
				<port id="2" precision="I64" names="800">
					<dim>1</dim>
				</port>
			</output>
		</layer>
		<layer id="193" name="Shape_161" type="ShapeOf" version="opset3">
			<data output_type="i64"/>
			<input>
				<port id="0" precision="FP16">
					<dim>1</dim>
					<dim>16</dim>
					<dim>56</dim>
					<dim>56</dim>
				</port>
			</input>
			<output>
				<port id="1" precision="I64" names="789">
					<dim>4</dim>
				</port>
			</output>
		</layer>
		<layer id="194" name="Constant_162" type="Const" version="opset1">
			<data element_type="i32" shape="" offset="5492" size="4"/>
			<output>
				<port id="0" precision="I32" names="790"/>
			</output>
		</layer>
		<layer id="195" name="Gather_163/axis" type="Const" version="opset1">
			<data element_type="i64" shape="" offset="5468" size="8"/>
			<output>
				<port id="0" precision="I64"/>
			</output>
		</layer>
		<layer id="196" name="Gather_1631944" type="Gather" version="opset7">
			<data batch_dims="0"/>
			<input>
				<port id="0" precision="I64">
					<dim>4</dim>
				</port>
				<port id="1" precision="I32"/>
				<port id="2" precision="I64"/>
			</input>
			<output>
				<port id="3" precision="I64" names="791"/>
			</output>
		</layer>
		<layer id="197" name="Unsqueeze_171/Dims" type="Const" version="opset1">
			<data element_type="i64" shape="1" offset="5468" size="8"/>
			<output>
				<port id="0" precision="I64">
					<dim>1</dim>
				</port>
			</output>
		</layer>
		<layer id="198" name="Unsqueeze_171/Unsqueeze" type="Unsqueeze" version="opset1">
			<input>
				<port id="0" precision="I64"/>
				<port id="1" precision="I64">
					<dim>1</dim>
				</port>
			</input>
			<output>
				<port id="2" precision="I64" names="801">
					<dim>1</dim>
				</port>
			</output>
		</layer>
		<layer id="199" name="Concat_172" type="Concat" version="opset1">
			<data axis="0"/>
			<input>
				<port id="0" precision="I64">
					<dim>1</dim>
				</port>
				<port id="1" precision="I64">
					<dim>1</dim>
				</port>
				<port id="2" precision="I64">
					<dim>1</dim>
				</port>
				<port id="3" precision="I64">
					<dim>1</dim>
				</port>
				<port id="4" precision="I64">
					<dim>1</dim>
				</port>
			</input>
			<output>
				<port id="5" precision="I64" names="802">
					<dim>5</dim>
				</port>
			</output>
		</layer>
		<layer id="200" name="Reshape_173" type="Reshape" version="opset1">
			<data special_zero="true"/>
			<input>
				<port id="0" precision="FP16">
					<dim>1</dim>
					<dim>16</dim>
					<dim>56</dim>
					<dim>56</dim>
				</port>
				<port id="1" precision="I64">
					<dim>5</dim>
				</port>
			</input>
			<output>
				<port id="2" precision="FP16" names="803">
					<dim>1</dim>
					<dim>2</dim>
					<dim>8</dim>
					<dim>56</dim>
					<dim>56</dim>
				</port>
			</output>
		</layer>
		<layer id="201" name="1527" type="Const" version="opset1">
			<data element_type="i64" shape="5" offset="5496" size="40"/>
			<output>
				<port id="0" precision="I64">
					<dim>5</dim>
				</port>
			</output>
		</layer>
		<layer id="202" name="Transpose_174" type="Transpose" version="opset1">
			<input>
				<port id="0" precision="FP16">
					<dim>1</dim>
					<dim>2</dim>
					<dim>8</dim>
					<dim>56</dim>
					<dim>56</dim>
				</port>
				<port id="1" precision="I64">
					<dim>5</dim>
				</port>
			</input>
			<output>
				<port id="2" precision="FP16" names="804">
					<dim>1</dim>
					<dim>8</dim>
					<dim>2</dim>
					<dim>56</dim>
					<dim>56</dim>
				</port>
			</output>
		</layer>
		<layer id="203" name="Unsqueeze_175/Dims" type="Const" version="opset1">
			<data element_type="i64" shape="1" offset="5468" size="8"/>
			<output>
				<port id="0" precision="I64">
					<dim>1</dim>
				</port>
			</output>
		</layer>
		<layer id="204" name="Unsqueeze_175/Unsqueeze" type="Unsqueeze" version="opset1">
			<input>
				<port id="0" precision="I64"/>
				<port id="1" precision="I64">
					<dim>1</dim>
				</port>
			</input>
			<output>
				<port id="2" precision="I64" names="806">
					<dim>1</dim>
				</port>
			</output>
		</layer>
		<layer id="205" name="2352" type="Const" version="opset1">
			<data element_type="i64" shape="1" offset="5536" size="8"/>
			<output>
				<port id="0" precision="I64" names="2352">
					<dim>1</dim>
				</port>
			</output>
		</layer>
		<layer id="206" name="Unsqueeze_176/Dims" type="Const" version="opset1">
			<data element_type="i64" shape="1" offset="5468" size="8"/>
			<output>
				<port id="0" precision="I64">
					<dim>1</dim>
				</port>
			</output>
		</layer>
		<layer id="207" name="Unsqueeze_176/Unsqueeze" type="Unsqueeze" version="opset1">
			<input>
				<port id="0" precision="I64"/>
				<port id="1" precision="I64">
					<dim>1</dim>
				</port>
			</input>
			<output>
				<port id="2" precision="I64" names="808">
					<dim>1</dim>
				</port>
			</output>
		</layer>
		<layer id="208" name="Unsqueeze_177/Dims" type="Const" version="opset1">
			<data element_type="i64" shape="1" offset="5468" size="8"/>
			<output>
				<port id="0" precision="I64">
					<dim>1</dim>
				</port>
			</output>
		</layer>
		<layer id="209" name="Unsqueeze_177/Unsqueeze" type="Unsqueeze" version="opset1">
			<input>
				<port id="0" precision="I64"/>
				<port id="1" precision="I64">
					<dim>1</dim>
				</port>
			</input>
			<output>
				<port id="2" precision="I64" names="809">
					<dim>1</dim>
				</port>
			</output>
		</layer>
		<layer id="210" name="Concat_178" type="Concat" version="opset1">
			<data axis="0"/>
			<input>
				<port id="0" precision="I64">
					<dim>1</dim>
				</port>
				<port id="1" precision="I64">
					<dim>1</dim>
				</port>
				<port id="2" precision="I64">
					<dim>1</dim>
				</port>
				<port id="3" precision="I64">
					<dim>1</dim>
				</port>
			</input>
			<output>
				<port id="4" precision="I64" names="810">
					<dim>4</dim>
				</port>
			</output>
		</layer>
		<layer id="211" name="Reshape_179" type="Reshape" version="opset1">
			<data special_zero="true"/>
			<input>
				<port id="0" precision="FP16">
					<dim>1</dim>
					<dim>8</dim>
					<dim>2</dim>
					<dim>56</dim>
					<dim>56</dim>
				</port>
				<port id="1" precision="I64">
					<dim>4</dim>
				</port>
			</input>
			<output>
				<port id="2" precision="FP16" names="811">
					<dim>1</dim>
					<dim>16</dim>
					<dim>56</dim>
					<dim>56</dim>
				</port>
			</output>
		</layer>
		<layer id="212" name="Add_208" type="Add" version="opset1">
			<data auto_broadcast="numpy"/>
			<input>
				<port id="0" precision="FP16">
					<dim>1</dim>
					<dim>16</dim>
					<dim>56</dim>
					<dim>56</dim>
				</port>
				<port id="1" precision="FP16">
					<dim>1</dim>
					<dim>16</dim>
					<dim>56</dim>
					<dim>56</dim>
				</port>
			</input>
			<output>
				<port id="2" precision="FP16" names="844">
					<dim>1</dim>
					<dim>16</dim>
					<dim>56</dim>
					<dim>56</dim>
				</port>
			</output>
		</layer>
		<layer id="213" name="Shape_125" type="ShapeOf" version="opset3">
			<data output_type="i64"/>
			<input>
				<port id="0" precision="FP16">
					<dim>1</dim>
					<dim>16</dim>
					<dim>28</dim>
					<dim>28</dim>
				</port>
			</input>
			<output>
				<port id="1" precision="I64" names="751">
					<dim>4</dim>
				</port>
			</output>
		</layer>
		<layer id="214" name="Slice_129/Concat2031775155" type="Const" version="opset1">
			<data element_type="i64" shape="1" offset="5468" size="8"/>
			<output>
				<port id="0" precision="I64">
					<dim>1</dim>
				</port>
			</output>
		</layer>
		<layer id="215" name="Slice_129/Concat203072031873820" type="Const" version="opset1">
			<data element_type="i64" shape="1" offset="5476" size="8"/>
			<output>
				<port id="0" precision="I64">
					<dim>1</dim>
				</port>
			</output>
		</layer>
		<layer id="216" name="Slice_129/Strides2031975152" type="Const" version="opset1">
			<data element_type="i64" shape="1" offset="1792" size="8"/>
			<output>
				<port id="0" precision="I64">
					<dim>1</dim>
				</port>
			</output>
		</layer>
		<layer id="217" name="Slice_129" type="StridedSlice" version="opset1">
			<data begin_mask="0" end_mask="0" new_axis_mask="0" shrink_axis_mask="0" ellipsis_mask="0"/>
			<input>
				<port id="0" precision="I64">
					<dim>4</dim>
				</port>
				<port id="1" precision="I64">
					<dim>1</dim>
				</port>
				<port id="2" precision="I64">
					<dim>1</dim>
				</port>
				<port id="3" precision="I64">
					<dim>1</dim>
				</port>
			</input>
			<output>
				<port id="4" precision="I64" names="755">
					<dim>2</dim>
				</port>
			</output>
		</layer>
		<layer id="218" name="Shape_116" type="ShapeOf" version="opset3">
			<data output_type="i64"/>
			<input>
				<port id="0" precision="FP16">
					<dim>1</dim>
					<dim>16</dim>
					<dim>28</dim>
					<dim>28</dim>
				</port>
			</input>
			<output>
				<port id="1" precision="I64" names="742">
					<dim>4</dim>
				</port>
			</output>
		</layer>
		<layer id="219" name="Constant_117" type="Const" version="opset1">
			<data element_type="i32" shape="" offset="5488" size="4"/>
			<output>
				<port id="0" precision="I32" names="743"/>
			</output>
		</layer>
		<layer id="220" name="Gather_118/axis" type="Const" version="opset1">
			<data element_type="i64" shape="" offset="5468" size="8"/>
			<output>
				<port id="0" precision="I64"/>
			</output>
		</layer>
		<layer id="221" name="Gather_1182062" type="Gather" version="opset7">
			<data batch_dims="0"/>
			<input>
				<port id="0" precision="I64">
					<dim>4</dim>
				</port>
				<port id="1" precision="I32"/>
				<port id="2" precision="I64"/>
			</input>
			<output>
				<port id="3" precision="I64" names="744"/>
			</output>
		</layer>
		<layer id="222" name="Unsqueeze_122/Dims" type="Const" version="opset1">
			<data element_type="i64" shape="1" offset="5468" size="8"/>
			<output>
				<port id="0" precision="I64">
					<dim>1</dim>
				</port>
			</output>
		</layer>
		<layer id="223" name="Unsqueeze_122/Unsqueeze" type="Unsqueeze" version="opset1">
			<input>
				<port id="0" precision="I64"/>
				<port id="1" precision="I64">
					<dim>1</dim>
				</port>
			</input>
			<output>
				<port id="2" precision="I64" names="748">
					<dim>1</dim>
				</port>
			</output>
		</layer>
		<layer id="224" name="Shape_119" type="ShapeOf" version="opset3">
			<data output_type="i64"/>
			<input>
				<port id="0" precision="FP16">
					<dim>1</dim>
					<dim>16</dim>
					<dim>28</dim>
					<dim>28</dim>
				</port>
			</input>
			<output>
				<port id="1" precision="I64" names="745">
					<dim>4</dim>
				</port>
			</output>
		</layer>
		<layer id="225" name="Constant_120" type="Const" version="opset1">
			<data element_type="i32" shape="" offset="5492" size="4"/>
			<output>
				<port id="0" precision="I32" names="746"/>
			</output>
		</layer>
		<layer id="226" name="Gather_121/axis" type="Const" version="opset1">
			<data element_type="i64" shape="" offset="5468" size="8"/>
			<output>
				<port id="0" precision="I64"/>
			</output>
		</layer>
		<layer id="227" name="Gather_1211974" type="Gather" version="opset7">
			<data batch_dims="0"/>
			<input>
				<port id="0" precision="I64">
					<dim>4</dim>
				</port>
				<port id="1" precision="I32"/>
				<port id="2" precision="I64"/>
			</input>
			<output>
				<port id="3" precision="I64" names="747"/>
			</output>
		</layer>
		<layer id="228" name="Unsqueeze_123/Dims" type="Const" version="opset1">
			<data element_type="i64" shape="1" offset="5468" size="8"/>
			<output>
				<port id="0" precision="I64">
					<dim>1</dim>
				</port>
			</output>
		</layer>
		<layer id="229" name="Unsqueeze_123/Unsqueeze" type="Unsqueeze" version="opset1">
			<input>
				<port id="0" precision="I64"/>
				<port id="1" precision="I64">
					<dim>1</dim>
				</port>
			</input>
			<output>
				<port id="2" precision="I64" names="749">
					<dim>1</dim>
				</port>
			</output>
		</layer>
		<layer id="230" name="Concat_124" type="Concat" version="opset1">
			<data axis="0"/>
			<input>
				<port id="0" precision="I64">
					<dim>1</dim>
				</port>
				<port id="1" precision="I64">
					<dim>1</dim>
				</port>
			</input>
			<output>
				<port id="2" precision="I64" names="750,756">
					<dim>2</dim>
				</port>
			</output>
		</layer>
		<layer id="231" name="Concat_131" type="Concat" version="opset1">
			<data axis="0"/>
			<input>
				<port id="0" precision="I64">
					<dim>2</dim>
				</port>
				<port id="1" precision="I64">
					<dim>2</dim>
				</port>
			</input>
			<output>
				<port id="2" precision="I64" names="757">
					<dim>4</dim>
				</port>
			</output>
		</layer>
		<layer id="232" name="Resize_134/StridedSlice_sizes_input_port_1/value1403772803" type="Const" version="opset1">
			<data element_type="i64" shape="1" offset="5476" size="8"/>
			<output>
				<port id="0" precision="I64">
					<dim>1</dim>
				</port>
			</output>
		</layer>
		<layer id="233" name="Resize_134/StridedSlice_sizes_input_port_2/value1403973826" type="Const" version="opset1">
			<data element_type="i64" shape="1" offset="18558" size="8"/>
			<output>
				<port id="0" precision="I64">
					<dim>1</dim>
				</port>
			</output>
		</layer>
		<layer id="234" name="Resize_134/StridedSlice_sizes_input_port_3/value1404172647" type="Const" version="opset1">
			<data element_type="i64" shape="1" offset="1792" size="8"/>
			<output>
				<port id="0" precision="I64">
					<dim>1</dim>
				</port>
			</output>
		</layer>
		<layer id="235" name="Resize_134/StridedSlice_sizes" type="StridedSlice" version="opset1">
			<data begin_mask="0" end_mask="0" new_axis_mask="0" shrink_axis_mask="0" ellipsis_mask="0"/>
			<input>
				<port id="0" precision="I64">
					<dim>4</dim>
				</port>
				<port id="1" precision="I64">
					<dim>1</dim>
				</port>
				<port id="2" precision="I64">
					<dim>1</dim>
				</port>
				<port id="3" precision="I64">
					<dim>1</dim>
				</port>
			</input>
			<output>
				<port id="4" precision="I64">
					<dim>2</dim>
				</port>
			</output>
		</layer>
		<layer id="236" name="14057" type="Convert" version="opset1">
			<data destination_type="f32"/>
			<input>
				<port id="0" precision="I64">
					<dim>4</dim>
				</port>
			</input>
			<output>
				<port id="1" precision="FP32">
					<dim>4</dim>
				</port>
			</output>
		</layer>
		<layer id="237" name="Resize_134/ShapeOf" type="ShapeOf" version="opset3">
			<data output_type="i64"/>
			<input>
				<port id="0" precision="FP16">
					<dim>1</dim>
					<dim>16</dim>
					<dim>28</dim>
					<dim>28</dim>
				</port>
			</input>
			<output>
				<port id="1" precision="I64">
					<dim>4</dim>
				</port>
			</output>
		</layer>
		<layer id="238" name="14056" type="Convert" version="opset1">
			<data destination_type="f32"/>
			<input>
				<port id="0" precision="I64">
					<dim>4</dim>
				</port>
			</input>
			<output>
				<port id="1" precision="FP32">
					<dim>4</dim>
				</port>
			</output>
		</layer>
		<layer id="239" name="Resize_134/Div" type="Divide" version="opset1">
			<data auto_broadcast="numpy" m_pythondiv="true"/>
			<input>
				<port id="0" precision="FP32">
					<dim>4</dim>
				</port>
				<port id="1" precision="FP32">
					<dim>4</dim>
				</port>
			</input>
			<output>
				<port id="2" precision="FP32">
					<dim>4</dim>
				</port>
			</output>
		</layer>
		<layer id="240" name="Resize_134/Add_input_port_1/value1405574717" type="Const" version="opset1">
			<data element_type="f32" shape="1" offset="18566" size="4"/>
			<output>
				<port id="0" precision="FP32">
					<dim>1</dim>
				</port>
			</output>
		</layer>
		<layer id="241" name="Resize_134/Add" type="Add" version="opset1">
			<data auto_broadcast="numpy"/>
			<input>
				<port id="0" precision="FP32">
					<dim>4</dim>
				</port>
				<port id="1" precision="FP32">
					<dim>1</dim>
				</port>
			</input>
			<output>
				<port id="2" precision="FP32">
					<dim>4</dim>
				</port>
			</output>
		</layer>
		<layer id="242" name="Resize_134/StridedSlice_scales_input_port_1/value1404473031" type="Const" version="opset1">
			<data element_type="i64" shape="1" offset="5476" size="8"/>
			<output>
				<port id="0" precision="I64">
					<dim>1</dim>
				</port>
			</output>
		</layer>
		<layer id="243" name="Resize_134/StridedSlice_scales_input_port_2/value1404675086" type="Const" version="opset1">
			<data element_type="i64" shape="1" offset="18558" size="8"/>
			<output>
				<port id="0" precision="I64">
					<dim>1</dim>
				</port>
			</output>
		</layer>
		<layer id="244" name="Resize_134/StridedSlice_scales_input_port_3/value1404872854" type="Const" version="opset1">
			<data element_type="i64" shape="1" offset="1792" size="8"/>
			<output>
				<port id="0" precision="I64">
					<dim>1</dim>
				</port>
			</output>
		</layer>
		<layer id="245" name="Resize_134/StridedSlice_scales" type="StridedSlice" version="opset1">
			<data begin_mask="0" end_mask="0" new_axis_mask="0" shrink_axis_mask="0" ellipsis_mask="0"/>
			<input>
				<port id="0" precision="FP32">
					<dim>4</dim>
				</port>
				<port id="1" precision="I64">
					<dim>1</dim>
				</port>
				<port id="2" precision="I64">
					<dim>1</dim>
				</port>
				<port id="3" precision="I64">
					<dim>1</dim>
				</port>
			</input>
			<output>
				<port id="4" precision="FP32">
					<dim>2</dim>
				</port>
			</output>
		</layer>
		<layer id="246" name="Resize_134/axis1405173349" type="Const" version="opset1">
			<data element_type="i64" shape="2" offset="18570" size="16"/>
			<output>
				<port id="0" precision="I64">
					<dim>2</dim>
				</port>
			</output>
		</layer>
		<layer id="247" name="Resize_134" type="Interpolate" version="opset4">
			<data mode="nearest" shape_calculation_mode="sizes" coordinate_transformation_mode="asymmetric" nearest_mode="floor" antialias="false" pads_begin="0, 0, 0, 0" pads_end="0, 0, 0, 0" cube_coeff="-0.75"/>
			<input>
				<port id="0" precision="FP16">
					<dim>1</dim>
					<dim>16</dim>
					<dim>28</dim>
					<dim>28</dim>
				</port>
				<port id="1" precision="I64">
					<dim>2</dim>
				</port>
				<port id="2" precision="FP32">
					<dim>2</dim>
				</port>
				<port id="3" precision="I64">
					<dim>2</dim>
				</port>
			</input>
			<output>
				<port id="4" precision="FP16" names="760">
					<dim>1</dim>
					<dim>16</dim>
					<dim>28</dim>
					<dim>28</dim>
				</port>
			</output>
		</layer>
		<layer id="248" name="Mul_135" type="Multiply" version="opset1">
			<data auto_broadcast="numpy"/>
			<input>
				<port id="0" precision="FP16">
					<dim>1</dim>
					<dim>16</dim>
					<dim>28</dim>
					<dim>28</dim>
				</port>
				<port id="1" precision="FP16">
					<dim>1</dim>
					<dim>16</dim>
					<dim>28</dim>
					<dim>28</dim>
				</port>
			</input>
			<output>
				<port id="2" precision="FP16" names="761">
					<dim>1</dim>
					<dim>16</dim>
					<dim>28</dim>
					<dim>28</dim>
				</port>
			</output>
		</layer>
		<layer id="249" name="2050" type="Const" version="opset1">
			<data element_type="f16" shape="16, 1, 1, 3, 3" offset="18830" size="288"/>
			<output>
				<port id="0" precision="FP16" names="2050">
					<dim>16</dim>
					<dim>1</dim>
					<dim>1</dim>
					<dim>3</dim>
					<dim>3</dim>
				</port>
			</output>
		</layer>
		<layer id="250" name="Conv_137/WithoutBiases" type="GroupConvolution" version="opset1">
			<data strides="1, 1" pads_begin="1, 1" pads_end="1, 1" dilations="1, 1" auto_pad="explicit"/>
			<input>
				<port id="0" precision="FP16">
					<dim>1</dim>
					<dim>16</dim>
					<dim>28</dim>
					<dim>28</dim>
				</port>
				<port id="1" precision="FP16">
					<dim>16</dim>
					<dim>1</dim>
					<dim>1</dim>
					<dim>3</dim>
					<dim>3</dim>
				</port>
			</input>
			<output>
				<port id="2" precision="FP16">
					<dim>1</dim>
					<dim>16</dim>
					<dim>28</dim>
					<dim>28</dim>
				</port>
			</output>
		</layer>
		<layer id="251" name="Conv_137/Dims18473" type="Const" version="opset1">
			<data element_type="f16" shape="1, 16, 1, 1" offset="19118" size="32"/>
			<output>
				<port id="0" precision="FP16">
					<dim>1</dim>
					<dim>16</dim>
					<dim>1</dim>
					<dim>1</dim>
				</port>
			</output>
		</layer>
		<layer id="252" name="Conv_137" type="Add" version="opset1">
			<data auto_broadcast="numpy"/>
			<input>
				<port id="0" precision="FP16">
					<dim>1</dim>
					<dim>16</dim>
					<dim>28</dim>
					<dim>28</dim>
				</port>
				<port id="1" precision="FP16">
					<dim>1</dim>
					<dim>16</dim>
					<dim>1</dim>
					<dim>1</dim>
				</port>
			</input>
			<output>
				<port id="2" precision="FP16" names="2049">
					<dim>1</dim>
					<dim>16</dim>
					<dim>28</dim>
					<dim>28</dim>
				</port>
			</output>
		</layer>
		<layer id="253" name="1819" type="Const" version="opset1">
			<data element_type="i64" shape="" offset="5476" size="8"/>
			<output>
				<port id="0" precision="I64"/>
			</output>
		</layer>
		<layer id="254" name="GlobalAveragePool_144/input_rank/shape_of" type="ShapeOf" version="opset3">
			<data output_type="i64"/>
			<input>
				<port id="0" precision="FP16">
					<dim>1</dim>
					<dim>16</dim>
					<dim>28</dim>
					<dim>28</dim>
				</port>
			</input>
			<output>
				<port id="1" precision="I64">
					<dim>4</dim>
				</port>
			</output>
		</layer>
		<layer id="255" name="GlobalAveragePool_144/input_rank/rank_of" type="ShapeOf" version="opset3">
			<data output_type="i64"/>
			<input>
				<port id="0" precision="I64">
					<dim>4</dim>
				</port>
			</input>
			<output>
				<port id="1" precision="I64">
					<dim>1</dim>
				</port>
			</output>
		</layer>
		<layer id="256" name="GlobalAveragePool_144/input_rank/0d_rank_of/value" type="Const" version="opset1">
			<data element_type="i64" shape="1" offset="5468" size="8"/>
			<output>
				<port id="0" precision="I64">
					<dim>1</dim>
				</port>
			</output>
		</layer>
		<layer id="257" name="GlobalAveragePool_144/input_rank" type="Squeeze" version="opset1">
			<input>
				<port id="0" precision="I64">
					<dim>1</dim>
				</port>
				<port id="1" precision="I64">
					<dim>1</dim>
				</port>
			</input>
			<output>
				<port id="2" precision="I64"/>
			</output>
		</layer>
		<layer id="258" name="1821" type="Const" version="opset1">
			<data element_type="i64" shape="" offset="1792" size="8"/>
			<output>
				<port id="0" precision="I64"/>
			</output>
		</layer>
		<layer id="259" name="GlobalAveragePool_144/global_pooling_reduce_axis" type="Range" version="opset4">
			<data output_type="i64"/>
			<input>
				<port id="0" precision="I64"/>
				<port id="1" precision="I64"/>
				<port id="2" precision="I64"/>
			</input>
			<output>
				<port id="3" precision="I64">
					<dim>2</dim>
				</port>
			</output>
		</layer>
		<layer id="260" name="GlobalAveragePool_144/reduce" type="ReduceMean" version="opset1">
			<data keep_dims="true"/>
			<input>
				<port id="0" precision="FP16">
					<dim>1</dim>
					<dim>16</dim>
					<dim>28</dim>
					<dim>28</dim>
				</port>
				<port id="1" precision="I64">
					<dim>2</dim>
				</port>
			</input>
			<output>
				<port id="2" precision="FP16" names="772">
					<dim>1</dim>
					<dim>16</dim>
					<dim>1</dim>
					<dim>1</dim>
				</port>
			</output>
		</layer>
		<layer id="261" name="stage0.0.layers.0.spatial_weighting.1.conv1.0.weight" type="Const" version="opset1">
			<data element_type="f16" shape="4, 16, 1, 1" offset="19150" size="128"/>
			<output>
				<port id="0" precision="FP16" names="stage0.0.layers.0.spatial_weighting.1.conv1.0.weight">
					<dim>4</dim>
					<dim>16</dim>
					<dim>1</dim>
					<dim>1</dim>
				</port>
			</output>
		</layer>
		<layer id="262" name="Conv_145/WithoutBiases" type="Convolution" version="opset1">
			<data strides="1, 1" dilations="1, 1" pads_begin="0, 0" pads_end="0, 0" auto_pad="explicit"/>
			<input>
				<port id="0" precision="FP16">
					<dim>1</dim>
					<dim>16</dim>
					<dim>1</dim>
					<dim>1</dim>
				</port>
				<port id="1" precision="FP16">
					<dim>4</dim>
					<dim>16</dim>
					<dim>1</dim>
					<dim>1</dim>
				</port>
			</input>
			<output>
				<port id="2" precision="FP16">
					<dim>1</dim>
					<dim>4</dim>
					<dim>1</dim>
					<dim>1</dim>
				</port>
			</output>
		</layer>
		<layer id="263" name="Conv_145/Dims18533" type="Const" version="opset1">
			<data element_type="f16" shape="1, 4, 1, 1" offset="19278" size="8"/>
			<output>
				<port id="0" precision="FP16">
					<dim>1</dim>
					<dim>4</dim>
					<dim>1</dim>
					<dim>1</dim>
				</port>
			</output>
		</layer>
		<layer id="264" name="Conv_145" type="Add" version="opset1">
			<data auto_broadcast="numpy"/>
			<input>
				<port id="0" precision="FP16">
					<dim>1</dim>
					<dim>4</dim>
					<dim>1</dim>
					<dim>1</dim>
				</port>
				<port id="1" precision="FP16">
					<dim>1</dim>
					<dim>4</dim>
					<dim>1</dim>
					<dim>1</dim>
				</port>
			</input>
			<output>
				<port id="2" precision="FP16" names="773">
					<dim>1</dim>
					<dim>4</dim>
					<dim>1</dim>
					<dim>1</dim>
				</port>
			</output>
		</layer>
		<layer id="265" name="Relu_146" type="ReLU" version="opset1">
			<input>
				<port id="0" precision="FP16">
					<dim>1</dim>
					<dim>4</dim>
					<dim>1</dim>
					<dim>1</dim>
				</port>
			</input>
			<output>
				<port id="1" precision="FP16" names="774">
					<dim>1</dim>
					<dim>4</dim>
					<dim>1</dim>
					<dim>1</dim>
				</port>
			</output>
		</layer>
		<layer id="266" name="stage0.0.layers.0.spatial_weighting.1.conv2.0.weight" type="Const" version="opset1">
			<data element_type="f16" shape="16, 4, 1, 1" offset="19286" size="128"/>
			<output>
				<port id="0" precision="FP16" names="stage0.0.layers.0.spatial_weighting.1.conv2.0.weight">
					<dim>16</dim>
					<dim>4</dim>
					<dim>1</dim>
					<dim>1</dim>
				</port>
			</output>
		</layer>
		<layer id="267" name="Conv_147/WithoutBiases" type="Convolution" version="opset1">
			<data strides="1, 1" dilations="1, 1" pads_begin="0, 0" pads_end="0, 0" auto_pad="explicit"/>
			<input>
				<port id="0" precision="FP16">
					<dim>1</dim>
					<dim>4</dim>
					<dim>1</dim>
					<dim>1</dim>
				</port>
				<port id="1" precision="FP16">
					<dim>16</dim>
					<dim>4</dim>
					<dim>1</dim>
					<dim>1</dim>
				</port>
			</input>
			<output>
				<port id="2" precision="FP16">
					<dim>1</dim>
					<dim>16</dim>
					<dim>1</dim>
					<dim>1</dim>
				</port>
			</output>
		</layer>
		<layer id="268" name="Conv_147/Dims18179" type="Const" version="opset1">
			<data element_type="f16" shape="1, 16, 1, 1" offset="19414" size="32"/>
			<output>
				<port id="0" precision="FP16">
					<dim>1</dim>
					<dim>16</dim>
					<dim>1</dim>
					<dim>1</dim>
				</port>
			</output>
		</layer>
		<layer id="269" name="Conv_147" type="Add" version="opset1">
			<data auto_broadcast="numpy"/>
			<input>
				<port id="0" precision="FP16">
					<dim>1</dim>
					<dim>16</dim>
					<dim>1</dim>
					<dim>1</dim>
				</port>
				<port id="1" precision="FP16">
					<dim>1</dim>
					<dim>16</dim>
					<dim>1</dim>
					<dim>1</dim>
				</port>
			</input>
			<output>
				<port id="2" precision="FP16" names="775">
					<dim>1</dim>
					<dim>16</dim>
					<dim>1</dim>
					<dim>1</dim>
				</port>
			</output>
		</layer>
		<layer id="270" name="Sigmoid_148" type="Sigmoid" version="opset1">
			<input>
				<port id="0" precision="FP16">
					<dim>1</dim>
					<dim>16</dim>
					<dim>1</dim>
					<dim>1</dim>
				</port>
			</input>
			<output>
				<port id="1" precision="FP16" names="776">
					<dim>1</dim>
					<dim>16</dim>
					<dim>1</dim>
					<dim>1</dim>
				</port>
			</output>
		</layer>
		<layer id="271" name="Mul_149" type="Multiply" version="opset1">
			<data auto_broadcast="numpy"/>
			<input>
				<port id="0" precision="FP16">
					<dim>1</dim>
					<dim>16</dim>
					<dim>28</dim>
					<dim>28</dim>
				</port>
				<port id="1" precision="FP16">
					<dim>1</dim>
					<dim>16</dim>
					<dim>1</dim>
					<dim>1</dim>
				</port>
			</input>
			<output>
				<port id="2" precision="FP16" names="777">
					<dim>1</dim>
					<dim>16</dim>
					<dim>28</dim>
					<dim>28</dim>
				</port>
			</output>
		</layer>
		<layer id="272" name="Concat_151" type="Concat" version="opset1">
			<data axis="1"/>
			<input>
				<port id="0" precision="FP16">
					<dim>1</dim>
					<dim>16</dim>
					<dim>28</dim>
					<dim>28</dim>
				</port>
				<port id="1" precision="FP16">
					<dim>1</dim>
					<dim>16</dim>
					<dim>28</dim>
					<dim>28</dim>
				</port>
			</input>
			<output>
				<port id="2" precision="FP16" names="779">
					<dim>1</dim>
					<dim>32</dim>
					<dim>28</dim>
					<dim>28</dim>
				</port>
			</output>
		</layer>
		<layer id="273" name="Shape_180" type="ShapeOf" version="opset3">
			<data output_type="i64"/>
			<input>
				<port id="0" precision="FP16">
					<dim>1</dim>
					<dim>32</dim>
					<dim>28</dim>
					<dim>28</dim>
				</port>
			</input>
			<output>
				<port id="1" precision="I64" names="812">
					<dim>4</dim>
				</port>
			</output>
		</layer>
		<layer id="274" name="Constant_181" type="Const" version="opset1">
			<data element_type="i32" shape="" offset="5464" size="4"/>
			<output>
				<port id="0" precision="I32" names="813"/>
			</output>
		</layer>
		<layer id="275" name="Gather_182/axis" type="Const" version="opset1">
			<data element_type="i64" shape="" offset="5468" size="8"/>
			<output>
				<port id="0" precision="I64"/>
			</output>
		</layer>
		<layer id="276" name="Gather_1821998" type="Gather" version="opset7">
			<data batch_dims="0"/>
			<input>
				<port id="0" precision="I64">
					<dim>4</dim>
				</port>
				<port id="1" precision="I32"/>
				<port id="2" precision="I64"/>
			</input>
			<output>
				<port id="3" precision="I64" names="814"/>
			</output>
		</layer>
		<layer id="277" name="Unsqueeze_196/Dims" type="Const" version="opset1">
			<data element_type="i64" shape="1" offset="5468" size="8"/>
			<output>
				<port id="0" precision="I64">
					<dim>1</dim>
				</port>
			</output>
		</layer>
		<layer id="278" name="Unsqueeze_196/Unsqueeze" type="Unsqueeze" version="opset1">
			<input>
				<port id="0" precision="I64"/>
				<port id="1" precision="I64">
					<dim>1</dim>
				</port>
			</input>
			<output>
				<port id="2" precision="I64" names="829">
					<dim>1</dim>
				</port>
			</output>
		</layer>
		<layer id="279" name="2353" type="Const" version="opset1">
			<data element_type="i64" shape="1" offset="5476" size="8"/>
			<output>
				<port id="0" precision="I64" names="2353">
					<dim>1</dim>
				</port>
			</output>
		</layer>
		<layer id="280" name="Shape_183" type="ShapeOf" version="opset3">
			<data output_type="i64"/>
			<input>
				<port id="0" precision="FP16">
					<dim>1</dim>
					<dim>32</dim>
					<dim>28</dim>
					<dim>28</dim>
				</port>
			</input>
			<output>
				<port id="1" precision="I64" names="815">
					<dim>4</dim>
				</port>
			</output>
		</layer>
		<layer id="281" name="Constant_184" type="Const" version="opset1">
			<data element_type="i32" shape="" offset="5484" size="4"/>
			<output>
				<port id="0" precision="I32" names="816"/>
			</output>
		</layer>
		<layer id="282" name="Gather_185/axis" type="Const" version="opset1">
			<data element_type="i64" shape="" offset="5468" size="8"/>
			<output>
				<port id="0" precision="I64"/>
			</output>
		</layer>
		<layer id="283" name="Gather_1851992" type="Gather" version="opset7">
			<data batch_dims="0"/>
			<input>
				<port id="0" precision="I64">
					<dim>4</dim>
				</port>
				<port id="1" precision="I32"/>
				<port id="2" precision="I64"/>
			</input>
			<output>
				<port id="3" precision="I64" names="817"/>
			</output>
		</layer>
		<layer id="284" name="Constant_192" type="Const" version="opset1">
			<data element_type="i64" shape="" offset="5476" size="8"/>
			<output>
				<port id="0" precision="I64" names="824"/>
			</output>
		</layer>
		<layer id="285" name="Div_193" type="Divide" version="opset1">
			<data auto_broadcast="numpy" m_pythondiv="true"/>
			<input>
				<port id="0" precision="I64"/>
				<port id="1" precision="I64"/>
			</input>
			<output>
				<port id="2" precision="I64" names="825,826,827"/>
			</output>
		</layer>
		<layer id="286" name="Unsqueeze_197/Dims" type="Const" version="opset1">
			<data element_type="i64" shape="1" offset="5468" size="8"/>
			<output>
				<port id="0" precision="I64">
					<dim>1</dim>
				</port>
			</output>
		</layer>
		<layer id="287" name="Unsqueeze_197/Unsqueeze" type="Unsqueeze" version="opset1">
			<input>
				<port id="0" precision="I64"/>
				<port id="1" precision="I64">
					<dim>1</dim>
				</port>
			</input>
			<output>
				<port id="2" precision="I64" names="831">
					<dim>1</dim>
				</port>
			</output>
		</layer>
		<layer id="288" name="Shape_186" type="ShapeOf" version="opset3">
			<data output_type="i64"/>
			<input>
				<port id="0" precision="FP16">
					<dim>1</dim>
					<dim>32</dim>
					<dim>28</dim>
					<dim>28</dim>
				</port>
			</input>
			<output>
				<port id="1" precision="I64" names="818">
					<dim>4</dim>
				</port>
			</output>
		</layer>
		<layer id="289" name="Constant_187" type="Const" version="opset1">
			<data element_type="i32" shape="" offset="5488" size="4"/>
			<output>
				<port id="0" precision="I32" names="819"/>
			</output>
		</layer>
		<layer id="290" name="Gather_188/axis" type="Const" version="opset1">
			<data element_type="i64" shape="" offset="5468" size="8"/>
			<output>
				<port id="0" precision="I64"/>
			</output>
		</layer>
		<layer id="291" name="Gather_1882056" type="Gather" version="opset7">
			<data batch_dims="0"/>
			<input>
				<port id="0" precision="I64">
					<dim>4</dim>
				</port>
				<port id="1" precision="I32"/>
				<port id="2" precision="I64"/>
			</input>
			<output>
				<port id="3" precision="I64" names="820"/>
			</output>
		</layer>
		<layer id="292" name="Unsqueeze_198/Dims" type="Const" version="opset1">
			<data element_type="i64" shape="1" offset="5468" size="8"/>
			<output>
				<port id="0" precision="I64">
					<dim>1</dim>
				</port>
			</output>
		</layer>
		<layer id="293" name="Unsqueeze_198/Unsqueeze" type="Unsqueeze" version="opset1">
			<input>
				<port id="0" precision="I64"/>
				<port id="1" precision="I64">
					<dim>1</dim>
				</port>
			</input>
			<output>
				<port id="2" precision="I64" names="832">
					<dim>1</dim>
				</port>
			</output>
		</layer>
		<layer id="294" name="Shape_189" type="ShapeOf" version="opset3">
			<data output_type="i64"/>
			<input>
				<port id="0" precision="FP16">
					<dim>1</dim>
					<dim>32</dim>
					<dim>28</dim>
					<dim>28</dim>
				</port>
			</input>
			<output>
				<port id="1" precision="I64" names="821">
					<dim>4</dim>
				</port>
			</output>
		</layer>
		<layer id="295" name="Constant_190" type="Const" version="opset1">
			<data element_type="i32" shape="" offset="5492" size="4"/>
			<output>
				<port id="0" precision="I32" names="822"/>
			</output>
		</layer>
		<layer id="296" name="Gather_191/axis" type="Const" version="opset1">
			<data element_type="i64" shape="" offset="5468" size="8"/>
			<output>
				<port id="0" precision="I64"/>
			</output>
		</layer>
		<layer id="297" name="Gather_1912084" type="Gather" version="opset7">
			<data batch_dims="0"/>
			<input>
				<port id="0" precision="I64">
					<dim>4</dim>
				</port>
				<port id="1" precision="I32"/>
				<port id="2" precision="I64"/>
			</input>
			<output>
				<port id="3" precision="I64" names="823"/>
			</output>
		</layer>
		<layer id="298" name="Unsqueeze_199/Dims" type="Const" version="opset1">
			<data element_type="i64" shape="1" offset="5468" size="8"/>
			<output>
				<port id="0" precision="I64">
					<dim>1</dim>
				</port>
			</output>
		</layer>
		<layer id="299" name="Unsqueeze_199/Unsqueeze" type="Unsqueeze" version="opset1">
			<input>
				<port id="0" precision="I64"/>
				<port id="1" precision="I64">
					<dim>1</dim>
				</port>
			</input>
			<output>
				<port id="2" precision="I64" names="833">
					<dim>1</dim>
				</port>
			</output>
		</layer>
		<layer id="300" name="Concat_200" type="Concat" version="opset1">
			<data axis="0"/>
			<input>
				<port id="0" precision="I64">
					<dim>1</dim>
				</port>
				<port id="1" precision="I64">
					<dim>1</dim>
				</port>
				<port id="2" precision="I64">
					<dim>1</dim>
				</port>
				<port id="3" precision="I64">
					<dim>1</dim>
				</port>
				<port id="4" precision="I64">
					<dim>1</dim>
				</port>
			</input>
			<output>
				<port id="5" precision="I64" names="834">
					<dim>5</dim>
				</port>
			</output>
		</layer>
		<layer id="301" name="Reshape_201" type="Reshape" version="opset1">
			<data special_zero="true"/>
			<input>
				<port id="0" precision="FP16">
					<dim>1</dim>
					<dim>32</dim>
					<dim>28</dim>
					<dim>28</dim>
				</port>
				<port id="1" precision="I64">
					<dim>5</dim>
				</port>
			</input>
			<output>
				<port id="2" precision="FP16" names="835">
					<dim>1</dim>
					<dim>2</dim>
					<dim>16</dim>
					<dim>28</dim>
					<dim>28</dim>
				</port>
			</output>
		</layer>
		<layer id="302" name="1526" type="Const" version="opset1">
			<data element_type="i64" shape="5" offset="5496" size="40"/>
			<output>
				<port id="0" precision="I64">
					<dim>5</dim>
				</port>
			</output>
		</layer>
		<layer id="303" name="Transpose_202" type="Transpose" version="opset1">
			<input>
				<port id="0" precision="FP16">
					<dim>1</dim>
					<dim>2</dim>
					<dim>16</dim>
					<dim>28</dim>
					<dim>28</dim>
				</port>
				<port id="1" precision="I64">
					<dim>5</dim>
				</port>
			</input>
			<output>
				<port id="2" precision="FP16" names="836">
					<dim>1</dim>
					<dim>16</dim>
					<dim>2</dim>
					<dim>28</dim>
					<dim>28</dim>
				</port>
			</output>
		</layer>
		<layer id="304" name="Unsqueeze_203/Dims" type="Const" version="opset1">
			<data element_type="i64" shape="1" offset="5468" size="8"/>
			<output>
				<port id="0" precision="I64">
					<dim>1</dim>
				</port>
			</output>
		</layer>
		<layer id="305" name="Unsqueeze_203/Unsqueeze" type="Unsqueeze" version="opset1">
			<input>
				<port id="0" precision="I64"/>
				<port id="1" precision="I64">
					<dim>1</dim>
				</port>
			</input>
			<output>
				<port id="2" precision="I64" names="838">
					<dim>1</dim>
				</port>
			</output>
		</layer>
		<layer id="306" name="2354" type="Const" version="opset1">
			<data element_type="i64" shape="1" offset="5536" size="8"/>
			<output>
				<port id="0" precision="I64" names="2354">
					<dim>1</dim>
				</port>
			</output>
		</layer>
		<layer id="307" name="Unsqueeze_204/Dims" type="Const" version="opset1">
			<data element_type="i64" shape="1" offset="5468" size="8"/>
			<output>
				<port id="0" precision="I64">
					<dim>1</dim>
				</port>
			</output>
		</layer>
		<layer id="308" name="Unsqueeze_204/Unsqueeze" type="Unsqueeze" version="opset1">
			<input>
				<port id="0" precision="I64"/>
				<port id="1" precision="I64">
					<dim>1</dim>
				</port>
			</input>
			<output>
				<port id="2" precision="I64" names="840">
					<dim>1</dim>
				</port>
			</output>
		</layer>
		<layer id="309" name="Unsqueeze_205/Dims" type="Const" version="opset1">
			<data element_type="i64" shape="1" offset="5468" size="8"/>
			<output>
				<port id="0" precision="I64">
					<dim>1</dim>
				</port>
			</output>
		</layer>
		<layer id="310" name="Unsqueeze_205/Unsqueeze" type="Unsqueeze" version="opset1">
			<input>
				<port id="0" precision="I64"/>
				<port id="1" precision="I64">
					<dim>1</dim>
				</port>
			</input>
			<output>
				<port id="2" precision="I64" names="841">
					<dim>1</dim>
				</port>
			</output>
		</layer>
		<layer id="311" name="Concat_206" type="Concat" version="opset1">
			<data axis="0"/>
			<input>
				<port id="0" precision="I64">
					<dim>1</dim>
				</port>
				<port id="1" precision="I64">
					<dim>1</dim>
				</port>
				<port id="2" precision="I64">
					<dim>1</dim>
				</port>
				<port id="3" precision="I64">
					<dim>1</dim>
				</port>
			</input>
			<output>
				<port id="4" precision="I64" names="842">
					<dim>4</dim>
				</port>
			</output>
		</layer>
		<layer id="312" name="Reshape_207" type="Reshape" version="opset1">
			<data special_zero="true"/>
			<input>
				<port id="0" precision="FP16">
					<dim>1</dim>
					<dim>16</dim>
					<dim>2</dim>
					<dim>28</dim>
					<dim>28</dim>
				</port>
				<port id="1" precision="I64">
					<dim>4</dim>
				</port>
			</input>
			<output>
				<port id="2" precision="FP16" names="843">
					<dim>1</dim>
					<dim>32</dim>
					<dim>28</dim>
					<dim>28</dim>
				</port>
			</output>
		</layer>
		<layer id="313" name="2053" type="Const" version="opset1">
			<data element_type="f16" shape="16, 32, 1, 1" offset="19446" size="1024"/>
			<output>
				<port id="0" precision="FP16" names="2053">
					<dim>16</dim>
					<dim>32</dim>
					<dim>1</dim>
					<dim>1</dim>
				</port>
			</output>
		</layer>
		<layer id="314" name="Conv_209/WithoutBiases" type="Convolution" version="opset1">
			<data strides="1, 1" dilations="1, 1" pads_begin="0, 0" pads_end="0, 0" auto_pad="explicit"/>
			<input>
				<port id="0" precision="FP16">
					<dim>1</dim>
					<dim>32</dim>
					<dim>28</dim>
					<dim>28</dim>
				</port>
				<port id="1" precision="FP16">
					<dim>16</dim>
					<dim>32</dim>
					<dim>1</dim>
					<dim>1</dim>
				</port>
			</input>
			<output>
				<port id="2" precision="FP16">
					<dim>1</dim>
					<dim>16</dim>
					<dim>28</dim>
					<dim>28</dim>
				</port>
			</output>
		</layer>
		<layer id="315" name="Conv_209/Dims18659" type="Const" version="opset1">
			<data element_type="f16" shape="1, 16, 1, 1" offset="20470" size="32"/>
			<output>
				<port id="0" precision="FP16">
					<dim>1</dim>
					<dim>16</dim>
					<dim>1</dim>
					<dim>1</dim>
				</port>
			</output>
		</layer>
		<layer id="316" name="Conv_209" type="Add" version="opset1">
			<data auto_broadcast="numpy"/>
			<input>
				<port id="0" precision="FP16">
					<dim>1</dim>
					<dim>16</dim>
					<dim>28</dim>
					<dim>28</dim>
				</port>
				<port id="1" precision="FP16">
					<dim>1</dim>
					<dim>16</dim>
					<dim>1</dim>
					<dim>1</dim>
				</port>
			</input>
			<output>
				<port id="2" precision="FP16" names="2052">
					<dim>1</dim>
					<dim>16</dim>
					<dim>28</dim>
					<dim>28</dim>
				</port>
			</output>
		</layer>
		<layer id="317" name="Resize_211/ShapeOf" type="ShapeOf" version="opset3">
			<data output_type="i64"/>
			<input>
				<port id="0" precision="FP16">
					<dim>1</dim>
					<dim>16</dim>
					<dim>28</dim>
					<dim>28</dim>
				</port>
			</input>
			<output>
				<port id="1" precision="I64">
					<dim>4</dim>
				</port>
			</output>
		</layer>
		<layer id="318" name="14088" type="Convert" version="opset1">
			<data destination_type="f32"/>
			<input>
				<port id="0" precision="I64">
					<dim>4</dim>
				</port>
			</input>
			<output>
				<port id="1" precision="FP32">
					<dim>4</dim>
				</port>
			</output>
		</layer>
		<layer id="319" name="2355" type="Const" version="opset1">
			<data element_type="f32" shape="4" offset="20502" size="16"/>
			<output>
				<port id="0" precision="FP32" names="2355">
					<dim>4</dim>
				</port>
			</output>
		</layer>
		<layer id="320" name="Resize_211/Mul" type="Multiply" version="opset1">
			<data auto_broadcast="numpy"/>
			<input>
				<port id="0" precision="FP32">
					<dim>4</dim>
				</port>
				<port id="1" precision="FP32">
					<dim>4</dim>
				</port>
			</input>
			<output>
				<port id="2" precision="FP32">
					<dim>4</dim>
				</port>
			</output>
		</layer>
		<layer id="321" name="Resize_211/Add_input_port_1/value1408773982" type="Const" version="opset1">
			<data element_type="f32" shape="1" offset="18566" size="4"/>
			<output>
				<port id="0" precision="FP32">
					<dim>1</dim>
				</port>
			</output>
		</layer>
		<layer id="322" name="Resize_211/Add" type="Add" version="opset1">
			<data auto_broadcast="numpy"/>
			<input>
				<port id="0" precision="FP32">
					<dim>4</dim>
				</port>
				<port id="1" precision="FP32">
					<dim>1</dim>
				</port>
			</input>
			<output>
				<port id="2" precision="FP32">
					<dim>4</dim>
				</port>
			</output>
		</layer>
		<layer id="323" name="Resize_211/Floor" type="Floor" version="opset1">
			<input>
				<port id="0" precision="FP32">
					<dim>4</dim>
				</port>
			</input>
			<output>
				<port id="1" precision="FP32">
					<dim>4</dim>
				</port>
			</output>
		</layer>
		<layer id="324" name="14092" type="Convert" version="opset1">
			<data destination_type="i64"/>
			<input>
				<port id="0" precision="FP32">
					<dim>4</dim>
				</port>
			</input>
			<output>
				<port id="1" precision="I64">
					<dim>4</dim>
				</port>
			</output>
		</layer>
		<layer id="325" name="Resize_211/StridedSlice_sizes_input_port_1/value1406972983" type="Const" version="opset1">
			<data element_type="i64" shape="1" offset="5476" size="8"/>
			<output>
				<port id="0" precision="I64">
					<dim>1</dim>
				</port>
			</output>
		</layer>
		<layer id="326" name="Resize_211/StridedSlice_sizes_input_port_2/value1407174600" type="Const" version="opset1">
			<data element_type="i64" shape="1" offset="18558" size="8"/>
			<output>
				<port id="0" precision="I64">
					<dim>1</dim>
				</port>
			</output>
		</layer>
		<layer id="327" name="Resize_211/StridedSlice_sizes_input_port_3/value1407374378" type="Const" version="opset1">
			<data element_type="i64" shape="1" offset="1792" size="8"/>
			<output>
				<port id="0" precision="I64">
					<dim>1</dim>
				</port>
			</output>
		</layer>
		<layer id="328" name="Resize_211/StridedSlice_sizes" type="StridedSlice" version="opset1">
			<data begin_mask="0" end_mask="0" new_axis_mask="0" shrink_axis_mask="0" ellipsis_mask="0"/>
			<input>
				<port id="0" precision="I64">
					<dim>4</dim>
				</port>
				<port id="1" precision="I64">
					<dim>1</dim>
				</port>
				<port id="2" precision="I64">
					<dim>1</dim>
				</port>
				<port id="3" precision="I64">
					<dim>1</dim>
				</port>
			</input>
			<output>
				<port id="4" precision="I64">
					<dim>2</dim>
				</port>
			</output>
		</layer>
		<layer id="329" name="Resize_211/StridedSlice_scales1409973193" type="Const" version="opset1">
			<data element_type="f32" shape="2" offset="20518" size="8"/>
			<output>
				<port id="0" precision="FP32">
					<dim>2</dim>
				</port>
			</output>
		</layer>
		<layer id="330" name="Resize_211/axis1408372995" type="Const" version="opset1">
			<data element_type="i64" shape="2" offset="18570" size="16"/>
			<output>
				<port id="0" precision="I64">
					<dim>2</dim>
				</port>
			</output>
		</layer>
		<layer id="331" name="Resize_211" type="Interpolate" version="opset4">
			<data mode="nearest" shape_calculation_mode="scales" coordinate_transformation_mode="asymmetric" nearest_mode="floor" antialias="false" pads_begin="0, 0, 0, 0" pads_end="0, 0, 0, 0" cube_coeff="-0.75"/>
			<input>
				<port id="0" precision="FP16">
					<dim>1</dim>
					<dim>16</dim>
					<dim>28</dim>
					<dim>28</dim>
				</port>
				<port id="1" precision="I64">
					<dim>2</dim>
				</port>
				<port id="2" precision="FP32">
					<dim>2</dim>
				</port>
				<port id="3" precision="I64">
					<dim>2</dim>
				</port>
			</input>
			<output>
				<port id="4" precision="FP16" names="851">
					<dim>1</dim>
					<dim>16</dim>
					<dim>56</dim>
					<dim>56</dim>
				</port>
			</output>
		</layer>
		<layer id="332" name="Add_212" type="Add" version="opset1">
			<data auto_broadcast="numpy"/>
			<input>
				<port id="0" precision="FP16">
					<dim>1</dim>
					<dim>16</dim>
					<dim>56</dim>
					<dim>56</dim>
				</port>
				<port id="1" precision="FP16">
					<dim>1</dim>
					<dim>16</dim>
					<dim>56</dim>
					<dim>56</dim>
				</port>
			</input>
			<output>
				<port id="2" precision="FP16" names="852">
					<dim>1</dim>
					<dim>16</dim>
					<dim>56</dim>
					<dim>56</dim>
				</port>
			</output>
		</layer>
		<layer id="333" name="Relu_213" type="ReLU" version="opset1">
			<input>
				<port id="0" precision="FP16">
					<dim>1</dim>
					<dim>16</dim>
					<dim>56</dim>
					<dim>56</dim>
				</port>
			</input>
			<output>
				<port id="1" precision="FP16" names="853">
					<dim>1</dim>
					<dim>16</dim>
					<dim>56</dim>
					<dim>56</dim>
				</port>
			</output>
		</layer>
		<layer id="334" name="2308174045" type="Const" version="opset1">
			<data element_type="i64" shape="" offset="1792" size="8"/>
			<output>
				<port id="0" precision="I64"/>
			</output>
		</layer>
		<layer id="335" name="2308373628" type="Const" version="opset1">
			<data element_type="i64" shape="2" offset="15432" size="16"/>
			<output>
				<port id="0" precision="I64">
					<dim>2</dim>
				</port>
			</output>
		</layer>
		<layer id="336" name="Slice_234/Split" type="VariadicSplit" version="opset1">
			<input>
				<port id="0" precision="FP16">
					<dim>1</dim>
					<dim>16</dim>
					<dim>56</dim>
					<dim>56</dim>
				</port>
				<port id="1" precision="I64"/>
				<port id="2" precision="I64">
					<dim>2</dim>
				</port>
			</input>
			<output>
				<port id="3" precision="FP16" names="880">
					<dim>1</dim>
					<dim>8</dim>
					<dim>56</dim>
					<dim>56</dim>
				</port>
				<port id="4" precision="FP16" names="883,913">
					<dim>1</dim>
					<dim>8</dim>
					<dim>56</dim>
					<dim>56</dim>
				</port>
			</output>
		</layer>
		<layer id="337" name="AveragePool_268" type="AvgPool" version="opset1">
			<data kernel="4, 4" strides="4, 4" pads_begin="0, 0" pads_end="0, 0" exclude-pad="true" auto_pad="explicit" rounding_type="floor"/>
			<input>
				<port id="0" precision="FP16">
					<dim>1</dim>
					<dim>8</dim>
					<dim>56</dim>
					<dim>56</dim>
				</port>
			</input>
			<output>
				<port id="1" precision="FP16" names="914">
					<dim>1</dim>
					<dim>8</dim>
					<dim>14</dim>
					<dim>14</dim>
				</port>
			</output>
		</layer>
		<layer id="338" name="2056" type="Const" version="opset1">
			<data element_type="f16" shape="16, 1, 1, 3, 3" offset="20526" size="288"/>
			<output>
				<port id="0" precision="FP16" names="2056">
					<dim>16</dim>
					<dim>1</dim>
					<dim>1</dim>
					<dim>3</dim>
					<dim>3</dim>
				</port>
			</output>
		</layer>
		<layer id="339" name="Conv_214/WithoutBiases" type="GroupConvolution" version="opset1">
			<data strides="2, 2" pads_begin="1, 1" pads_end="1, 1" dilations="1, 1" auto_pad="explicit"/>
			<input>
				<port id="0" precision="FP16">
					<dim>1</dim>
					<dim>16</dim>
					<dim>56</dim>
					<dim>56</dim>
				</port>
				<port id="1" precision="FP16">
					<dim>16</dim>
					<dim>1</dim>
					<dim>1</dim>
					<dim>3</dim>
					<dim>3</dim>
				</port>
			</input>
			<output>
				<port id="2" precision="FP16">
					<dim>1</dim>
					<dim>16</dim>
					<dim>28</dim>
					<dim>28</dim>
				</port>
			</output>
		</layer>
		<layer id="340" name="Conv_214/Dims18701" type="Const" version="opset1">
			<data element_type="f16" shape="1, 16, 1, 1" offset="20814" size="32"/>
			<output>
				<port id="0" precision="FP16">
					<dim>1</dim>
					<dim>16</dim>
					<dim>1</dim>
					<dim>1</dim>
				</port>
			</output>
		</layer>
		<layer id="341" name="Conv_214" type="Add" version="opset1">
			<data auto_broadcast="numpy"/>
			<input>
				<port id="0" precision="FP16">
					<dim>1</dim>
					<dim>16</dim>
					<dim>28</dim>
					<dim>28</dim>
				</port>
				<port id="1" precision="FP16">
					<dim>1</dim>
					<dim>16</dim>
					<dim>1</dim>
					<dim>1</dim>
				</port>
			</input>
			<output>
				<port id="2" precision="FP16" names="2055">
					<dim>1</dim>
					<dim>16</dim>
					<dim>28</dim>
					<dim>28</dim>
				</port>
			</output>
		</layer>
		<layer id="342" name="2059" type="Const" version="opset1">
			<data element_type="f16" shape="32, 16, 1, 1" offset="20846" size="1024"/>
			<output>
				<port id="0" precision="FP16" names="2059">
					<dim>32</dim>
					<dim>16</dim>
					<dim>1</dim>
					<dim>1</dim>
				</port>
			</output>
		</layer>
		<layer id="343" name="Conv_215/WithoutBiases" type="Convolution" version="opset1">
			<data strides="1, 1" dilations="1, 1" pads_begin="0, 0" pads_end="0, 0" auto_pad="explicit"/>
			<input>
				<port id="0" precision="FP16">
					<dim>1</dim>
					<dim>16</dim>
					<dim>28</dim>
					<dim>28</dim>
				</port>
				<port id="1" precision="FP16">
					<dim>32</dim>
					<dim>16</dim>
					<dim>1</dim>
					<dim>1</dim>
				</port>
			</input>
			<output>
				<port id="2" precision="FP16">
					<dim>1</dim>
					<dim>32</dim>
					<dim>28</dim>
					<dim>28</dim>
				</port>
			</output>
		</layer>
		<layer id="344" name="Conv_215/Dims18335" type="Const" version="opset1">
			<data element_type="f16" shape="1, 32, 1, 1" offset="21870" size="64"/>
			<output>
				<port id="0" precision="FP16">
					<dim>1</dim>
					<dim>32</dim>
					<dim>1</dim>
					<dim>1</dim>
				</port>
			</output>
		</layer>
		<layer id="345" name="Conv_215" type="Add" version="opset1">
			<data auto_broadcast="numpy"/>
			<input>
				<port id="0" precision="FP16">
					<dim>1</dim>
					<dim>32</dim>
					<dim>28</dim>
					<dim>28</dim>
				</port>
				<port id="1" precision="FP16">
					<dim>1</dim>
					<dim>32</dim>
					<dim>1</dim>
					<dim>1</dim>
				</port>
			</input>
			<output>
				<port id="2" precision="FP16" names="2058">
					<dim>1</dim>
					<dim>32</dim>
					<dim>28</dim>
					<dim>28</dim>
				</port>
			</output>
		</layer>
		<layer id="346" name="2062" type="Const" version="opset1">
			<data element_type="f16" shape="16, 1, 1, 3, 3" offset="20526" size="288"/>
			<output>
				<port id="0" precision="FP16" names="2062">
					<dim>16</dim>
					<dim>1</dim>
					<dim>1</dim>
					<dim>3</dim>
					<dim>3</dim>
				</port>
			</output>
		</layer>
		<layer id="347" name="Conv_216/WithoutBiases" type="GroupConvolution" version="opset1">
			<data strides="2, 2" pads_begin="1, 1" pads_end="1, 1" dilations="1, 1" auto_pad="explicit"/>
			<input>
				<port id="0" precision="FP16">
					<dim>1</dim>
					<dim>16</dim>
					<dim>56</dim>
					<dim>56</dim>
				</port>
				<port id="1" precision="FP16">
					<dim>16</dim>
					<dim>1</dim>
					<dim>1</dim>
					<dim>3</dim>
					<dim>3</dim>
				</port>
			</input>
			<output>
				<port id="2" precision="FP16">
					<dim>1</dim>
					<dim>16</dim>
					<dim>28</dim>
					<dim>28</dim>
				</port>
			</output>
		</layer>
		<layer id="348" name="Conv_216/Dims18539" type="Const" version="opset1">
			<data element_type="f16" shape="1, 16, 1, 1" offset="20814" size="32"/>
			<output>
				<port id="0" precision="FP16">
					<dim>1</dim>
					<dim>16</dim>
					<dim>1</dim>
					<dim>1</dim>
				</port>
			</output>
		</layer>
		<layer id="349" name="Conv_216" type="Add" version="opset1">
			<data auto_broadcast="numpy"/>
			<input>
				<port id="0" precision="FP16">
					<dim>1</dim>
					<dim>16</dim>
					<dim>28</dim>
					<dim>28</dim>
				</port>
				<port id="1" precision="FP16">
					<dim>1</dim>
					<dim>16</dim>
					<dim>1</dim>
					<dim>1</dim>
				</port>
			</input>
			<output>
				<port id="2" precision="FP16" names="2061">
					<dim>1</dim>
					<dim>16</dim>
					<dim>28</dim>
					<dim>28</dim>
				</port>
			</output>
		</layer>
		<layer id="350" name="2065" type="Const" version="opset1">
			<data element_type="f16" shape="32, 16, 1, 1" offset="20846" size="1024"/>
			<output>
				<port id="0" precision="FP16" names="2065">
					<dim>32</dim>
					<dim>16</dim>
					<dim>1</dim>
					<dim>1</dim>
				</port>
			</output>
		</layer>
		<layer id="351" name="Conv_217/WithoutBiases" type="Convolution" version="opset1">
			<data strides="1, 1" dilations="1, 1" pads_begin="0, 0" pads_end="0, 0" auto_pad="explicit"/>
			<input>
				<port id="0" precision="FP16">
					<dim>1</dim>
					<dim>16</dim>
					<dim>28</dim>
					<dim>28</dim>
				</port>
				<port id="1" precision="FP16">
					<dim>32</dim>
					<dim>16</dim>
					<dim>1</dim>
					<dim>1</dim>
				</port>
			</input>
			<output>
				<port id="2" precision="FP16">
					<dim>1</dim>
					<dim>32</dim>
					<dim>28</dim>
					<dim>28</dim>
				</port>
			</output>
		</layer>
		<layer id="352" name="Conv_217/Dims18191" type="Const" version="opset1">
			<data element_type="f16" shape="1, 32, 1, 1" offset="21870" size="64"/>
			<output>
				<port id="0" precision="FP16">
					<dim>1</dim>
					<dim>32</dim>
					<dim>1</dim>
					<dim>1</dim>
				</port>
			</output>
		</layer>
		<layer id="353" name="Conv_217" type="Add" version="opset1">
			<data auto_broadcast="numpy"/>
			<input>
				<port id="0" precision="FP16">
					<dim>1</dim>
					<dim>32</dim>
					<dim>28</dim>
					<dim>28</dim>
				</port>
				<port id="1" precision="FP16">
					<dim>1</dim>
					<dim>32</dim>
					<dim>1</dim>
					<dim>1</dim>
				</port>
			</input>
			<output>
				<port id="2" precision="FP16" names="2064">
					<dim>1</dim>
					<dim>32</dim>
					<dim>28</dim>
					<dim>28</dim>
				</port>
			</output>
		</layer>
		<layer id="354" name="Add_218" type="Add" version="opset1">
			<data auto_broadcast="numpy"/>
			<input>
				<port id="0" precision="FP16">
					<dim>1</dim>
					<dim>32</dim>
					<dim>28</dim>
					<dim>28</dim>
				</port>
				<port id="1" precision="FP16">
					<dim>1</dim>
					<dim>32</dim>
					<dim>28</dim>
					<dim>28</dim>
				</port>
			</input>
			<output>
				<port id="2" precision="FP16" names="862">
					<dim>1</dim>
					<dim>32</dim>
					<dim>28</dim>
					<dim>28</dim>
				</port>
			</output>
		</layer>
		<layer id="355" name="Add_219" type="Add" version="opset1">
			<data auto_broadcast="numpy"/>
			<input>
				<port id="0" precision="FP16">
					<dim>1</dim>
					<dim>32</dim>
					<dim>28</dim>
					<dim>28</dim>
				</port>
				<port id="1" precision="FP16">
					<dim>1</dim>
					<dim>32</dim>
					<dim>28</dim>
					<dim>28</dim>
				</port>
			</input>
			<output>
				<port id="2" precision="FP16" names="863">
					<dim>1</dim>
					<dim>32</dim>
					<dim>28</dim>
					<dim>28</dim>
				</port>
			</output>
		</layer>
		<layer id="356" name="Relu_220" type="ReLU" version="opset1">
			<input>
				<port id="0" precision="FP16">
					<dim>1</dim>
					<dim>32</dim>
					<dim>28</dim>
					<dim>28</dim>
				</port>
			</input>
			<output>
				<port id="1" precision="FP16" names="864">
					<dim>1</dim>
					<dim>32</dim>
					<dim>28</dim>
					<dim>28</dim>
				</port>
			</output>
		</layer>
		<layer id="357" name="2308674369" type="Const" version="opset1">
			<data element_type="i64" shape="" offset="1792" size="8"/>
			<output>
				<port id="0" precision="I64"/>
			</output>
		</layer>
		<layer id="358" name="2308875185" type="Const" version="opset1">
			<data element_type="i64" shape="2" offset="1800" size="16"/>
			<output>
				<port id="0" precision="I64">
					<dim>2</dim>
				</port>
			</output>
		</layer>
		<layer id="359" name="Slice_248/Split" type="VariadicSplit" version="opset1">
			<input>
				<port id="0" precision="FP16">
					<dim>1</dim>
					<dim>32</dim>
					<dim>28</dim>
					<dim>28</dim>
				</port>
				<port id="1" precision="I64"/>
				<port id="2" precision="I64">
					<dim>2</dim>
				</port>
			</input>
			<output>
				<port id="3" precision="FP16" names="894">
					<dim>1</dim>
					<dim>16</dim>
					<dim>28</dim>
					<dim>28</dim>
				</port>
				<port id="4" precision="FP16" names="897,916">
					<dim>1</dim>
					<dim>16</dim>
					<dim>28</dim>
					<dim>28</dim>
				</port>
			</output>
		</layer>
		<layer id="360" name="AveragePool_271" type="AvgPool" version="opset1">
			<data kernel="2, 2" strides="2, 2" pads_begin="0, 0" pads_end="0, 0" exclude-pad="true" auto_pad="explicit" rounding_type="floor"/>
			<input>
				<port id="0" precision="FP16">
					<dim>1</dim>
					<dim>16</dim>
					<dim>28</dim>
					<dim>28</dim>
				</port>
			</input>
			<output>
				<port id="1" precision="FP16" names="917">
					<dim>1</dim>
					<dim>16</dim>
					<dim>14</dim>
					<dim>14</dim>
				</port>
			</output>
		</layer>
		<layer id="361" name="2068" type="Const" version="opset1">
			<data element_type="f16" shape="32, 1, 1, 3, 3" offset="21934" size="576"/>
			<output>
				<port id="0" precision="FP16" names="2068">
					<dim>32</dim>
					<dim>1</dim>
					<dim>1</dim>
					<dim>3</dim>
					<dim>3</dim>
				</port>
			</output>
		</layer>
		<layer id="362" name="Conv_221/WithoutBiases" type="GroupConvolution" version="opset1">
			<data strides="2, 2" pads_begin="1, 1" pads_end="1, 1" dilations="1, 1" auto_pad="explicit"/>
			<input>
				<port id="0" precision="FP16">
					<dim>1</dim>
					<dim>32</dim>
					<dim>28</dim>
					<dim>28</dim>
				</port>
				<port id="1" precision="FP16">
					<dim>32</dim>
					<dim>1</dim>
					<dim>1</dim>
					<dim>3</dim>
					<dim>3</dim>
				</port>
			</input>
			<output>
				<port id="2" precision="FP16">
					<dim>1</dim>
					<dim>32</dim>
					<dim>14</dim>
					<dim>14</dim>
				</port>
			</output>
		</layer>
		<layer id="363" name="Conv_221/Dims18617" type="Const" version="opset1">
			<data element_type="f16" shape="1, 32, 1, 1" offset="22510" size="64"/>
			<output>
				<port id="0" precision="FP16">
					<dim>1</dim>
					<dim>32</dim>
					<dim>1</dim>
					<dim>1</dim>
				</port>
			</output>
		</layer>
		<layer id="364" name="Conv_221" type="Add" version="opset1">
			<data auto_broadcast="numpy"/>
			<input>
				<port id="0" precision="FP16">
					<dim>1</dim>
					<dim>32</dim>
					<dim>14</dim>
					<dim>14</dim>
				</port>
				<port id="1" precision="FP16">
					<dim>1</dim>
					<dim>32</dim>
					<dim>1</dim>
					<dim>1</dim>
				</port>
			</input>
			<output>
				<port id="2" precision="FP16" names="2067">
					<dim>1</dim>
					<dim>32</dim>
					<dim>14</dim>
					<dim>14</dim>
				</port>
			</output>
		</layer>
		<layer id="365" name="2071" type="Const" version="opset1">
			<data element_type="f16" shape="64, 32, 1, 1" offset="22574" size="4096"/>
			<output>
				<port id="0" precision="FP16" names="2071">
					<dim>64</dim>
					<dim>32</dim>
					<dim>1</dim>
					<dim>1</dim>
				</port>
			</output>
		</layer>
		<layer id="366" name="Conv_222/WithoutBiases" type="Convolution" version="opset1">
			<data strides="1, 1" dilations="1, 1" pads_begin="0, 0" pads_end="0, 0" auto_pad="explicit"/>
			<input>
				<port id="0" precision="FP16">
					<dim>1</dim>
					<dim>32</dim>
					<dim>14</dim>
					<dim>14</dim>
				</port>
				<port id="1" precision="FP16">
					<dim>64</dim>
					<dim>32</dim>
					<dim>1</dim>
					<dim>1</dim>
				</port>
			</input>
			<output>
				<port id="2" precision="FP16">
					<dim>1</dim>
					<dim>64</dim>
					<dim>14</dim>
					<dim>14</dim>
				</port>
			</output>
		</layer>
		<layer id="367" name="Conv_222/Dims18341" type="Const" version="opset1">
			<data element_type="f16" shape="1, 64, 1, 1" offset="26670" size="128"/>
			<output>
				<port id="0" precision="FP16">
					<dim>1</dim>
					<dim>64</dim>
					<dim>1</dim>
					<dim>1</dim>
				</port>
			</output>
		</layer>
		<layer id="368" name="Conv_222" type="Add" version="opset1">
			<data auto_broadcast="numpy"/>
			<input>
				<port id="0" precision="FP16">
					<dim>1</dim>
					<dim>64</dim>
					<dim>14</dim>
					<dim>14</dim>
				</port>
				<port id="1" precision="FP16">
					<dim>1</dim>
					<dim>64</dim>
					<dim>1</dim>
					<dim>1</dim>
				</port>
			</input>
			<output>
				<port id="2" precision="FP16" names="2070">
					<dim>1</dim>
					<dim>64</dim>
					<dim>14</dim>
					<dim>14</dim>
				</port>
			</output>
		</layer>
		<layer id="369" name="Relu_223" type="ReLU" version="opset1">
			<input>
				<port id="0" precision="FP16">
					<dim>1</dim>
					<dim>64</dim>
					<dim>14</dim>
					<dim>14</dim>
				</port>
			</input>
			<output>
				<port id="1" precision="FP16" names="869">
					<dim>1</dim>
					<dim>64</dim>
					<dim>14</dim>
					<dim>14</dim>
				</port>
			</output>
		</layer>
		<layer id="370" name="2309172527" type="Const" version="opset1">
			<data element_type="i64" shape="" offset="1792" size="8"/>
			<output>
				<port id="0" precision="I64"/>
			</output>
		</layer>
		<layer id="371" name="2309372857" type="Const" version="opset1">
			<data element_type="i64" shape="2" offset="26798" size="16"/>
			<output>
				<port id="0" precision="I64">
					<dim>2</dim>
				</port>
			</output>
		</layer>
		<layer id="372" name="Slice_262/Split" type="VariadicSplit" version="opset1">
			<input>
				<port id="0" precision="FP16">
					<dim>1</dim>
					<dim>64</dim>
					<dim>14</dim>
					<dim>14</dim>
				</port>
				<port id="1" precision="I64"/>
				<port id="2" precision="I64">
					<dim>2</dim>
				</port>
			</input>
			<output>
				<port id="3" precision="FP16" names="908">
					<dim>1</dim>
					<dim>32</dim>
					<dim>14</dim>
					<dim>14</dim>
				</port>
				<port id="4" precision="FP16" names="911">
					<dim>1</dim>
					<dim>32</dim>
					<dim>14</dim>
					<dim>14</dim>
				</port>
			</output>
		</layer>
		<layer id="373" name="Concat_272" type="Concat" version="opset1">
			<data axis="1"/>
			<input>
				<port id="0" precision="FP16">
					<dim>1</dim>
					<dim>8</dim>
					<dim>14</dim>
					<dim>14</dim>
				</port>
				<port id="1" precision="FP16">
					<dim>1</dim>
					<dim>16</dim>
					<dim>14</dim>
					<dim>14</dim>
				</port>
				<port id="2" precision="FP16">
					<dim>1</dim>
					<dim>32</dim>
					<dim>14</dim>
					<dim>14</dim>
				</port>
			</input>
			<output>
				<port id="3" precision="FP16" names="918">
					<dim>1</dim>
					<dim>56</dim>
					<dim>14</dim>
					<dim>14</dim>
				</port>
			</output>
		</layer>
		<layer id="374" name="stage1.0.layers.0.cross_resolution_weighting.conv1.0.weight" type="Const" version="opset1">
			<data element_type="f16" shape="7, 56, 1, 1" offset="26814" size="784"/>
			<output>
				<port id="0" precision="FP16" names="stage1.0.layers.0.cross_resolution_weighting.conv1.0.weight">
					<dim>7</dim>
					<dim>56</dim>
					<dim>1</dim>
					<dim>1</dim>
				</port>
			</output>
		</layer>
		<layer id="375" name="Conv_273/WithoutBiases" type="Convolution" version="opset1">
			<data strides="1, 1" dilations="1, 1" pads_begin="0, 0" pads_end="0, 0" auto_pad="explicit"/>
			<input>
				<port id="0" precision="FP16">
					<dim>1</dim>
					<dim>56</dim>
					<dim>14</dim>
					<dim>14</dim>
				</port>
				<port id="1" precision="FP16">
					<dim>7</dim>
					<dim>56</dim>
					<dim>1</dim>
					<dim>1</dim>
				</port>
			</input>
			<output>
				<port id="2" precision="FP16">
					<dim>1</dim>
					<dim>7</dim>
					<dim>14</dim>
					<dim>14</dim>
				</port>
			</output>
		</layer>
		<layer id="376" name="Conv_273/Dims18479" type="Const" version="opset1">
			<data element_type="f16" shape="1, 7, 1, 1" offset="27598" size="14"/>
			<output>
				<port id="0" precision="FP16">
					<dim>1</dim>
					<dim>7</dim>
					<dim>1</dim>
					<dim>1</dim>
				</port>
			</output>
		</layer>
		<layer id="377" name="Conv_273" type="Add" version="opset1">
			<data auto_broadcast="numpy"/>
			<input>
				<port id="0" precision="FP16">
					<dim>1</dim>
					<dim>7</dim>
					<dim>14</dim>
					<dim>14</dim>
				</port>
				<port id="1" precision="FP16">
					<dim>1</dim>
					<dim>7</dim>
					<dim>1</dim>
					<dim>1</dim>
				</port>
			</input>
			<output>
				<port id="2" precision="FP16" names="919">
					<dim>1</dim>
					<dim>7</dim>
					<dim>14</dim>
					<dim>14</dim>
				</port>
			</output>
		</layer>
		<layer id="378" name="Relu_274" type="ReLU" version="opset1">
			<input>
				<port id="0" precision="FP16">
					<dim>1</dim>
					<dim>7</dim>
					<dim>14</dim>
					<dim>14</dim>
				</port>
			</input>
			<output>
				<port id="1" precision="FP16" names="920">
					<dim>1</dim>
					<dim>7</dim>
					<dim>14</dim>
					<dim>14</dim>
				</port>
			</output>
		</layer>
		<layer id="379" name="stage1.0.layers.0.cross_resolution_weighting.conv2.0.weight" type="Const" version="opset1">
			<data element_type="f16" shape="56, 7, 1, 1" offset="27612" size="784"/>
			<output>
				<port id="0" precision="FP16" names="stage1.0.layers.0.cross_resolution_weighting.conv2.0.weight">
					<dim>56</dim>
					<dim>7</dim>
					<dim>1</dim>
					<dim>1</dim>
				</port>
			</output>
		</layer>
		<layer id="380" name="Conv_275/WithoutBiases" type="Convolution" version="opset1">
			<data strides="1, 1" dilations="1, 1" pads_begin="0, 0" pads_end="0, 0" auto_pad="explicit"/>
			<input>
				<port id="0" precision="FP16">
					<dim>1</dim>
					<dim>7</dim>
					<dim>14</dim>
					<dim>14</dim>
				</port>
				<port id="1" precision="FP16">
					<dim>56</dim>
					<dim>7</dim>
					<dim>1</dim>
					<dim>1</dim>
				</port>
			</input>
			<output>
				<port id="2" precision="FP16">
					<dim>1</dim>
					<dim>56</dim>
					<dim>14</dim>
					<dim>14</dim>
				</port>
			</output>
		</layer>
		<layer id="381" name="Conv_275/Dims18683" type="Const" version="opset1">
			<data element_type="f16" shape="1, 56, 1, 1" offset="28396" size="112"/>
			<output>
				<port id="0" precision="FP16">
					<dim>1</dim>
					<dim>56</dim>
					<dim>1</dim>
					<dim>1</dim>
				</port>
			</output>
		</layer>
		<layer id="382" name="Conv_275" type="Add" version="opset1">
			<data auto_broadcast="numpy"/>
			<input>
				<port id="0" precision="FP16">
					<dim>1</dim>
					<dim>56</dim>
					<dim>14</dim>
					<dim>14</dim>
				</port>
				<port id="1" precision="FP16">
					<dim>1</dim>
					<dim>56</dim>
					<dim>1</dim>
					<dim>1</dim>
				</port>
			</input>
			<output>
				<port id="2" precision="FP16" names="921">
					<dim>1</dim>
					<dim>56</dim>
					<dim>14</dim>
					<dim>14</dim>
				</port>
			</output>
		</layer>
		<layer id="383" name="Sigmoid_276" type="Sigmoid" version="opset1">
			<input>
				<port id="0" precision="FP16">
					<dim>1</dim>
					<dim>56</dim>
					<dim>14</dim>
					<dim>14</dim>
				</port>
			</input>
			<output>
				<port id="1" precision="FP16" names="922">
					<dim>1</dim>
					<dim>56</dim>
					<dim>14</dim>
					<dim>14</dim>
				</port>
			</output>
		</layer>
		<layer id="384" name="Split_277/VariadicSplit_input_port_1/value" type="Const" version="opset1">
			<data element_type="i64" shape="" offset="1792" size="8"/>
			<output>
				<port id="0" precision="I64"/>
			</output>
		</layer>
		<layer id="385" name="Split_277/VariadicSplit_input_port_2/value" type="Const" version="opset1">
			<data element_type="i64" shape="3" offset="28508" size="24"/>
			<output>
				<port id="0" precision="I64">
					<dim>3</dim>
				</port>
			</output>
		</layer>
		<layer id="386" name="Split_277/VariadicSplit" type="VariadicSplit" version="opset1">
			<input>
				<port id="0" precision="FP16">
					<dim>1</dim>
					<dim>56</dim>
					<dim>14</dim>
					<dim>14</dim>
				</port>
				<port id="1" precision="I64"/>
				<port id="2" precision="I64">
					<dim>3</dim>
				</port>
			</input>
			<output>
				<port id="3" precision="FP16" names="923">
					<dim>1</dim>
					<dim>8</dim>
					<dim>14</dim>
					<dim>14</dim>
				</port>
				<port id="4" precision="FP16" names="924">
					<dim>1</dim>
					<dim>16</dim>
					<dim>14</dim>
					<dim>14</dim>
				</port>
				<port id="5" precision="FP16" names="925">
					<dim>1</dim>
					<dim>32</dim>
					<dim>14</dim>
					<dim>14</dim>
				</port>
			</output>
		</layer>
		<layer id="387" name="Shape_287" type="ShapeOf" version="opset3">
			<data output_type="i64"/>
			<input>
				<port id="0" precision="FP16">
					<dim>1</dim>
					<dim>8</dim>
					<dim>14</dim>
					<dim>14</dim>
				</port>
			</input>
			<output>
				<port id="1" precision="I64" names="935">
					<dim>4</dim>
				</port>
			</output>
		</layer>
		<layer id="388" name="Slice_291/Concat2064175236" type="Const" version="opset1">
			<data element_type="i64" shape="1" offset="5468" size="8"/>
			<output>
				<port id="0" precision="I64">
					<dim>1</dim>
				</port>
			</output>
		</layer>
		<layer id="389" name="Slice_291/Concat206312064273484" type="Const" version="opset1">
			<data element_type="i64" shape="1" offset="5476" size="8"/>
			<output>
				<port id="0" precision="I64">
					<dim>1</dim>
				</port>
			</output>
		</layer>
		<layer id="390" name="Slice_291/Strides2064373685" type="Const" version="opset1">
			<data element_type="i64" shape="1" offset="1792" size="8"/>
			<output>
				<port id="0" precision="I64">
					<dim>1</dim>
				</port>
			</output>
		</layer>
		<layer id="391" name="Slice_291" type="StridedSlice" version="opset1">
			<data begin_mask="0" end_mask="0" new_axis_mask="0" shrink_axis_mask="0" ellipsis_mask="0"/>
			<input>
				<port id="0" precision="I64">
					<dim>4</dim>
				</port>
				<port id="1" precision="I64">
					<dim>1</dim>
				</port>
				<port id="2" precision="I64">
					<dim>1</dim>
				</port>
				<port id="3" precision="I64">
					<dim>1</dim>
				</port>
			</input>
			<output>
				<port id="4" precision="I64" names="939">
					<dim>2</dim>
				</port>
			</output>
		</layer>
		<layer id="392" name="Shape_278" type="ShapeOf" version="opset3">
			<data output_type="i64"/>
			<input>
				<port id="0" precision="FP16">
					<dim>1</dim>
					<dim>8</dim>
					<dim>56</dim>
					<dim>56</dim>
				</port>
			</input>
			<output>
				<port id="1" precision="I64" names="926">
					<dim>4</dim>
				</port>
			</output>
		</layer>
		<layer id="393" name="Constant_279" type="Const" version="opset1">
			<data element_type="i32" shape="" offset="5488" size="4"/>
			<output>
				<port id="0" precision="I32" names="927"/>
			</output>
		</layer>
		<layer id="394" name="Gather_280/axis" type="Const" version="opset1">
			<data element_type="i64" shape="" offset="5468" size="8"/>
			<output>
				<port id="0" precision="I64"/>
			</output>
		</layer>
		<layer id="395" name="Gather_2802016" type="Gather" version="opset7">
			<data batch_dims="0"/>
			<input>
				<port id="0" precision="I64">
					<dim>4</dim>
				</port>
				<port id="1" precision="I32"/>
				<port id="2" precision="I64"/>
			</input>
			<output>
				<port id="3" precision="I64" names="928"/>
			</output>
		</layer>
		<layer id="396" name="Unsqueeze_284/Dims" type="Const" version="opset1">
			<data element_type="i64" shape="1" offset="5468" size="8"/>
			<output>
				<port id="0" precision="I64">
					<dim>1</dim>
				</port>
			</output>
		</layer>
		<layer id="397" name="Unsqueeze_284/Unsqueeze" type="Unsqueeze" version="opset1">
			<input>
				<port id="0" precision="I64"/>
				<port id="1" precision="I64">
					<dim>1</dim>
				</port>
			</input>
			<output>
				<port id="2" precision="I64" names="932">
					<dim>1</dim>
				</port>
			</output>
		</layer>
		<layer id="398" name="Shape_281" type="ShapeOf" version="opset3">
			<data output_type="i64"/>
			<input>
				<port id="0" precision="FP16">
					<dim>1</dim>
					<dim>8</dim>
					<dim>56</dim>
					<dim>56</dim>
				</port>
			</input>
			<output>
				<port id="1" precision="I64" names="929">
					<dim>4</dim>
				</port>
			</output>
		</layer>
		<layer id="399" name="Constant_282" type="Const" version="opset1">
			<data element_type="i32" shape="" offset="5492" size="4"/>
			<output>
				<port id="0" precision="I32" names="930"/>
			</output>
		</layer>
		<layer id="400" name="Gather_283/axis" type="Const" version="opset1">
			<data element_type="i64" shape="" offset="5468" size="8"/>
			<output>
				<port id="0" precision="I64"/>
			</output>
		</layer>
		<layer id="401" name="Gather_2832008" type="Gather" version="opset7">
			<data batch_dims="0"/>
			<input>
				<port id="0" precision="I64">
					<dim>4</dim>
				</port>
				<port id="1" precision="I32"/>
				<port id="2" precision="I64"/>
			</input>
			<output>
				<port id="3" precision="I64" names="931"/>
			</output>
		</layer>
		<layer id="402" name="Unsqueeze_285/Dims" type="Const" version="opset1">
			<data element_type="i64" shape="1" offset="5468" size="8"/>
			<output>
				<port id="0" precision="I64">
					<dim>1</dim>
				</port>
			</output>
		</layer>
		<layer id="403" name="Unsqueeze_285/Unsqueeze" type="Unsqueeze" version="opset1">
			<input>
				<port id="0" precision="I64"/>
				<port id="1" precision="I64">
					<dim>1</dim>
				</port>
			</input>
			<output>
				<port id="2" precision="I64" names="933">
					<dim>1</dim>
				</port>
			</output>
		</layer>
		<layer id="404" name="Concat_286" type="Concat" version="opset1">
			<data axis="0"/>
			<input>
				<port id="0" precision="I64">
					<dim>1</dim>
				</port>
				<port id="1" precision="I64">
					<dim>1</dim>
				</port>
			</input>
			<output>
				<port id="2" precision="I64" names="934,940">
					<dim>2</dim>
				</port>
			</output>
		</layer>
		<layer id="405" name="Concat_293" type="Concat" version="opset1">
			<data axis="0"/>
			<input>
				<port id="0" precision="I64">
					<dim>2</dim>
				</port>
				<port id="1" precision="I64">
					<dim>2</dim>
				</port>
			</input>
			<output>
				<port id="2" precision="I64" names="941">
					<dim>4</dim>
				</port>
			</output>
		</layer>
		<layer id="406" name="Resize_296/StridedSlice_sizes_input_port_1/value1410372575" type="Const" version="opset1">
			<data element_type="i64" shape="1" offset="5476" size="8"/>
			<output>
				<port id="0" precision="I64">
					<dim>1</dim>
				</port>
			</output>
		</layer>
		<layer id="407" name="Resize_296/StridedSlice_sizes_input_port_2/value1410574249" type="Const" version="opset1">
			<data element_type="i64" shape="1" offset="18558" size="8"/>
			<output>
				<port id="0" precision="I64">
					<dim>1</dim>
				</port>
			</output>
		</layer>
		<layer id="408" name="Resize_296/StridedSlice_sizes_input_port_3/value1410773952" type="Const" version="opset1">
			<data element_type="i64" shape="1" offset="1792" size="8"/>
			<output>
				<port id="0" precision="I64">
					<dim>1</dim>
				</port>
			</output>
		</layer>
		<layer id="409" name="Resize_296/StridedSlice_sizes" type="StridedSlice" version="opset1">
			<data begin_mask="0" end_mask="0" new_axis_mask="0" shrink_axis_mask="0" ellipsis_mask="0"/>
			<input>
				<port id="0" precision="I64">
					<dim>4</dim>
				</port>
				<port id="1" precision="I64">
					<dim>1</dim>
				</port>
				<port id="2" precision="I64">
					<dim>1</dim>
				</port>
				<port id="3" precision="I64">
					<dim>1</dim>
				</port>
			</input>
			<output>
				<port id="4" precision="I64">
					<dim>2</dim>
				</port>
			</output>
		</layer>
		<layer id="410" name="14123" type="Convert" version="opset1">
			<data destination_type="f32"/>
			<input>
				<port id="0" precision="I64">
					<dim>4</dim>
				</port>
			</input>
			<output>
				<port id="1" precision="FP32">
					<dim>4</dim>
				</port>
			</output>
		</layer>
		<layer id="411" name="Resize_296/ShapeOf" type="ShapeOf" version="opset3">
			<data output_type="i64"/>
			<input>
				<port id="0" precision="FP16">
					<dim>1</dim>
					<dim>8</dim>
					<dim>14</dim>
					<dim>14</dim>
				</port>
			</input>
			<output>
				<port id="1" precision="I64">
					<dim>4</dim>
				</port>
			</output>
		</layer>
		<layer id="412" name="14122" type="Convert" version="opset1">
			<data destination_type="f32"/>
			<input>
				<port id="0" precision="I64">
					<dim>4</dim>
				</port>
			</input>
			<output>
				<port id="1" precision="FP32">
					<dim>4</dim>
				</port>
			</output>
		</layer>
		<layer id="413" name="Resize_296/Div" type="Divide" version="opset1">
			<data auto_broadcast="numpy" m_pythondiv="true"/>
			<input>
				<port id="0" precision="FP32">
					<dim>4</dim>
				</port>
				<port id="1" precision="FP32">
					<dim>4</dim>
				</port>
			</input>
…
		<edge from-layer="1498" from-port="0" to-layer="1503" to-port="1"/>
		<edge from-layer="1499" from-port="0" to-layer="1500" to-port="1"/>
		<edge from-layer="1500" from-port="2" to-layer="1503" to-port="2"/>
		<edge from-layer="1501" from-port="0" to-layer="1502" to-port="1"/>
		<edge from-layer="1502" from-port="2" to-layer="1503" to-port="3"/>
		<edge from-layer="1503" from-port="4" to-layer="1504" to-port="1"/>
		<edge from-layer="1504" from-port="2" to-layer="1506" to-port="0"/>
		<edge from-layer="1504" from-port="2" to-layer="1783" to-port="1"/>
		<edge from-layer="1504" from-port="2" to-layer="1861" to-port="0"/>
		<edge from-layer="1504" from-port="2" to-layer="1945" to-port="0"/>
		<edge from-layer="1505" from-port="0" to-layer="1506" to-port="1"/>
		<edge from-layer="1506" from-port="2" to-layer="1508" to-port="0"/>
		<edge from-layer="1507" from-port="0" to-layer="1508" to-port="1"/>
		<edge from-layer="1508" from-port="2" to-layer="1523" to-port="0"/>
		<edge from-layer="1508" from-port="2" to-layer="1509" to-port="0"/>
		<edge from-layer="1509" from-port="1" to-layer="1510" to-port="0"/>
		<edge from-layer="1510" from-port="1" to-layer="1512" to-port="0"/>
		<edge from-layer="1511" from-port="0" to-layer="1512" to-port="1"/>
		<edge from-layer="1512" from-port="2" to-layer="1514" to-port="0"/>
		<edge from-layer="1513" from-port="0" to-layer="1514" to-port="1"/>
		<edge from-layer="1514" from-port="2" to-layer="1515" to-port="0"/>
		<edge from-layer="1515" from-port="1" to-layer="1516" to-port="0"/>
		<edge from-layer="1516" from-port="1" to-layer="1520" to-port="0"/>
		<edge from-layer="1517" from-port="0" to-layer="1520" to-port="1"/>
		<edge from-layer="1518" from-port="0" to-layer="1520" to-port="2"/>
		<edge from-layer="1519" from-port="0" to-layer="1520" to-port="3"/>
		<edge from-layer="1520" from-port="4" to-layer="1523" to-port="1"/>
		<edge from-layer="1521" from-port="0" to-layer="1523" to-port="2"/>
		<edge from-layer="1522" from-port="0" to-layer="1523" to-port="3"/>
		<edge from-layer="1523" from-port="4" to-layer="1524" to-port="1"/>
		<edge from-layer="1524" from-port="2" to-layer="1644" to-port="0"/>
		<edge from-layer="1525" from-port="1" to-layer="1529" to-port="0"/>
		<edge from-layer="1526" from-port="0" to-layer="1529" to-port="1"/>
		<edge from-layer="1527" from-port="0" to-layer="1529" to-port="2"/>
		<edge from-layer="1528" from-port="0" to-layer="1529" to-port="3"/>
		<edge from-layer="1529" from-port="4" to-layer="1543" to-port="0"/>
		<edge from-layer="1530" from-port="1" to-layer="1533" to-port="0"/>
		<edge from-layer="1531" from-port="0" to-layer="1533" to-port="1"/>
		<edge from-layer="1532" from-port="0" to-layer="1533" to-port="2"/>
		<edge from-layer="1533" from-port="3" to-layer="1535" to-port="0"/>
		<edge from-layer="1534" from-port="0" to-layer="1535" to-port="1"/>
		<edge from-layer="1535" from-port="2" to-layer="1542" to-port="0"/>
		<edge from-layer="1536" from-port="1" to-layer="1539" to-port="0"/>
		<edge from-layer="1537" from-port="0" to-layer="1539" to-port="1"/>
		<edge from-layer="1538" from-port="0" to-layer="1539" to-port="2"/>
		<edge from-layer="1539" from-port="3" to-layer="1541" to-port="0"/>
		<edge from-layer="1540" from-port="0" to-layer="1541" to-port="1"/>
		<edge from-layer="1541" from-port="2" to-layer="1542" to-port="1"/>
		<edge from-layer="1542" from-port="2" to-layer="1543" to-port="1"/>
		<edge from-layer="1543" from-port="2" to-layer="1547" to-port="0"/>
		<edge from-layer="1543" from-port="2" to-layer="1548" to-port="0"/>
		<edge from-layer="1544" from-port="0" to-layer="1547" to-port="1"/>
		<edge from-layer="1545" from-port="0" to-layer="1547" to-port="2"/>
		<edge from-layer="1546" from-port="0" to-layer="1547" to-port="3"/>
		<edge from-layer="1547" from-port="4" to-layer="1559" to-port="1"/>
		<edge from-layer="1548" from-port="1" to-layer="1551" to-port="0"/>
		<edge from-layer="1549" from-port="1" to-layer="1550" to-port="0"/>
		<edge from-layer="1550" from-port="1" to-layer="1551" to-port="1"/>
		<edge from-layer="1551" from-port="2" to-layer="1553" to-port="0"/>
		<edge from-layer="1552" from-port="0" to-layer="1553" to-port="1"/>
		<edge from-layer="1553" from-port="2" to-layer="1557" to-port="0"/>
		<edge from-layer="1554" from-port="0" to-layer="1557" to-port="1"/>
		<edge from-layer="1555" from-port="0" to-layer="1557" to-port="2"/>
		<edge from-layer="1556" from-port="0" to-layer="1557" to-port="3"/>
		<edge from-layer="1557" from-port="4" to-layer="1559" to-port="2"/>
		<edge from-layer="1558" from-port="0" to-layer="1559" to-port="3"/>
		<edge from-layer="1559" from-port="4" to-layer="1560" to-port="1"/>
		<edge from-layer="1560" from-port="2" to-layer="1562" to-port="0"/>
		<edge from-layer="1561" from-port="0" to-layer="1562" to-port="1"/>
		<edge from-layer="1562" from-port="2" to-layer="1564" to-port="0"/>
		<edge from-layer="1563" from-port="0" to-layer="1564" to-port="1"/>
		<edge from-layer="1564" from-port="2" to-layer="1572" to-port="0"/>
		<edge from-layer="1564" from-port="2" to-layer="1566" to-port="0"/>
		<edge from-layer="1564" from-port="2" to-layer="1583" to-port="0"/>
		<edge from-layer="1565" from-port="0" to-layer="1571" to-port="0"/>
		<edge from-layer="1566" from-port="1" to-layer="1567" to-port="0"/>
		<edge from-layer="1567" from-port="1" to-layer="1569" to-port="0"/>
		<edge from-layer="1568" from-port="0" to-layer="1569" to-port="1"/>
		<edge from-layer="1569" from-port="2" to-layer="1571" to-port="1"/>
		<edge from-layer="1570" from-port="0" to-layer="1571" to-port="2"/>
		<edge from-layer="1571" from-port="3" to-layer="1572" to-port="1"/>
		<edge from-layer="1572" from-port="2" to-layer="1574" to-port="0"/>
		<edge from-layer="1573" from-port="0" to-layer="1574" to-port="1"/>
		<edge from-layer="1574" from-port="2" to-layer="1576" to-port="0"/>
		<edge from-layer="1575" from-port="0" to-layer="1576" to-port="1"/>
		<edge from-layer="1576" from-port="2" to-layer="1577" to-port="0"/>
		<edge from-layer="1577" from-port="1" to-layer="1579" to-port="0"/>
		<edge from-layer="1578" from-port="0" to-layer="1579" to-port="1"/>
		<edge from-layer="1579" from-port="2" to-layer="1581" to-port="0"/>
		<edge from-layer="1580" from-port="0" to-layer="1581" to-port="1"/>
		<edge from-layer="1581" from-port="2" to-layer="1582" to-port="0"/>
		<edge from-layer="1582" from-port="1" to-layer="1583" to-port="1"/>
		<edge from-layer="1583" from-port="2" to-layer="1584" to-port="1"/>
		<edge from-layer="1584" from-port="2" to-layer="1606" to-port="0"/>
		<edge from-layer="1584" from-port="2" to-layer="1613" to-port="0"/>
		<edge from-layer="1584" from-port="2" to-layer="1592" to-port="0"/>
		<edge from-layer="1584" from-port="2" to-layer="1600" to-port="0"/>
		<edge from-layer="1584" from-port="2" to-layer="1585" to-port="0"/>
		<edge from-layer="1585" from-port="1" to-layer="1588" to-port="0"/>
		<edge from-layer="1586" from-port="0" to-layer="1588" to-port="1"/>
		<edge from-layer="1587" from-port="0" to-layer="1588" to-port="2"/>
		<edge from-layer="1588" from-port="3" to-layer="1617" to-port="0"/>
		<edge from-layer="1588" from-port="3" to-layer="1590" to-port="0"/>
		<edge from-layer="1589" from-port="0" to-layer="1590" to-port="1"/>
		<edge from-layer="1590" from-port="2" to-layer="1612" to-port="0"/>
		<edge from-layer="1591" from-port="0" to-layer="1612" to-port="1"/>
		<edge from-layer="1592" from-port="1" to-layer="1595" to-port="0"/>
		<edge from-layer="1593" from-port="0" to-layer="1595" to-port="1"/>
		<edge from-layer="1594" from-port="0" to-layer="1595" to-port="2"/>
		<edge from-layer="1595" from-port="3" to-layer="1597" to-port="0"/>
		<edge from-layer="1596" from-port="0" to-layer="1597" to-port="1"/>
		<edge from-layer="1597" from-port="2" to-layer="1599" to-port="0"/>
		<edge from-layer="1598" from-port="0" to-layer="1599" to-port="1"/>
		<edge from-layer="1599" from-port="2" to-layer="1612" to-port="2"/>
		<edge from-layer="1600" from-port="1" to-layer="1603" to-port="0"/>
		<edge from-layer="1601" from-port="0" to-layer="1603" to-port="1"/>
		<edge from-layer="1602" from-port="0" to-layer="1603" to-port="2"/>
		<edge from-layer="1603" from-port="3" to-layer="1620" to-port="0"/>
		<edge from-layer="1603" from-port="3" to-layer="1605" to-port="0"/>
		<edge from-layer="1604" from-port="0" to-layer="1605" to-port="1"/>
		<edge from-layer="1605" from-port="2" to-layer="1612" to-port="3"/>
		<edge from-layer="1606" from-port="1" to-layer="1609" to-port="0"/>
		<edge from-layer="1607" from-port="0" to-layer="1609" to-port="1"/>
		<edge from-layer="1608" from-port="0" to-layer="1609" to-port="2"/>
		<edge from-layer="1609" from-port="3" to-layer="1611" to-port="0"/>
		<edge from-layer="1609" from-port="3" to-layer="1622" to-port="0"/>
		<edge from-layer="1610" from-port="0" to-layer="1611" to-port="1"/>
		<edge from-layer="1611" from-port="2" to-layer="1612" to-port="4"/>
		<edge from-layer="1612" from-port="5" to-layer="1613" to-port="1"/>
		<edge from-layer="1613" from-port="2" to-layer="1615" to-port="0"/>
		<edge from-layer="1614" from-port="0" to-layer="1615" to-port="1"/>
		<edge from-layer="1615" from-port="2" to-layer="1624" to-port="0"/>
		<edge from-layer="1616" from-port="0" to-layer="1617" to-port="1"/>
		<edge from-layer="1617" from-port="2" to-layer="1623" to-port="0"/>
		<edge from-layer="1618" from-port="0" to-layer="1623" to-port="1"/>
		<edge from-layer="1619" from-port="0" to-layer="1620" to-port="1"/>
		<edge from-layer="1620" from-port="2" to-layer="1623" to-port="2"/>
		<edge from-layer="1621" from-port="0" to-layer="1622" to-port="1"/>
		<edge from-layer="1622" from-port="2" to-layer="1623" to-port="3"/>
		<edge from-layer="1623" from-port="4" to-layer="1624" to-port="1"/>
		<edge from-layer="1624" from-port="2" to-layer="1785" to-port="0"/>
		<edge from-layer="1624" from-port="2" to-layer="1963" to-port="0"/>
		<edge from-layer="1624" from-port="2" to-layer="1626" to-port="0"/>
		<edge from-layer="1624" from-port="2" to-layer="1869" to-port="1"/>
		<edge from-layer="1625" from-port="0" to-layer="1626" to-port="1"/>
		<edge from-layer="1626" from-port="2" to-layer="1628" to-port="0"/>
		<edge from-layer="1627" from-port="0" to-layer="1628" to-port="1"/>
		<edge from-layer="1628" from-port="2" to-layer="1643" to-port="0"/>
		<edge from-layer="1628" from-port="2" to-layer="1629" to-port="0"/>
		<edge from-layer="1629" from-port="1" to-layer="1630" to-port="0"/>
		<edge from-layer="1630" from-port="1" to-layer="1632" to-port="0"/>
		<edge from-layer="1631" from-port="0" to-layer="1632" to-port="1"/>
		<edge from-layer="1632" from-port="2" to-layer="1634" to-port="0"/>
		<edge from-layer="1633" from-port="0" to-layer="1634" to-port="1"/>
		<edge from-layer="1634" from-port="2" to-layer="1635" to-port="0"/>
		<edge from-layer="1635" from-port="1" to-layer="1636" to-port="0"/>
		<edge from-layer="1636" from-port="1" to-layer="1640" to-port="0"/>
		<edge from-layer="1637" from-port="0" to-layer="1640" to-port="1"/>
		<edge from-layer="1638" from-port="0" to-layer="1640" to-port="2"/>
		<edge from-layer="1639" from-port="0" to-layer="1640" to-port="3"/>
		<edge from-layer="1640" from-port="4" to-layer="1643" to-port="1"/>
		<edge from-layer="1641" from-port="0" to-layer="1643" to-port="2"/>
		<edge from-layer="1642" from-port="0" to-layer="1643" to-port="3"/>
		<edge from-layer="1643" from-port="4" to-layer="1644" to-port="1"/>
		<edge from-layer="1644" from-port="2" to-layer="1764" to-port="0"/>
		<edge from-layer="1645" from-port="1" to-layer="1649" to-port="0"/>
		<edge from-layer="1646" from-port="0" to-layer="1649" to-port="1"/>
		<edge from-layer="1647" from-port="0" to-layer="1649" to-port="2"/>
		<edge from-layer="1648" from-port="0" to-layer="1649" to-port="3"/>
		<edge from-layer="1649" from-port="4" to-layer="1663" to-port="0"/>
		<edge from-layer="1650" from-port="1" to-layer="1653" to-port="0"/>
		<edge from-layer="1651" from-port="0" to-layer="1653" to-port="1"/>
		<edge from-layer="1652" from-port="0" to-layer="1653" to-port="2"/>
		<edge from-layer="1653" from-port="3" to-layer="1655" to-port="0"/>
		<edge from-layer="1654" from-port="0" to-layer="1655" to-port="1"/>
		<edge from-layer="1655" from-port="2" to-layer="1662" to-port="0"/>
		<edge from-layer="1656" from-port="1" to-layer="1659" to-port="0"/>
		<edge from-layer="1657" from-port="0" to-layer="1659" to-port="1"/>
		<edge from-layer="1658" from-port="0" to-layer="1659" to-port="2"/>
		<edge from-layer="1659" from-port="3" to-layer="1661" to-port="0"/>
		<edge from-layer="1660" from-port="0" to-layer="1661" to-port="1"/>
		<edge from-layer="1661" from-port="2" to-layer="1662" to-port="1"/>
		<edge from-layer="1662" from-port="2" to-layer="1663" to-port="1"/>
		<edge from-layer="1663" from-port="2" to-layer="1668" to-port="0"/>
		<edge from-layer="1663" from-port="2" to-layer="1667" to-port="0"/>
		<edge from-layer="1664" from-port="0" to-layer="1667" to-port="1"/>
		<edge from-layer="1665" from-port="0" to-layer="1667" to-port="2"/>
		<edge from-layer="1666" from-port="0" to-layer="1667" to-port="3"/>
		<edge from-layer="1667" from-port="4" to-layer="1679" to-port="1"/>
		<edge from-layer="1668" from-port="1" to-layer="1671" to-port="0"/>
		<edge from-layer="1669" from-port="1" to-layer="1670" to-port="0"/>
		<edge from-layer="1670" from-port="1" to-layer="1671" to-port="1"/>
		<edge from-layer="1671" from-port="2" to-layer="1673" to-port="0"/>
		<edge from-layer="1672" from-port="0" to-layer="1673" to-port="1"/>
		<edge from-layer="1673" from-port="2" to-layer="1677" to-port="0"/>
		<edge from-layer="1674" from-port="0" to-layer="1677" to-port="1"/>
		<edge from-layer="1675" from-port="0" to-layer="1677" to-port="2"/>
		<edge from-layer="1676" from-port="0" to-layer="1677" to-port="3"/>
		<edge from-layer="1677" from-port="4" to-layer="1679" to-port="2"/>
		<edge from-layer="1678" from-port="0" to-layer="1679" to-port="3"/>
		<edge from-layer="1679" from-port="4" to-layer="1680" to-port="1"/>
		<edge from-layer="1680" from-port="2" to-layer="1682" to-port="0"/>
		<edge from-layer="1681" from-port="0" to-layer="1682" to-port="1"/>
		<edge from-layer="1682" from-port="2" to-layer="1684" to-port="0"/>
		<edge from-layer="1683" from-port="0" to-layer="1684" to-port="1"/>
		<edge from-layer="1684" from-port="2" to-layer="1686" to-port="0"/>
		<edge from-layer="1684" from-port="2" to-layer="1692" to-port="0"/>
		<edge from-layer="1684" from-port="2" to-layer="1703" to-port="0"/>
		<edge from-layer="1685" from-port="0" to-layer="1691" to-port="0"/>
		<edge from-layer="1686" from-port="1" to-layer="1687" to-port="0"/>
		<edge from-layer="1687" from-port="1" to-layer="1689" to-port="0"/>
		<edge from-layer="1688" from-port="0" to-layer="1689" to-port="1"/>
		<edge from-layer="1689" from-port="2" to-layer="1691" to-port="1"/>
		<edge from-layer="1690" from-port="0" to-layer="1691" to-port="2"/>
		<edge from-layer="1691" from-port="3" to-layer="1692" to-port="1"/>
		<edge from-layer="1692" from-port="2" to-layer="1694" to-port="0"/>
		<edge from-layer="1693" from-port="0" to-layer="1694" to-port="1"/>
		<edge from-layer="1694" from-port="2" to-layer="1696" to-port="0"/>
		<edge from-layer="1695" from-port="0" to-layer="1696" to-port="1"/>
		<edge from-layer="1696" from-port="2" to-layer="1697" to-port="0"/>
		<edge from-layer="1697" from-port="1" to-layer="1699" to-port="0"/>
		<edge from-layer="1698" from-port="0" to-layer="1699" to-port="1"/>
		<edge from-layer="1699" from-port="2" to-layer="1701" to-port="0"/>
		<edge from-layer="1700" from-port="0" to-layer="1701" to-port="1"/>
		<edge from-layer="1701" from-port="2" to-layer="1702" to-port="0"/>
		<edge from-layer="1702" from-port="1" to-layer="1703" to-port="1"/>
		<edge from-layer="1703" from-port="2" to-layer="1704" to-port="1"/>
		<edge from-layer="1704" from-port="2" to-layer="1726" to-port="0"/>
		<edge from-layer="1704" from-port="2" to-layer="1705" to-port="0"/>
		<edge from-layer="1704" from-port="2" to-layer="1733" to-port="0"/>
		<edge from-layer="1704" from-port="2" to-layer="1720" to-port="0"/>
		<edge from-layer="1704" from-port="2" to-layer="1712" to-port="0"/>
		<edge from-layer="1705" from-port="1" to-layer="1708" to-port="0"/>
		<edge from-layer="1706" from-port="0" to-layer="1708" to-port="1"/>
		<edge from-layer="1707" from-port="0" to-layer="1708" to-port="2"/>
		<edge from-layer="1708" from-port="3" to-layer="1710" to-port="0"/>
		<edge from-layer="1708" from-port="3" to-layer="1737" to-port="0"/>
		<edge from-layer="1709" from-port="0" to-layer="1710" to-port="1"/>
		<edge from-layer="1710" from-port="2" to-layer="1732" to-port="0"/>
		<edge from-layer="1711" from-port="0" to-layer="1732" to-port="1"/>
		<edge from-layer="1712" from-port="1" to-layer="1715" to-port="0"/>
		<edge from-layer="1713" from-port="0" to-layer="1715" to-port="1"/>
		<edge from-layer="1714" from-port="0" to-layer="1715" to-port="2"/>
		<edge from-layer="1715" from-port="3" to-layer="1717" to-port="0"/>
		<edge from-layer="1716" from-port="0" to-layer="1717" to-port="1"/>
		<edge from-layer="1717" from-port="2" to-layer="1719" to-port="0"/>
		<edge from-layer="1718" from-port="0" to-layer="1719" to-port="1"/>
		<edge from-layer="1719" from-port="2" to-layer="1732" to-port="2"/>
		<edge from-layer="1720" from-port="1" to-layer="1723" to-port="0"/>
		<edge from-layer="1721" from-port="0" to-layer="1723" to-port="1"/>
		<edge from-layer="1722" from-port="0" to-layer="1723" to-port="2"/>
		<edge from-layer="1723" from-port="3" to-layer="1740" to-port="0"/>
		<edge from-layer="1723" from-port="3" to-layer="1725" to-port="0"/>
		<edge from-layer="1724" from-port="0" to-layer="1725" to-port="1"/>
		<edge from-layer="1725" from-port="2" to-layer="1732" to-port="3"/>
		<edge from-layer="1726" from-port="1" to-layer="1729" to-port="0"/>
		<edge from-layer="1727" from-port="0" to-layer="1729" to-port="1"/>
		<edge from-layer="1728" from-port="0" to-layer="1729" to-port="2"/>
		<edge from-layer="1729" from-port="3" to-layer="1731" to-port="0"/>
		<edge from-layer="1729" from-port="3" to-layer="1742" to-port="0"/>
		<edge from-layer="1730" from-port="0" to-layer="1731" to-port="1"/>
		<edge from-layer="1731" from-port="2" to-layer="1732" to-port="4"/>
		<edge from-layer="1732" from-port="5" to-layer="1733" to-port="1"/>
		<edge from-layer="1733" from-port="2" to-layer="1735" to-port="0"/>
		<edge from-layer="1734" from-port="0" to-layer="1735" to-port="1"/>
		<edge from-layer="1735" from-port="2" to-layer="1744" to-port="0"/>
		<edge from-layer="1736" from-port="0" to-layer="1737" to-port="1"/>
		<edge from-layer="1737" from-port="2" to-layer="1743" to-port="0"/>
		<edge from-layer="1738" from-port="0" to-layer="1743" to-port="1"/>
		<edge from-layer="1739" from-port="0" to-layer="1740" to-port="1"/>
		<edge from-layer="1740" from-port="2" to-layer="1743" to-port="2"/>
		<edge from-layer="1741" from-port="0" to-layer="1742" to-port="1"/>
		<edge from-layer="1742" from-port="2" to-layer="1743" to-port="3"/>
		<edge from-layer="1743" from-port="4" to-layer="1744" to-port="1"/>
		<edge from-layer="1744" from-port="2" to-layer="1805" to-port="0"/>
		<edge from-layer="1744" from-port="2" to-layer="1746" to-port="0"/>
		<edge from-layer="1744" from-port="2" to-layer="1971" to-port="1"/>
		<edge from-layer="1744" from-port="2" to-layer="1871" to-port="0"/>
		<edge from-layer="1745" from-port="0" to-layer="1746" to-port="1"/>
		<edge from-layer="1746" from-port="2" to-layer="1748" to-port="0"/>
		<edge from-layer="1747" from-port="0" to-layer="1748" to-port="1"/>
		<edge from-layer="1748" from-port="2" to-layer="1763" to-port="0"/>
		<edge from-layer="1748" from-port="2" to-layer="1749" to-port="0"/>
		<edge from-layer="1749" from-port="1" to-layer="1750" to-port="0"/>
		<edge from-layer="1750" from-port="1" to-layer="1752" to-port="0"/>
		<edge from-layer="1751" from-port="0" to-layer="1752" to-port="1"/>
		<edge from-layer="1752" from-port="2" to-layer="1754" to-port="0"/>
		<edge from-layer="1753" from-port="0" to-layer="1754" to-port="1"/>
		<edge from-layer="1754" from-port="2" to-layer="1755" to-port="0"/>
		<edge from-layer="1755" from-port="1" to-layer="1756" to-port="0"/>
		<edge from-layer="1756" from-port="1" to-layer="1760" to-port="0"/>
		<edge from-layer="1757" from-port="0" to-layer="1760" to-port="1"/>
		<edge from-layer="1758" from-port="0" to-layer="1760" to-port="2"/>
		<edge from-layer="1759" from-port="0" to-layer="1760" to-port="3"/>
		<edge from-layer="1760" from-port="4" to-layer="1763" to-port="1"/>
		<edge from-layer="1761" from-port="0" to-layer="1763" to-port="2"/>
		<edge from-layer="1762" from-port="0" to-layer="1763" to-port="3"/>
		<edge from-layer="1763" from-port="4" to-layer="1764" to-port="1"/>
		<edge from-layer="1764" from-port="2" to-layer="1843" to-port="0"/>
		<edge from-layer="1764" from-port="2" to-layer="1826" to-port="0"/>
		<edge from-layer="1764" from-port="2" to-layer="1918" to-port="0"/>
		<edge from-layer="1764" from-port="2" to-layer="1892" to-port="0"/>
		<edge from-layer="1764" from-port="2" to-layer="1775" to-port="0"/>
		<edge from-layer="1764" from-port="2" to-layer="1765" to-port="0"/>
		<edge from-layer="1764" from-port="2" to-layer="1767" to-port="0"/>
		<edge from-layer="1765" from-port="1" to-layer="2080" to-port="0"/>
		<edge from-layer="1765" from-port="1" to-layer="2086" to-port="0"/>
		<edge from-layer="1765" from-port="1" to-layer="2110" to-port="0"/>
		<edge from-layer="1766" from-port="0" to-layer="1767" to-port="1"/>
		<edge from-layer="1767" from-port="2" to-layer="1769" to-port="0"/>
		<edge from-layer="1768" from-port="0" to-layer="1769" to-port="1"/>
		<edge from-layer="1769" from-port="2" to-layer="1771" to-port="0"/>
		<edge from-layer="1770" from-port="0" to-layer="1771" to-port="1"/>
		<edge from-layer="1771" from-port="2" to-layer="1773" to-port="0"/>
		<edge from-layer="1772" from-port="0" to-layer="1773" to-port="1"/>
		<edge from-layer="1773" from-port="2" to-layer="1782" to-port="0"/>
		<edge from-layer="1774" from-port="0" to-layer="1775" to-port="1"/>
		<edge from-layer="1775" from-port="2" to-layer="1777" to-port="0"/>
		<edge from-layer="1776" from-port="0" to-layer="1777" to-port="1"/>
		<edge from-layer="1777" from-port="2" to-layer="1779" to-port="0"/>
		<edge from-layer="1778" from-port="0" to-layer="1779" to-port="1"/>
		<edge from-layer="1779" from-port="2" to-layer="1781" to-port="0"/>
		<edge from-layer="1780" from-port="0" to-layer="1781" to-port="1"/>
		<edge from-layer="1781" from-port="2" to-layer="1782" to-port="1"/>
		<edge from-layer="1782" from-port="2" to-layer="1783" to-port="0"/>
		<edge from-layer="1783" from-port="2" to-layer="1803" to-port="0"/>
		<edge from-layer="1784" from-port="0" to-layer="1785" to-port="1"/>
		<edge from-layer="1785" from-port="2" to-layer="1787" to-port="0"/>
		<edge from-layer="1786" from-port="0" to-layer="1787" to-port="1"/>
		<edge from-layer="1787" from-port="2" to-layer="1802" to-port="0"/>
		<edge from-layer="1787" from-port="2" to-layer="1788" to-port="0"/>
		<edge from-layer="1788" from-port="1" to-layer="1789" to-port="0"/>
		<edge from-layer="1789" from-port="1" to-layer="1791" to-port="0"/>
		<edge from-layer="1790" from-port="0" to-layer="1791" to-port="1"/>
		<edge from-layer="1791" from-port="2" to-layer="1793" to-port="0"/>
		<edge from-layer="1792" from-port="0" to-layer="1793" to-port="1"/>
		<edge from-layer="1793" from-port="2" to-layer="1794" to-port="0"/>
		<edge from-layer="1794" from-port="1" to-layer="1795" to-port="0"/>
		<edge from-layer="1795" from-port="1" to-layer="1799" to-port="0"/>
		<edge from-layer="1796" from-port="0" to-layer="1799" to-port="1"/>
		<edge from-layer="1797" from-port="0" to-layer="1799" to-port="2"/>
		<edge from-layer="1798" from-port="0" to-layer="1799" to-port="3"/>
		<edge from-layer="1799" from-port="4" to-layer="1802" to-port="1"/>
		<edge from-layer="1800" from-port="0" to-layer="1802" to-port="2"/>
		<edge from-layer="1801" from-port="0" to-layer="1802" to-port="3"/>
		<edge from-layer="1802" from-port="4" to-layer="1803" to-port="1"/>
		<edge from-layer="1803" from-port="2" to-layer="1823" to-port="0"/>
		<edge from-layer="1804" from-port="0" to-layer="1805" to-port="1"/>
		<edge from-layer="1805" from-port="2" to-layer="1807" to-port="0"/>
		<edge from-layer="1806" from-port="0" to-layer="1807" to-port="1"/>
		<edge from-layer="1807" from-port="2" to-layer="1822" to-port="0"/>
		<edge from-layer="1807" from-port="2" to-layer="1808" to-port="0"/>
		<edge from-layer="1808" from-port="1" to-layer="1809" to-port="0"/>
		<edge from-layer="1809" from-port="1" to-layer="1811" to-port="0"/>
		<edge from-layer="1810" from-port="0" to-layer="1811" to-port="1"/>
		<edge from-layer="1811" from-port="2" to-layer="1813" to-port="0"/>
		<edge from-layer="1812" from-port="0" to-layer="1813" to-port="1"/>
		<edge from-layer="1813" from-port="2" to-layer="1814" to-port="0"/>
		<edge from-layer="1814" from-port="1" to-layer="1815" to-port="0"/>
		<edge from-layer="1815" from-port="1" to-layer="1819" to-port="0"/>
		<edge from-layer="1816" from-port="0" to-layer="1819" to-port="1"/>
		<edge from-layer="1817" from-port="0" to-layer="1819" to-port="2"/>
		<edge from-layer="1818" from-port="0" to-layer="1819" to-port="3"/>
		<edge from-layer="1819" from-port="4" to-layer="1822" to-port="1"/>
		<edge from-layer="1820" from-port="0" to-layer="1822" to-port="2"/>
		<edge from-layer="1821" from-port="0" to-layer="1822" to-port="3"/>
		<edge from-layer="1822" from-port="4" to-layer="1823" to-port="1"/>
		<edge from-layer="1823" from-port="2" to-layer="1824" to-port="0"/>
		<edge from-layer="1824" from-port="1" to-layer="2034" to-port="0"/>
		<edge from-layer="1824" from-port="1" to-layer="2040" to-port="0"/>
		<edge from-layer="1824" from-port="1" to-layer="2064" to-port="0"/>
		<edge from-layer="1825" from-port="0" to-layer="1826" to-port="1"/>
		<edge from-layer="1826" from-port="2" to-layer="1828" to-port="0"/>
		<edge from-layer="1827" from-port="0" to-layer="1828" to-port="1"/>
		<edge from-layer="1828" from-port="2" to-layer="1830" to-port="0"/>
		<edge from-layer="1829" from-port="0" to-layer="1830" to-port="1"/>
		<edge from-layer="1830" from-port="2" to-layer="1832" to-port="0"/>
		<edge from-layer="1831" from-port="0" to-layer="1832" to-port="1"/>
		<edge from-layer="1832" from-port="2" to-layer="1833" to-port="0"/>
		<edge from-layer="1833" from-port="1" to-layer="1835" to-port="0"/>
		<edge from-layer="1834" from-port="0" to-layer="1835" to-port="1"/>
		<edge from-layer="1835" from-port="2" to-layer="1837" to-port="0"/>
		<edge from-layer="1836" from-port="0" to-layer="1837" to-port="1"/>
		<edge from-layer="1837" from-port="2" to-layer="1839" to-port="0"/>
		<edge from-layer="1838" from-port="0" to-layer="1839" to-port="1"/>
		<edge from-layer="1839" from-port="2" to-layer="1841" to-port="0"/>
		<edge from-layer="1840" from-port="0" to-layer="1841" to-port="1"/>
		<edge from-layer="1841" from-port="2" to-layer="1859" to-port="0"/>
		<edge from-layer="1842" from-port="0" to-layer="1843" to-port="1"/>
		<edge from-layer="1843" from-port="2" to-layer="1845" to-port="0"/>
		<edge from-layer="1844" from-port="0" to-layer="1845" to-port="1"/>
		<edge from-layer="1845" from-port="2" to-layer="1847" to-port="0"/>
		<edge from-layer="1846" from-port="0" to-layer="1847" to-port="1"/>
		<edge from-layer="1847" from-port="2" to-layer="1849" to-port="0"/>
		<edge from-layer="1848" from-port="0" to-layer="1849" to-port="1"/>
		<edge from-layer="1849" from-port="2" to-layer="1850" to-port="0"/>
		<edge from-layer="1850" from-port="1" to-layer="1852" to-port="0"/>
		<edge from-layer="1851" from-port="0" to-layer="1852" to-port="1"/>
		<edge from-layer="1852" from-port="2" to-layer="1854" to-port="0"/>
		<edge from-layer="1853" from-port="0" to-layer="1854" to-port="1"/>
		<edge from-layer="1854" from-port="2" to-layer="1856" to-port="0"/>
		<edge from-layer="1855" from-port="0" to-layer="1856" to-port="1"/>
		<edge from-layer="1856" from-port="2" to-layer="1858" to-port="0"/>
		<edge from-layer="1857" from-port="0" to-layer="1858" to-port="1"/>
		<edge from-layer="1858" from-port="2" to-layer="1859" to-port="1"/>
		<edge from-layer="1859" from-port="2" to-layer="1868" to-port="0"/>
		<edge from-layer="1860" from-port="0" to-layer="1861" to-port="1"/>
		<edge from-layer="1861" from-port="2" to-layer="1863" to-port="0"/>
		<edge from-layer="1862" from-port="0" to-layer="1863" to-port="1"/>
		<edge from-layer="1863" from-port="2" to-layer="1865" to-port="0"/>
		<edge from-layer="1864" from-port="0" to-layer="1865" to-port="1"/>
		<edge from-layer="1865" from-port="2" to-layer="1867" to-port="0"/>
		<edge from-layer="1866" from-port="0" to-layer="1867" to-port="1"/>
		<edge from-layer="1867" from-port="2" to-layer="1868" to-port="1"/>
		<edge from-layer="1868" from-port="2" to-layer="1869" to-port="0"/>
		<edge from-layer="1869" from-port="2" to-layer="1889" to-port="0"/>
		<edge from-layer="1870" from-port="0" to-layer="1871" to-port="1"/>
		<edge from-layer="1871" from-port="2" to-layer="1873" to-port="0"/>
		<edge from-layer="1872" from-port="0" to-layer="1873" to-port="1"/>
		<edge from-layer="1873" from-port="2" to-layer="1874" to-port="0"/>
		<edge from-layer="1873" from-port="2" to-layer="1888" to-port="0"/>
		<edge from-layer="1874" from-port="1" to-layer="1875" to-port="0"/>
		<edge from-layer="1875" from-port="1" to-layer="1877" to-port="0"/>
		<edge from-layer="1876" from-port="0" to-layer="1877" to-port="1"/>
		<edge from-layer="1877" from-port="2" to-layer="1879" to-port="0"/>
		<edge from-layer="1878" from-port="0" to-layer="1879" to-port="1"/>
		<edge from-layer="1879" from-port="2" to-layer="1880" to-port="0"/>
		<edge from-layer="1880" from-port="1" to-layer="1881" to-port="0"/>
		<edge from-layer="1881" from-port="1" to-layer="1885" to-port="0"/>
		<edge from-layer="1882" from-port="0" to-layer="1885" to-port="1"/>
		<edge from-layer="1883" from-port="0" to-layer="1885" to-port="2"/>
		<edge from-layer="1884" from-port="0" to-layer="1885" to-port="3"/>
		<edge from-layer="1885" from-port="4" to-layer="1888" to-port="1"/>
		<edge from-layer="1886" from-port="0" to-layer="1888" to-port="2"/>
		<edge from-layer="1887" from-port="0" to-layer="1888" to-port="3"/>
		<edge from-layer="1888" from-port="4" to-layer="1889" to-port="1"/>
		<edge from-layer="1889" from-port="2" to-layer="1890" to-port="0"/>
		<edge from-layer="1890" from-port="1" to-layer="2018" to-port="0"/>
		<edge from-layer="1890" from-port="1" to-layer="1994" to-port="0"/>
		<edge from-layer="1890" from-port="1" to-layer="1988" to-port="0"/>
		<edge from-layer="1891" from-port="0" to-layer="1892" to-port="1"/>
		<edge from-layer="1892" from-port="2" to-layer="1894" to-port="0"/>
		<edge from-layer="1893" from-port="0" to-layer="1894" to-port="1"/>
		<edge from-layer="1894" from-port="2" to-layer="1896" to-port="0"/>
		<edge from-layer="1895" from-port="0" to-layer="1896" to-port="1"/>
		<edge from-layer="1896" from-port="2" to-layer="1898" to-port="0"/>
		<edge from-layer="1897" from-port="0" to-layer="1898" to-port="1"/>
		<edge from-layer="1898" from-port="2" to-layer="1899" to-port="0"/>
		<edge from-layer="1899" from-port="1" to-layer="1901" to-port="0"/>
		<edge from-layer="1900" from-port="0" to-layer="1901" to-port="1"/>
		<edge from-layer="1901" from-port="2" to-layer="1903" to-port="0"/>
		<edge from-layer="1902" from-port="0" to-layer="1903" to-port="1"/>
		<edge from-layer="1903" from-port="2" to-layer="1905" to-port="0"/>
		<edge from-layer="1904" from-port="0" to-layer="1905" to-port="1"/>
		<edge from-layer="1905" from-port="2" to-layer="1907" to-port="0"/>
		<edge from-layer="1906" from-port="0" to-layer="1907" to-port="1"/>
		<edge from-layer="1907" from-port="2" to-layer="1908" to-port="0"/>
		<edge from-layer="1908" from-port="1" to-layer="1910" to-port="0"/>
		<edge from-layer="1909" from-port="0" to-layer="1910" to-port="1"/>
		<edge from-layer="1910" from-port="2" to-layer="1912" to-port="0"/>
		<edge from-layer="1911" from-port="0" to-layer="1912" to-port="1"/>
		<edge from-layer="1912" from-port="2" to-layer="1914" to-port="0"/>
		<edge from-layer="1913" from-port="0" to-layer="1914" to-port="1"/>
		<edge from-layer="1914" from-port="2" to-layer="1916" to-port="0"/>
		<edge from-layer="1915" from-port="0" to-layer="1916" to-port="1"/>
		<edge from-layer="1916" from-port="2" to-layer="1943" to-port="0"/>
		<edge from-layer="1917" from-port="0" to-layer="1918" to-port="1"/>
		<edge from-layer="1918" from-port="2" to-layer="1920" to-port="0"/>
		<edge from-layer="1919" from-port="0" to-layer="1920" to-port="1"/>
		<edge from-layer="1920" from-port="2" to-layer="1922" to-port="0"/>
		<edge from-layer="1921" from-port="0" to-layer="1922" to-port="1"/>
		<edge from-layer="1922" from-port="2" to-layer="1924" to-port="0"/>
		<edge from-layer="1923" from-port="0" to-layer="1924" to-port="1"/>
		<edge from-layer="1924" from-port="2" to-layer="1925" to-port="0"/>
		<edge from-layer="1925" from-port="1" to-layer="1927" to-port="0"/>
		<edge from-layer="1926" from-port="0" to-layer="1927" to-port="1"/>
		<edge from-layer="1927" from-port="2" to-layer="1929" to-port="0"/>
		<edge from-layer="1928" from-port="0" to-layer="1929" to-port="1"/>
		<edge from-layer="1929" from-port="2" to-layer="1931" to-port="0"/>
		<edge from-layer="1930" from-port="0" to-layer="1931" to-port="1"/>
		<edge from-layer="1931" from-port="2" to-layer="1933" to-port="0"/>
		<edge from-layer="1932" from-port="0" to-layer="1933" to-port="1"/>
		<edge from-layer="1933" from-port="2" to-layer="1934" to-port="0"/>
		<edge from-layer="1934" from-port="1" to-layer="1936" to-port="0"/>
		<edge from-layer="1935" from-port="0" to-layer="1936" to-port="1"/>
		<edge from-layer="1936" from-port="2" to-layer="1938" to-port="0"/>
		<edge from-layer="1937" from-port="0" to-layer="1938" to-port="1"/>
		<edge from-layer="1938" from-port="2" to-layer="1940" to-port="0"/>
		<edge from-layer="1939" from-port="0" to-layer="1940" to-port="1"/>
		<edge from-layer="1940" from-port="2" to-layer="1942" to-port="0"/>
		<edge from-layer="1941" from-port="0" to-layer="1942" to-port="1"/>
		<edge from-layer="1942" from-port="2" to-layer="1943" to-port="1"/>
		<edge from-layer="1943" from-port="2" to-layer="1961" to-port="0"/>
		<edge from-layer="1944" from-port="0" to-layer="1945" to-port="1"/>
		<edge from-layer="1945" from-port="2" to-layer="1947" to-port="0"/>
		<edge from-layer="1946" from-port="0" to-layer="1947" to-port="1"/>
		<edge from-layer="1947" from-port="2" to-layer="1949" to-port="0"/>
		<edge from-layer="1948" from-port="0" to-layer="1949" to-port="1"/>
		<edge from-layer="1949" from-port="2" to-layer="1951" to-port="0"/>
		<edge from-layer="1950" from-port="0" to-layer="1951" to-port="1"/>
		<edge from-layer="1951" from-port="2" to-layer="1952" to-port="0"/>
		<edge from-layer="1952" from-port="1" to-layer="1954" to-port="0"/>
		<edge from-layer="1953" from-port="0" to-layer="1954" to-port="1"/>
		<edge from-layer="1954" from-port="2" to-layer="1956" to-port="0"/>
		<edge from-layer="1955" from-port="0" to-layer="1956" to-port="1"/>
		<edge from-layer="1956" from-port="2" to-layer="1958" to-port="0"/>
		<edge from-layer="1957" from-port="0" to-layer="1958" to-port="1"/>
		<edge from-layer="1958" from-port="2" to-layer="1960" to-port="0"/>
		<edge from-layer="1959" from-port="0" to-layer="1960" to-port="1"/>
		<edge from-layer="1960" from-port="2" to-layer="1961" to-port="1"/>
		<edge from-layer="1961" from-port="2" to-layer="1970" to-port="0"/>
		<edge from-layer="1962" from-port="0" to-layer="1963" to-port="1"/>
		<edge from-layer="1963" from-port="2" to-layer="1965" to-port="0"/>
		<edge from-layer="1964" from-port="0" to-layer="1965" to-port="1"/>
		<edge from-layer="1965" from-port="2" to-layer="1967" to-port="0"/>
		<edge from-layer="1966" from-port="0" to-layer="1967" to-port="1"/>
		<edge from-layer="1967" from-port="2" to-layer="1969" to-port="0"/>
		<edge from-layer="1968" from-port="0" to-layer="1969" to-port="1"/>
		<edge from-layer="1969" from-port="2" to-layer="1970" to-port="1"/>
		<edge from-layer="1970" from-port="2" to-layer="1971" to-port="0"/>
		<edge from-layer="1971" from-port="2" to-layer="1972" to-port="0"/>
		<edge from-layer="1972" from-port="1" to-layer="1974" to-port="0"/>
		<edge from-layer="1973" from-port="0" to-layer="1974" to-port="1"/>
		<edge from-layer="1974" from-port="2" to-layer="1976" to-port="0"/>
		<edge from-layer="1975" from-port="0" to-layer="1976" to-port="1"/>
		<edge from-layer="1976" from-port="2" to-layer="1977" to-port="0"/>
		<edge from-layer="1977" from-port="1" to-layer="1979" to-port="0"/>
		<edge from-layer="1978" from-port="0" to-layer="1979" to-port="1"/>
		<edge from-layer="1979" from-port="2" to-layer="1981" to-port="0"/>
		<edge from-layer="1980" from-port="0" to-layer="1981" to-port="1"/>
		<edge from-layer="1981" from-port="2" to-layer="1982" to-port="0"/>
		<edge from-layer="1982" from-port="1" to-layer="2007" to-port="0"/>
		<edge from-layer="1982" from-port="1" to-layer="2017" to-port="0"/>
		<edge from-layer="1982" from-port="1" to-layer="1983" to-port="0"/>
		<edge from-layer="1983" from-port="1" to-layer="1987" to-port="0"/>
		<edge from-layer="1984" from-port="0" to-layer="1987" to-port="1"/>
		<edge from-layer="1985" from-port="0" to-layer="1987" to-port="2"/>
		<edge from-layer="1986" from-port="0" to-layer="1987" to-port="3"/>
		<edge from-layer="1987" from-port="4" to-layer="2001" to-port="0"/>
		<edge from-layer="1988" from-port="1" to-layer="1991" to-port="0"/>
		<edge from-layer="1989" from-port="0" to-layer="1991" to-port="1"/>
		<edge from-layer="1990" from-port="0" to-layer="1991" to-port="2"/>
		<edge from-layer="1991" from-port="3" to-layer="1993" to-port="0"/>
		<edge from-layer="1992" from-port="0" to-layer="1993" to-port="1"/>
		<edge from-layer="1993" from-port="2" to-layer="2000" to-port="0"/>
		<edge from-layer="1994" from-port="1" to-layer="1997" to-port="0"/>
		<edge from-layer="1995" from-port="0" to-layer="1997" to-port="1"/>
		<edge from-layer="1996" from-port="0" to-layer="1997" to-port="2"/>
		<edge from-layer="1997" from-port="3" to-layer="1999" to-port="0"/>
		<edge from-layer="1998" from-port="0" to-layer="1999" to-port="1"/>
		<edge from-layer="1999" from-port="2" to-layer="2000" to-port="1"/>
		<edge from-layer="2000" from-port="2" to-layer="2001" to-port="1"/>
		<edge from-layer="2001" from-port="2" to-layer="2005" to-port="0"/>
		<edge from-layer="2001" from-port="2" to-layer="2006" to-port="0"/>
		<edge from-layer="2002" from-port="0" to-layer="2005" to-port="1"/>
		<edge from-layer="2003" from-port="0" to-layer="2005" to-port="2"/>
		<edge from-layer="2004" from-port="0" to-layer="2005" to-port="3"/>
		<edge from-layer="2005" from-port="4" to-layer="2017" to-port="1"/>
		<edge from-layer="2006" from-port="1" to-layer="2009" to-port="0"/>
		<edge from-layer="2007" from-port="1" to-layer="2008" to-port="0"/>
		<edge from-layer="2008" from-port="1" to-layer="2009" to-port="1"/>
		<edge from-layer="2009" from-port="2" to-layer="2011" to-port="0"/>
		<edge from-layer="2010" from-port="0" to-layer="2011" to-port="1"/>
		<edge from-layer="2011" from-port="2" to-layer="2015" to-port="0"/>
		<edge from-layer="2012" from-port="0" to-layer="2015" to-port="1"/>
		<edge from-layer="2013" from-port="0" to-layer="2015" to-port="2"/>
		<edge from-layer="2014" from-port="0" to-layer="2015" to-port="3"/>
		<edge from-layer="2015" from-port="4" to-layer="2017" to-port="2"/>
		<edge from-layer="2016" from-port="0" to-layer="2017" to-port="3"/>
		<edge from-layer="2017" from-port="4" to-layer="2018" to-port="1"/>
		<edge from-layer="2018" from-port="2" to-layer="2020" to-port="0"/>
		<edge from-layer="2019" from-port="0" to-layer="2020" to-port="1"/>
		<edge from-layer="2020" from-port="2" to-layer="2022" to-port="0"/>
		<edge from-layer="2021" from-port="0" to-layer="2022" to-port="1"/>
		<edge from-layer="2022" from-port="2" to-layer="2023" to-port="0"/>
		<edge from-layer="2023" from-port="1" to-layer="2025" to-port="0"/>
		<edge from-layer="2024" from-port="0" to-layer="2025" to-port="1"/>
		<edge from-layer="2025" from-port="2" to-layer="2027" to-port="0"/>
		<edge from-layer="2026" from-port="0" to-layer="2027" to-port="1"/>
		<edge from-layer="2027" from-port="2" to-layer="2028" to-port="0"/>
		<edge from-layer="2028" from-port="1" to-layer="2053" to-port="0"/>
		<edge from-layer="2028" from-port="1" to-layer="2063" to-port="0"/>
		<edge from-layer="2028" from-port="1" to-layer="2029" to-port="0"/>
		<edge from-layer="2029" from-port="1" to-layer="2033" to-port="0"/>
		<edge from-layer="2030" from-port="0" to-layer="2033" to-port="1"/>
		<edge from-layer="2031" from-port="0" to-layer="2033" to-port="2"/>
		<edge from-layer="2032" from-port="0" to-layer="2033" to-port="3"/>
		<edge from-layer="2033" from-port="4" to-layer="2047" to-port="0"/>
		<edge from-layer="2034" from-port="1" to-layer="2037" to-port="0"/>
		<edge from-layer="2035" from-port="0" to-layer="2037" to-port="1"/>
		<edge from-layer="2036" from-port="0" to-layer="2037" to-port="2"/>
		<edge from-layer="2037" from-port="3" to-layer="2039" to-port="0"/>
		<edge from-layer="2038" from-port="0" to-layer="2039" to-port="1"/>
		<edge from-layer="2039" from-port="2" to-layer="2046" to-port="0"/>
		<edge from-layer="2040" from-port="1" to-layer="2043" to-port="0"/>
		<edge from-layer="2041" from-port="0" to-layer="2043" to-port="1"/>
		<edge from-layer="2042" from-port="0" to-layer="2043" to-port="2"/>
		<edge from-layer="2043" from-port="3" to-layer="2045" to-port="0"/>
		<edge from-layer="2044" from-port="0" to-layer="2045" to-port="1"/>
		<edge from-layer="2045" from-port="2" to-layer="2046" to-port="1"/>
		<edge from-layer="2046" from-port="2" to-layer="2047" to-port="1"/>
		<edge from-layer="2047" from-port="2" to-layer="2052" to-port="0"/>
		<edge from-layer="2047" from-port="2" to-layer="2051" to-port="0"/>
		<edge from-layer="2048" from-port="0" to-layer="2051" to-port="1"/>
		<edge from-layer="2049" from-port="0" to-layer="2051" to-port="2"/>
		<edge from-layer="2050" from-port="0" to-layer="2051" to-port="3"/>
		<edge from-layer="2051" from-port="4" to-layer="2063" to-port="1"/>
		<edge from-layer="2052" from-port="1" to-layer="2055" to-port="0"/>
		<edge from-layer="2053" from-port="1" to-layer="2054" to-port="0"/>
		<edge from-layer="2054" from-port="1" to-layer="2055" to-port="1"/>
		<edge from-layer="2055" from-port="2" to-layer="2057" to-port="0"/>
		<edge from-layer="2056" from-port="0" to-layer="2057" to-port="1"/>
		<edge from-layer="2057" from-port="2" to-layer="2061" to-port="0"/>
		<edge from-layer="2058" from-port="0" to-layer="2061" to-port="1"/>
		<edge from-layer="2059" from-port="0" to-layer="2061" to-port="2"/>
		<edge from-layer="2060" from-port="0" to-layer="2061" to-port="3"/>
		<edge from-layer="2061" from-port="4" to-layer="2063" to-port="2"/>
		<edge from-layer="2062" from-port="0" to-layer="2063" to-port="3"/>
		<edge from-layer="2063" from-port="4" to-layer="2064" to-port="1"/>
		<edge from-layer="2064" from-port="2" to-layer="2066" to-port="0"/>
		<edge from-layer="2065" from-port="0" to-layer="2066" to-port="1"/>
		<edge from-layer="2066" from-port="2" to-layer="2068" to-port="0"/>
		<edge from-layer="2067" from-port="0" to-layer="2068" to-port="1"/>
		<edge from-layer="2068" from-port="2" to-layer="2069" to-port="0"/>
		<edge from-layer="2069" from-port="1" to-layer="2071" to-port="0"/>
		<edge from-layer="2070" from-port="0" to-layer="2071" to-port="1"/>
		<edge from-layer="2071" from-port="2" to-layer="2073" to-port="0"/>
		<edge from-layer="2072" from-port="0" to-layer="2073" to-port="1"/>
		<edge from-layer="2073" from-port="2" to-layer="2074" to-port="0"/>
		<edge from-layer="2074" from-port="1" to-layer="2109" to-port="0"/>
		<edge from-layer="2074" from-port="1" to-layer="2099" to-port="0"/>
		<edge from-layer="2074" from-port="1" to-layer="2075" to-port="0"/>
		<edge from-layer="2075" from-port="1" to-layer="2079" to-port="0"/>
		<edge from-layer="2076" from-port="0" to-layer="2079" to-port="1"/>
		<edge from-layer="2077" from-port="0" to-layer="2079" to-port="2"/>
		<edge from-layer="2078" from-port="0" to-layer="2079" to-port="3"/>
		<edge from-layer="2079" from-port="4" to-layer="2093" to-port="0"/>
		<edge from-layer="2080" from-port="1" to-layer="2083" to-port="0"/>
		<edge from-layer="2081" from-port="0" to-layer="2083" to-port="1"/>
		<edge from-layer="2082" from-port="0" to-layer="2083" to-port="2"/>
		<edge from-layer="2083" from-port="3" to-layer="2085" to-port="0"/>
		<edge from-layer="2084" from-port="0" to-layer="2085" to-port="1"/>
		<edge from-layer="2085" from-port="2" to-layer="2092" to-port="0"/>
		<edge from-layer="2086" from-port="1" to-layer="2089" to-port="0"/>
		<edge from-layer="2087" from-port="0" to-layer="2089" to-port="1"/>
		<edge from-layer="2088" from-port="0" to-layer="2089" to-port="2"/>
		<edge from-layer="2089" from-port="3" to-layer="2091" to-port="0"/>
		<edge from-layer="2090" from-port="0" to-layer="2091" to-port="1"/>
		<edge from-layer="2091" from-port="2" to-layer="2092" to-port="1"/>
		<edge from-layer="2092" from-port="2" to-layer="2093" to-port="1"/>
		<edge from-layer="2093" from-port="2" to-layer="2098" to-port="0"/>
		<edge from-layer="2093" from-port="2" to-layer="2097" to-port="0"/>
		<edge from-layer="2094" from-port="0" to-layer="2097" to-port="1"/>
		<edge from-layer="2095" from-port="0" to-layer="2097" to-port="2"/>
		<edge from-layer="2096" from-port="0" to-layer="2097" to-port="3"/>
		<edge from-layer="2097" from-port="4" to-layer="2109" to-port="1"/>
		<edge from-layer="2098" from-port="1" to-layer="2101" to-port="0"/>
		<edge from-layer="2099" from-port="1" to-layer="2100" to-port="0"/>
		<edge from-layer="2100" from-port="1" to-layer="2101" to-port="1"/>
		<edge from-layer="2101" from-port="2" to-layer="2103" to-port="0"/>
		<edge from-layer="2102" from-port="0" to-layer="2103" to-port="1"/>
		<edge from-layer="2103" from-port="2" to-layer="2107" to-port="0"/>
		<edge from-layer="2104" from-port="0" to-layer="2107" to-port="1"/>
		<edge from-layer="2105" from-port="0" to-layer="2107" to-port="2"/>
		<edge from-layer="2106" from-port="0" to-layer="2107" to-port="3"/>
		<edge from-layer="2107" from-port="4" to-layer="2109" to-port="2"/>
		<edge from-layer="2108" from-port="0" to-layer="2109" to-port="3"/>
		<edge from-layer="2109" from-port="4" to-layer="2110" to-port="1"/>
		<edge from-layer="2110" from-port="2" to-layer="2112" to-port="0"/>
		<edge from-layer="2111" from-port="0" to-layer="2112" to-port="1"/>
		<edge from-layer="2112" from-port="2" to-layer="2114" to-port="0"/>
		<edge from-layer="2113" from-port="0" to-layer="2114" to-port="1"/>
		<edge from-layer="2114" from-port="2" to-layer="2115" to-port="0"/>
		<edge from-layer="2115" from-port="1" to-layer="2117" to-port="0"/>
		<edge from-layer="2116" from-port="0" to-layer="2117" to-port="1"/>
		<edge from-layer="2117" from-port="2" to-layer="2119" to-port="0"/>
		<edge from-layer="2118" from-port="0" to-layer="2119" to-port="1"/>
		<edge from-layer="2119" from-port="2" to-layer="2120" to-port="0"/>
		<edge from-layer="2120" from-port="1" to-layer="2122" to-port="0"/>
		<edge from-layer="2121" from-port="0" to-layer="2122" to-port="1"/>
		<edge from-layer="2122" from-port="2" to-layer="2124" to-port="0"/>
		<edge from-layer="2123" from-port="0" to-layer="2124" to-port="1"/>
		<edge from-layer="2124" from-port="2" to-layer="2125" to-port="0"/>
		<edge from-layer="2125" from-port="1" to-layer="2126" to-port="0"/>
	</edges>
	<meta_data>
		<MO_version value="2021.4.0-3839-cd81789d294-releases/2021/4"/>
		<cli_parameters>
			<caffe_parser_path value="DIR"/>
			<data_type value="FP16"/>
			<disable_nhwc_to_nchw value="False"/>
			<disable_omitting_optional value="False"/>
			<disable_resnet_optimization value="False"/>
			<disable_weights_compression value="False"/>
			<enable_concat_optimization value="False"/>
			<enable_flattening_nested_params value="False"/>
			<enable_ssd_gluoncv value="False"/>
			<extensions value="DIR"/>
			<framework value="onnx"/>
			<freeze_placeholder_with_value value="{}"/>
			<generate_deprecated_IR_V7 value="False"/>
			<input_model value="DIR/switch_keypoint.onnx"/>
			<input_model_is_text value="False"/>
			<k value="DIR/CustomLayersMapping.xml"/>
			<keep_shape_ops value="True"/>
			<legacy_ir_generation value="False"/>
			<legacy_mxnet_model value="False"/>
			<log_level value="ERROR"/>
			<mean_scale_values value="{}"/>
			<mean_values value="()"/>
			<model_name value="/home/xd/184/intel_install/xdai/deeplearn/yolov5s/weights/PHY_small_light_test_power_pubilc/switch_keypoint"/>
			<output value="['output']"/>
			<output_dir value="DIR"/>
			<placeholder_data_types value="{}"/>
			<progress value="False"/>
			<remove_memory value="False"/>
			<remove_output_softmax value="False"/>
			<reverse_input_channels value="True"/>
			<save_params_from_nd value="False"/>
			<scale value="255.0"/>
			<scale_values value="()"/>
			<silent value="False"/>
			<static_shape value="False"/>
			<stream_output value="False"/>
			<transform value=""/>
			<unset unset_cli_parameters="batch, counts, disable_fusing, disable_gfusing, finegrain_fusing, input, input_checkpoint, input_meta_graph, input_proto, input_shape, input_symbol, mean_file, mean_file_offsets, move_to_preprocess, nd_prefix_name, placeholder_shapes, pretrained_model_name, saved_model_dir, saved_model_tags, tensorboard_logdir, tensorflow_custom_layer_libraries, tensorflow_custom_operations_config_update, tensorflow_object_detection_api_pipeline_config, tensorflow_use_custom_operations_config, transformations_config"/>
		</cli_parameters>
	</meta_data>
</net>
