<?xml version="1.0" ?>
<net name="torch-jit-export" version="11">
	<layers>
		<layer id="0" name="inputs" type="Parameter" version="opset1">
			<data shape="1,3,224,224" element_type="f32"/>
			<rt_info>
				<attribute name="fused_names" version="0" value="inputs"/>
				<attribute name="old_api_map_element_type" version="0" value="f16"/>
			</rt_info>
			<output>
				<port id="0" precision="FP32" names="inputs">
					<dim>1</dim>
					<dim>3</dim>
					<dim>224</dim>
					<dim>224</dim>
				</port>
			</output>
		</layer>
		<layer id="1" name="2017_compressed" type="Const" version="opset1">
			<data element_type="f16" shape="32, 3, 3, 3" offset="0" size="1728"/>
			<output>
				<port id="0" precision="FP16">
					<dim>32</dim>
					<dim>3</dim>
					<dim>3</dim>
					<dim>3</dim>
				</port>
			</output>
		</layer>
		<layer id="2" name="2017" type="Convert" version="opset1">
			<data destination_type="f32"/>
			<rt_info>
				<attribute name="decompression" version="0"/>
				<attribute name="fused_names" version="0" value="2017"/>
			</rt_info>
			<input>
				<port id="0" precision="FP16">
					<dim>32</dim>
					<dim>3</dim>
					<dim>3</dim>
					<dim>3</dim>
				</port>
			</input>
			<output>
				<port id="1" precision="FP32" names="2017">
					<dim>32</dim>
					<dim>3</dim>
					<dim>3</dim>
					<dim>3</dim>
				</port>
			</output>
		</layer>
		<layer id="3" name="Convolution_328" type="Convolution" version="opset1">
			<data strides="2, 2" dilations="1, 1" pads_begin="1, 1" pads_end="1, 1" auto_pad="explicit"/>
			<rt_info>
				<attribute name="fused_names" version="0" value="Convolution_328"/>
			</rt_info>
			<input>
				<port id="0" precision="FP32">
					<dim>1</dim>
					<dim>3</dim>
					<dim>224</dim>
					<dim>224</dim>
				</port>
				<port id="1" precision="FP32">
					<dim>32</dim>
					<dim>3</dim>
					<dim>3</dim>
					<dim>3</dim>
				</port>
			</input>
			<output>
				<port id="2" precision="FP32">
					<dim>1</dim>
					<dim>32</dim>
					<dim>112</dim>
					<dim>112</dim>
				</port>
			</output>
		</layer>
		<layer id="4" name="Reshape_348_compressed" type="Const" version="opset1">
			<data element_type="f16" shape="1, 32, 1, 1" offset="1728" size="64"/>
			<output>
				<port id="0" precision="FP16">
					<dim>1</dim>
					<dim>32</dim>
					<dim>1</dim>
					<dim>1</dim>
				</port>
			</output>
		</layer>
		<layer id="5" name="Reshape_348" type="Convert" version="opset1">
			<data destination_type="f32"/>
			<rt_info>
				<attribute name="decompression" version="0"/>
			</rt_info>
			<input>
				<port id="0" precision="FP16">
					<dim>1</dim>
					<dim>32</dim>
					<dim>1</dim>
					<dim>1</dim>
				</port>
			</input>
			<output>
				<port id="1" precision="FP32">
					<dim>1</dim>
					<dim>32</dim>
					<dim>1</dim>
					<dim>1</dim>
				</port>
			</output>
		</layer>
		<layer id="6" name="2016" type="Add" version="opset1">
			<data auto_broadcast="numpy"/>
			<rt_info>
				<attribute name="fused_names" version="0" value="2016, Concat_347, Reshape_348"/>
			</rt_info>
			<input>
				<port id="0" precision="FP32">
					<dim>1</dim>
					<dim>32</dim>
					<dim>112</dim>
					<dim>112</dim>
				</port>
				<port id="1" precision="FP32">
					<dim>1</dim>
					<dim>32</dim>
					<dim>1</dim>
					<dim>1</dim>
				</port>
			</input>
			<output>
				<port id="2" precision="FP32" names="2016">
					<dim>1</dim>
					<dim>32</dim>
					<dim>112</dim>
					<dim>112</dim>
				</port>
			</output>
		</layer>
		<layer id="7" name="613" type="ReLU" version="opset1">
			<rt_info>
				<attribute name="fused_names" version="0" value="613"/>
			</rt_info>
			<input>
				<port id="0" precision="FP32">
					<dim>1</dim>
					<dim>32</dim>
					<dim>112</dim>
					<dim>112</dim>
				</port>
			</input>
			<output>
				<port id="1" precision="FP32" names="613">
					<dim>1</dim>
					<dim>32</dim>
					<dim>112</dim>
					<dim>112</dim>
				</port>
			</output>
		</layer>
		<layer id="8" name="Constant_65575" type="Const" version="opset1">
			<data element_type="i64" shape="2" offset="1792" size="16"/>
			<rt_info>
				<attribute name="fused_names" version="0" value="615, 624, Broadcast_390"/>
			</rt_info>
			<output>
				<port id="0" precision="I64">
					<dim>2</dim>
				</port>
			</output>
		</layer>
		<layer id="9" name="Constant_65576" type="Const" version="opset1">
			<data element_type="i64" shape="2" offset="1792" size="16"/>
			<rt_info>
				<attribute name="fused_names" version="0" value="615, 624, Broadcast_390"/>
			</rt_info>
			<output>
				<port id="0" precision="I64">
					<dim>2</dim>
				</port>
			</output>
		</layer>
		<layer id="10" name="Constant_65572" type="Const" version="opset1">
			<data element_type="i64" shape="1" offset="1808" size="8"/>
			<rt_info>
				<attribute name="fused_names" version="0" value="615, 624, Broadcast_390"/>
			</rt_info>
			<output>
				<port id="0" precision="I64">
					<dim>1</dim>
				</port>
			</output>
		</layer>
		<layer id="11" name="614" type="ShapeOf" version="opset3">
			<data output_type="i64"/>
			<rt_info>
				<attribute name="fused_names" version="0" value="614"/>
			</rt_info>
			<input>
				<port id="0" precision="FP32">
					<dim>1</dim>
					<dim>32</dim>
					<dim>112</dim>
					<dim>112</dim>
				</port>
			</input>
			<output>
				<port id="1" precision="I64" names="614">
					<dim>4</dim>
				</port>
			</output>
		</layer>
		<layer id="12" name="615" type="Const" version="opset1">
			<data element_type="i64" shape="1" offset="1808" size="8"/>
			<rt_info>
				<attribute name="fused_names" version="0" value="615"/>
			</rt_info>
			<output>
				<port id="0" precision="I64" names="615">
					<dim>1</dim>
				</port>
			</output>
		</layer>
		<layer id="13" name="Constant_379" type="Const" version="opset1">
			<data element_type="i64" shape="" offset="1816" size="8"/>
			<rt_info>
				<attribute name="fused_names" version="0" value="Constant_379"/>
			</rt_info>
			<output>
				<port id="0" precision="I64"/>
			</output>
		</layer>
		<layer id="14" name="616" type="Gather" version="opset8">
			<data batch_dims="0"/>
			<rt_info>
				<attribute name="fused_names" version="0" value="615, 616, Constant_379"/>
			</rt_info>
			<input>
				<port id="0" precision="I64">
					<dim>4</dim>
				</port>
				<port id="1" precision="I64">
					<dim>1</dim>
				</port>
				<port id="2" precision="I64"/>
			</input>
			<output>
				<port id="3" precision="I64" names="616">
					<dim>1</dim>
				</port>
			</output>
		</layer>
		<layer id="15" name="618" type="Const" version="opset1">
			<data element_type="i64" shape="1" offset="1808" size="8"/>
			<rt_info>
				<attribute name="fused_names" version="0" value="618"/>
			</rt_info>
			<output>
				<port id="0" precision="I64" names="618">
					<dim>1</dim>
				</port>
			</output>
		</layer>
		<layer id="16" name="619" type="Add" version="opset1">
			<data auto_broadcast="numpy"/>
			<rt_info>
				<attribute name="fused_names" version="0" value="618, 619"/>
			</rt_info>
			<input>
				<port id="0" precision="I64">
					<dim>1</dim>
				</port>
				<port id="1" precision="I64">
					<dim>1</dim>
				</port>
			</input>
			<output>
				<port id="2" precision="I64" names="619">
					<dim>1</dim>
				</port>
			</output>
		</layer>
		<layer id="17" name="620" type="Const" version="opset1">
			<data element_type="i64" shape="1" offset="1824" size="8"/>
			<rt_info>
				<attribute name="fused_names" version="0" value="620"/>
			</rt_info>
			<output>
				<port id="0" precision="I64" names="620">
					<dim>1</dim>
				</port>
			</output>
		</layer>
		<layer id="18" name="621" type="Divide" version="opset1">
			<data auto_broadcast="numpy" m_pythondiv="true"/>
			<rt_info>
				<attribute name="fused_names" version="0" value="620, 621, 622, 623"/>
			</rt_info>
			<input>
				<port id="0" precision="I64">
					<dim>1</dim>
				</port>
				<port id="1" precision="I64">
					<dim>1</dim>
				</port>
			</input>
			<output>
				<port id="2" precision="I64" names="621,623">
					<dim>1</dim>
				</port>
			</output>
		</layer>
		<layer id="19" name="Constant_65571" type="Const" version="opset1">
			<data element_type="i32" shape="1" offset="1832" size="4"/>
			<rt_info>
				<attribute name="fused_names" version="0" value="615, 624, Broadcast_390"/>
			</rt_info>
			<output>
				<port id="0" precision="I32">
					<dim>1</dim>
				</port>
			</output>
		</layer>
		<layer id="20" name="ScatterUpdate_65577" type="ScatterUpdate" version="opset3">
			<rt_info>
				<attribute name="fused_names" version="0" value="615, 624, Broadcast_390"/>
			</rt_info>
			<input>
				<port id="0" precision="I64">
					<dim>2</dim>
				</port>
				<port id="1" precision="I64">
					<dim>1</dim>
				</port>
				<port id="2" precision="I64">
					<dim>1</dim>
				</port>
				<port id="3" precision="I32">
					<dim>1</dim>
				</port>
			</input>
			<output>
				<port id="4" precision="I64">
					<dim>2</dim>
				</port>
			</output>
		</layer>
		<layer id="21" name="Constant_65580" type="Const" version="opset1">
			<data element_type="i64" shape="2" offset="1836" size="16"/>
			<rt_info>
				<attribute name="fused_names" version="0" value="615, 624, Broadcast_390"/>
			</rt_info>
			<output>
				<port id="0" precision="I64">
					<dim>2</dim>
				</port>
			</output>
		</layer>
		<layer id="22" name="624" type="StridedSlice" version="opset1">
			<data begin_mask="1, 0" end_mask="1, 0" new_axis_mask="" shrink_axis_mask="" ellipsis_mask=""/>
			<rt_info>
				<attribute name="fused_names" version="0" value="615, 624, Broadcast_390"/>
			</rt_info>
			<input>
				<port id="0" precision="FP32">
					<dim>1</dim>
					<dim>32</dim>
					<dim>112</dim>
					<dim>112</dim>
				</port>
				<port id="1" precision="I64">
					<dim>2</dim>
				</port>
				<port id="2" precision="I64">
					<dim>2</dim>
				</port>
				<port id="3" precision="I64">
					<dim>2</dim>
				</port>
			</input>
			<output>
				<port id="4" precision="FP32" names="624">
					<dim>1</dim>
					<dim>16</dim>
					<dim>112</dim>
					<dim>112</dim>
				</port>
			</output>
		</layer>
		<layer id="23" name="Reshape_751_compressed" type="Const" version="opset1">
			<data element_type="f16" shape="16, 1, 1, 3, 3" offset="1852" size="288"/>
			<output>
				<port id="0" precision="FP16">
					<dim>16</dim>
					<dim>1</dim>
					<dim>1</dim>
					<dim>3</dim>
					<dim>3</dim>
				</port>
			</output>
		</layer>
		<layer id="24" name="Reshape_751" type="Convert" version="opset1">
			<data destination_type="f32"/>
			<rt_info>
				<attribute name="decompression" version="0"/>
			</rt_info>
			<input>
				<port id="0" precision="FP16">
					<dim>16</dim>
					<dim>1</dim>
					<dim>1</dim>
					<dim>3</dim>
					<dim>3</dim>
				</port>
			</input>
			<output>
				<port id="1" precision="FP32">
					<dim>16</dim>
					<dim>1</dim>
					<dim>1</dim>
					<dim>3</dim>
					<dim>3</dim>
				</port>
			</output>
		</layer>
		<layer id="25" name="GroupConvolution_817" type="GroupConvolution" version="opset1">
			<data strides="2, 2" pads_begin="1, 1" pads_end="1, 1" dilations="1, 1" auto_pad="explicit"/>
			<rt_info>
				<attribute name="fused_names" version="0" value="GroupConvolution_817, Reshape_751"/>
			</rt_info>
			<input>
				<port id="0" precision="FP32">
					<dim>1</dim>
					<dim>16</dim>
					<dim>112</dim>
					<dim>112</dim>
				</port>
				<port id="1" precision="FP32">
					<dim>16</dim>
					<dim>1</dim>
					<dim>1</dim>
					<dim>3</dim>
					<dim>3</dim>
				</port>
			</input>
			<output>
				<port id="2" precision="FP32">
					<dim>1</dim>
					<dim>16</dim>
					<dim>56</dim>
					<dim>56</dim>
				</port>
			</output>
		</layer>
		<layer id="26" name="Reshape_837_compressed" type="Const" version="opset1">
			<data element_type="f16" shape="1, 16, 1, 1" offset="2140" size="32"/>
			<output>
				<port id="0" precision="FP16">
					<dim>1</dim>
					<dim>16</dim>
					<dim>1</dim>
					<dim>1</dim>
				</port>
			</output>
		</layer>
		<layer id="27" name="Reshape_837" type="Convert" version="opset1">
			<data destination_type="f32"/>
			<rt_info>
				<attribute name="decompression" version="0"/>
			</rt_info>
			<input>
				<port id="0" precision="FP16">
					<dim>1</dim>
					<dim>16</dim>
					<dim>1</dim>
					<dim>1</dim>
				</port>
			</input>
			<output>
				<port id="1" precision="FP32">
					<dim>1</dim>
					<dim>16</dim>
					<dim>1</dim>
					<dim>1</dim>
				</port>
			</output>
		</layer>
		<layer id="28" name="2028" type="Add" version="opset1">
			<data auto_broadcast="numpy"/>
			<rt_info>
				<attribute name="fused_names" version="0" value="2028, Concat_836, Reshape_837"/>
			</rt_info>
			<input>
				<port id="0" precision="FP32">
					<dim>1</dim>
					<dim>16</dim>
					<dim>56</dim>
					<dim>56</dim>
				</port>
				<port id="1" precision="FP32">
					<dim>1</dim>
					<dim>16</dim>
					<dim>1</dim>
					<dim>1</dim>
				</port>
			</input>
			<output>
				<port id="2" precision="FP32" names="2028">
					<dim>1</dim>
					<dim>16</dim>
					<dim>56</dim>
					<dim>56</dim>
				</port>
			</output>
		</layer>
		<layer id="29" name="2032_compressed" type="Const" version="opset1">
			<data element_type="f16" shape="16, 16, 1, 1" offset="2172" size="512"/>
			<output>
				<port id="0" precision="FP16">
					<dim>16</dim>
					<dim>16</dim>
					<dim>1</dim>
					<dim>1</dim>
				</port>
			</output>
		</layer>
		<layer id="30" name="2032" type="Convert" version="opset1">
			<data destination_type="f32"/>
			<rt_info>
				<attribute name="decompression" version="0"/>
				<attribute name="fused_names" version="0" value="2032"/>
			</rt_info>
			<input>
				<port id="0" precision="FP16">
					<dim>16</dim>
					<dim>16</dim>
					<dim>1</dim>
					<dim>1</dim>
				</port>
			</input>
			<output>
				<port id="1" precision="FP32" names="2032">
					<dim>16</dim>
					<dim>16</dim>
					<dim>1</dim>
					<dim>1</dim>
				</port>
			</output>
		</layer>
		<layer id="31" name="Convolution_865" type="Convolution" version="opset1">
			<data strides="1, 1" dilations="1, 1" pads_begin="0, 0" pads_end="0, 0" auto_pad="explicit"/>
			<rt_info>
				<attribute name="fused_names" version="0" value="Convolution_865"/>
			</rt_info>
			<input>
				<port id="0" precision="FP32">
					<dim>1</dim>
					<dim>16</dim>
					<dim>56</dim>
					<dim>56</dim>
				</port>
				<port id="1" precision="FP32">
					<dim>16</dim>
					<dim>16</dim>
					<dim>1</dim>
					<dim>1</dim>
				</port>
			</input>
			<output>
				<port id="2" precision="FP32">
					<dim>1</dim>
					<dim>16</dim>
					<dim>56</dim>
					<dim>56</dim>
				</port>
			</output>
		</layer>
		<layer id="32" name="Reshape_885_compressed" type="Const" version="opset1">
			<data element_type="f16" shape="1, 16, 1, 1" offset="2684" size="32"/>
			<output>
				<port id="0" precision="FP16">
					<dim>1</dim>
					<dim>16</dim>
					<dim>1</dim>
					<dim>1</dim>
				</port>
			</output>
		</layer>
		<layer id="33" name="Reshape_885" type="Convert" version="opset1">
			<data destination_type="f32"/>
			<rt_info>
				<attribute name="decompression" version="0"/>
			</rt_info>
			<input>
				<port id="0" precision="FP16">
					<dim>1</dim>
					<dim>16</dim>
					<dim>1</dim>
					<dim>1</dim>
				</port>
			</input>
			<output>
				<port id="1" precision="FP32">
					<dim>1</dim>
					<dim>16</dim>
					<dim>1</dim>
					<dim>1</dim>
				</port>
			</output>
		</layer>
		<layer id="34" name="2031" type="Add" version="opset1">
			<data auto_broadcast="numpy"/>
			<rt_info>
				<attribute name="fused_names" version="0" value="2031, Concat_884, Reshape_885"/>
			</rt_info>
			<input>
				<port id="0" precision="FP32">
					<dim>1</dim>
					<dim>16</dim>
					<dim>56</dim>
					<dim>56</dim>
				</port>
				<port id="1" precision="FP32">
					<dim>1</dim>
					<dim>16</dim>
					<dim>1</dim>
					<dim>1</dim>
				</port>
			</input>
			<output>
				<port id="2" precision="FP32" names="2031">
					<dim>1</dim>
					<dim>16</dim>
					<dim>56</dim>
					<dim>56</dim>
				</port>
			</output>
		</layer>
		<layer id="35" name="640" type="ReLU" version="opset1">
			<rt_info>
				<attribute name="fused_names" version="0" value="640"/>
			</rt_info>
			<input>
				<port id="0" precision="FP32">
					<dim>1</dim>
					<dim>16</dim>
					<dim>56</dim>
					<dim>56</dim>
				</port>
			</input>
			<output>
				<port id="1" precision="FP32" names="640">
					<dim>1</dim>
					<dim>16</dim>
					<dim>56</dim>
					<dim>56</dim>
				</port>
			</output>
		</layer>
		<layer id="36" name="Constant_65652" type="Const" version="opset1">
			<data element_type="i64" shape="2" offset="1792" size="16"/>
			<rt_info>
				<attribute name="fused_names" version="0" value="615, 627, Broadcast_459"/>
			</rt_info>
			<output>
				<port id="0" precision="I64">
					<dim>2</dim>
				</port>
			</output>
		</layer>
		<layer id="37" name="Constant_65651" type="Const" version="opset1">
			<data element_type="i64" shape="1" offset="1808" size="8"/>
			<rt_info>
				<attribute name="fused_names" version="0" value="615, 627, Broadcast_459"/>
			</rt_info>
			<output>
				<port id="0" precision="I64">
					<dim>1</dim>
				</port>
			</output>
		</layer>
		<layer id="38" name="Constant_65650" type="Const" version="opset1">
			<data element_type="i32" shape="1" offset="1832" size="4"/>
			<rt_info>
				<attribute name="fused_names" version="0" value="615, 627, Broadcast_459"/>
			</rt_info>
			<output>
				<port id="0" precision="I32">
					<dim>1</dim>
				</port>
			</output>
		</layer>
		<layer id="39" name="ScatterUpdate_65653" type="ScatterUpdate" version="opset3">
			<rt_info>
				<attribute name="fused_names" version="0" value="615, 627, Broadcast_459"/>
			</rt_info>
			<input>
				<port id="0" precision="I64">
					<dim>2</dim>
				</port>
				<port id="1" precision="I64">
					<dim>1</dim>
				</port>
				<port id="2" precision="I64">
					<dim>1</dim>
				</port>
				<port id="3" precision="I32">
					<dim>1</dim>
				</port>
			</input>
			<output>
				<port id="4" precision="I64">
					<dim>2</dim>
				</port>
			</output>
		</layer>
		<layer id="40" name="Constant_65654" type="Const" version="opset1">
			<data element_type="i64" shape="2" offset="1792" size="16"/>
			<rt_info>
				<attribute name="fused_names" version="0" value="615, 627, Broadcast_459"/>
			</rt_info>
			<output>
				<port id="0" precision="I64">
					<dim>2</dim>
				</port>
			</output>
		</layer>
		<layer id="41" name="625" type="Const" version="opset1">
			<data element_type="i64" shape="1" offset="1824" size="8"/>
			<rt_info>
				<attribute name="fused_names" version="0" value="625"/>
			</rt_info>
			<output>
				<port id="0" precision="I64" names="625">
					<dim>1</dim>
				</port>
			</output>
		</layer>
		<layer id="42" name="626" type="Multiply" version="opset1">
			<data auto_broadcast="numpy"/>
			<rt_info>
				<attribute name="fused_names" version="0" value="625, 626"/>
			</rt_info>
			<input>
				<port id="0" precision="I64">
					<dim>1</dim>
				</port>
				<port id="1" precision="I64">
					<dim>1</dim>
				</port>
			</input>
			<output>
				<port id="2" precision="I64" names="626">
					<dim>1</dim>
				</port>
			</output>
		</layer>
		<layer id="43" name="ScatterUpdate_65655" type="ScatterUpdate" version="opset3">
			<rt_info>
				<attribute name="fused_names" version="0" value="615, 627, Broadcast_459"/>
			</rt_info>
			<input>
				<port id="0" precision="I64">
					<dim>2</dim>
				</port>
				<port id="1" precision="I64">
					<dim>1</dim>
				</port>
				<port id="2" precision="I64">
					<dim>1</dim>
				</port>
				<port id="3" precision="I32">
					<dim>1</dim>
				</port>
			</input>
			<output>
				<port id="4" precision="I64">
					<dim>2</dim>
				</port>
			</output>
		</layer>
		<layer id="44" name="Constant_65658" type="Const" version="opset1">
			<data element_type="i64" shape="2" offset="1836" size="16"/>
			<rt_info>
				<attribute name="fused_names" version="0" value="615, 627, Broadcast_459"/>
			</rt_info>
			<output>
				<port id="0" precision="I64">
					<dim>2</dim>
				</port>
			</output>
		</layer>
		<layer id="45" name="627" type="StridedSlice" version="opset1">
			<data begin_mask="1, 0" end_mask="1, 0" new_axis_mask="" shrink_axis_mask="" ellipsis_mask=""/>
			<rt_info>
				<attribute name="fused_names" version="0" value="615, 627, Broadcast_459"/>
			</rt_info>
			<input>
				<port id="0" precision="FP32">
					<dim>1</dim>
					<dim>32</dim>
					<dim>112</dim>
					<dim>112</dim>
				</port>
				<port id="1" precision="I64">
					<dim>2</dim>
				</port>
				<port id="2" precision="I64">
					<dim>2</dim>
				</port>
				<port id="3" precision="I64">
					<dim>2</dim>
				</port>
			</input>
			<output>
				<port id="4" precision="FP32" names="627">
					<dim>1</dim>
					<dim>16</dim>
					<dim>112</dim>
					<dim>112</dim>
				</port>
			</output>
		</layer>
		<layer id="46" name="2020_compressed" type="Const" version="opset1">
			<data element_type="f16" shape="32, 16, 1, 1" offset="2716" size="1024"/>
			<output>
				<port id="0" precision="FP16">
					<dim>32</dim>
					<dim>16</dim>
					<dim>1</dim>
					<dim>1</dim>
				</port>
			</output>
		</layer>
		<layer id="47" name="2020" type="Convert" version="opset1">
			<data destination_type="f32"/>
			<rt_info>
				<attribute name="decompression" version="0"/>
				<attribute name="fused_names" version="0" value="2020"/>
			</rt_info>
			<input>
				<port id="0" precision="FP16">
					<dim>32</dim>
					<dim>16</dim>
					<dim>1</dim>
					<dim>1</dim>
				</port>
			</input>
			<output>
				<port id="1" precision="FP32" names="2020">
					<dim>32</dim>
					<dim>16</dim>
					<dim>1</dim>
					<dim>1</dim>
				</port>
			</output>
		</layer>
		<layer id="48" name="Convolution_525" type="Convolution" version="opset1">
			<data strides="1, 1" dilations="1, 1" pads_begin="0, 0" pads_end="0, 0" auto_pad="explicit"/>
			<rt_info>
				<attribute name="fused_names" version="0" value="Convolution_525"/>
			</rt_info>
			<input>
				<port id="0" precision="FP32">
					<dim>1</dim>
					<dim>16</dim>
					<dim>112</dim>
					<dim>112</dim>
				</port>
				<port id="1" precision="FP32">
					<dim>32</dim>
					<dim>16</dim>
					<dim>1</dim>
					<dim>1</dim>
				</port>
			</input>
			<output>
				<port id="2" precision="FP32">
					<dim>1</dim>
					<dim>32</dim>
					<dim>112</dim>
					<dim>112</dim>
				</port>
			</output>
		</layer>
		<layer id="49" name="Reshape_545_compressed" type="Const" version="opset1">
			<data element_type="f16" shape="1, 32, 1, 1" offset="3740" size="64"/>
			<output>
				<port id="0" precision="FP16">
					<dim>1</dim>
					<dim>32</dim>
					<dim>1</dim>
					<dim>1</dim>
				</port>
			</output>
		</layer>
		<layer id="50" name="Reshape_545" type="Convert" version="opset1">
			<data destination_type="f32"/>
			<rt_info>
				<attribute name="decompression" version="0"/>
			</rt_info>
			<input>
				<port id="0" precision="FP16">
					<dim>1</dim>
					<dim>32</dim>
					<dim>1</dim>
					<dim>1</dim>
				</port>
			</input>
			<output>
				<port id="1" precision="FP32">
					<dim>1</dim>
					<dim>32</dim>
					<dim>1</dim>
					<dim>1</dim>
				</port>
			</output>
		</layer>
		<layer id="51" name="2019" type="Add" version="opset1">
			<data auto_broadcast="numpy"/>
			<rt_info>
				<attribute name="fused_names" version="0" value="2019, Concat_544, Reshape_545"/>
			</rt_info>
			<input>
				<port id="0" precision="FP32">
					<dim>1</dim>
					<dim>32</dim>
					<dim>112</dim>
					<dim>112</dim>
				</port>
				<port id="1" precision="FP32">
					<dim>1</dim>
					<dim>32</dim>
					<dim>1</dim>
					<dim>1</dim>
				</port>
			</input>
			<output>
				<port id="2" precision="FP32" names="2019">
					<dim>1</dim>
					<dim>32</dim>
					<dim>112</dim>
					<dim>112</dim>
				</port>
			</output>
		</layer>
		<layer id="52" name="630" type="ReLU" version="opset1">
			<rt_info>
				<attribute name="fused_names" version="0" value="630"/>
			</rt_info>
			<input>
				<port id="0" precision="FP32">
					<dim>1</dim>
					<dim>32</dim>
					<dim>112</dim>
					<dim>112</dim>
				</port>
			</input>
			<output>
				<port id="1" precision="FP32" names="630">
					<dim>1</dim>
					<dim>32</dim>
					<dim>112</dim>
					<dim>112</dim>
				</port>
			</output>
		</layer>
		<layer id="53" name="Reshape_581_compressed" type="Const" version="opset1">
			<data element_type="f16" shape="32, 1, 1, 3, 3" offset="3804" size="576"/>
			<output>
				<port id="0" precision="FP16">
					<dim>32</dim>
					<dim>1</dim>
					<dim>1</dim>
					<dim>3</dim>
					<dim>3</dim>
				</port>
			</output>
		</layer>
		<layer id="54" name="Reshape_581" type="Convert" version="opset1">
			<data destination_type="f32"/>
			<rt_info>
				<attribute name="decompression" version="0"/>
			</rt_info>
			<input>
				<port id="0" precision="FP16">
					<dim>32</dim>
					<dim>1</dim>
					<dim>1</dim>
					<dim>3</dim>
					<dim>3</dim>
				</port>
			</input>
			<output>
				<port id="1" precision="FP32">
					<dim>32</dim>
					<dim>1</dim>
					<dim>1</dim>
					<dim>3</dim>
					<dim>3</dim>
				</port>
			</output>
		</layer>
		<layer id="55" name="GroupConvolution_647" type="GroupConvolution" version="opset1">
			<data strides="2, 2" pads_begin="1, 1" pads_end="1, 1" dilations="1, 1" auto_pad="explicit"/>
			<rt_info>
				<attribute name="fused_names" version="0" value="GroupConvolution_647, Reshape_581"/>
			</rt_info>
			<input>
				<port id="0" precision="FP32">
					<dim>1</dim>
					<dim>32</dim>
					<dim>112</dim>
					<dim>112</dim>
				</port>
				<port id="1" precision="FP32">
					<dim>32</dim>
					<dim>1</dim>
					<dim>1</dim>
					<dim>3</dim>
					<dim>3</dim>
				</port>
			</input>
			<output>
				<port id="2" precision="FP32">
					<dim>1</dim>
					<dim>32</dim>
					<dim>56</dim>
					<dim>56</dim>
				</port>
			</output>
		</layer>
		<layer id="56" name="Reshape_667_compressed" type="Const" version="opset1">
			<data element_type="f16" shape="1, 32, 1, 1" offset="4380" size="64"/>
			<output>
				<port id="0" precision="FP16">
					<dim>1</dim>
					<dim>32</dim>
					<dim>1</dim>
					<dim>1</dim>
				</port>
			</output>
		</layer>
		<layer id="57" name="Reshape_667" type="Convert" version="opset1">
			<data destination_type="f32"/>
			<rt_info>
				<attribute name="decompression" version="0"/>
			</rt_info>
			<input>
				<port id="0" precision="FP16">
					<dim>1</dim>
					<dim>32</dim>
					<dim>1</dim>
					<dim>1</dim>
				</port>
			</input>
			<output>
				<port id="1" precision="FP32">
					<dim>1</dim>
					<dim>32</dim>
					<dim>1</dim>
					<dim>1</dim>
				</port>
			</output>
		</layer>
		<layer id="58" name="2022" type="Add" version="opset1">
			<data auto_broadcast="numpy"/>
			<rt_info>
				<attribute name="fused_names" version="0" value="2022, Concat_666, Reshape_667"/>
			</rt_info>
			<input>
				<port id="0" precision="FP32">
					<dim>1</dim>
					<dim>32</dim>
					<dim>56</dim>
					<dim>56</dim>
				</port>
				<port id="1" precision="FP32">
					<dim>1</dim>
					<dim>32</dim>
					<dim>1</dim>
					<dim>1</dim>
				</port>
			</input>
			<output>
				<port id="2" precision="FP32" names="2022">
					<dim>1</dim>
					<dim>32</dim>
					<dim>56</dim>
					<dim>56</dim>
				</port>
			</output>
		</layer>
		<layer id="59" name="2026_compressed" type="Const" version="opset1">
			<data element_type="f16" shape="16, 32, 1, 1" offset="4444" size="1024"/>
			<output>
				<port id="0" precision="FP16">
					<dim>16</dim>
					<dim>32</dim>
					<dim>1</dim>
					<dim>1</dim>
				</port>
			</output>
		</layer>
		<layer id="60" name="2026" type="Convert" version="opset1">
			<data destination_type="f32"/>
			<rt_info>
				<attribute name="decompression" version="0"/>
				<attribute name="fused_names" version="0" value="2026"/>
			</rt_info>
			<input>
				<port id="0" precision="FP16">
					<dim>16</dim>
					<dim>32</dim>
					<dim>1</dim>
					<dim>1</dim>
				</port>
			</input>
			<output>
				<port id="1" precision="FP32" names="2026">
					<dim>16</dim>
					<dim>32</dim>
					<dim>1</dim>
					<dim>1</dim>
				</port>
			</output>
		</layer>
		<layer id="61" name="Convolution_695" type="Convolution" version="opset1">
			<data strides="1, 1" dilations="1, 1" pads_begin="0, 0" pads_end="0, 0" auto_pad="explicit"/>
			<rt_info>
				<attribute name="fused_names" version="0" value="Convolution_695"/>
			</rt_info>
			<input>
				<port id="0" precision="FP32">
					<dim>1</dim>
					<dim>32</dim>
					<dim>56</dim>
					<dim>56</dim>
				</port>
				<port id="1" precision="FP32">
					<dim>16</dim>
					<dim>32</dim>
					<dim>1</dim>
					<dim>1</dim>
				</port>
			</input>
			<output>
				<port id="2" precision="FP32">
					<dim>1</dim>
					<dim>16</dim>
					<dim>56</dim>
					<dim>56</dim>
				</port>
			</output>
		</layer>
		<layer id="62" name="Reshape_715_compressed" type="Const" version="opset1">
			<data element_type="f16" shape="1, 16, 1, 1" offset="5468" size="32"/>
			<output>
				<port id="0" precision="FP16">
					<dim>1</dim>
					<dim>16</dim>
					<dim>1</dim>
					<dim>1</dim>
				</port>
			</output>
		</layer>
		<layer id="63" name="Reshape_715" type="Convert" version="opset1">
			<data destination_type="f32"/>
			<rt_info>
				<attribute name="decompression" version="0"/>
			</rt_info>
			<input>
				<port id="0" precision="FP16">
					<dim>1</dim>
					<dim>16</dim>
					<dim>1</dim>
					<dim>1</dim>
				</port>
			</input>
			<output>
				<port id="1" precision="FP32">
					<dim>1</dim>
					<dim>16</dim>
					<dim>1</dim>
					<dim>1</dim>
				</port>
			</output>
		</layer>
		<layer id="64" name="2025" type="Add" version="opset1">
			<data auto_broadcast="numpy"/>
			<rt_info>
				<attribute name="fused_names" version="0" value="2025, Concat_714, Reshape_715"/>
			</rt_info>
			<input>
				<port id="0" precision="FP32">
					<dim>1</dim>
					<dim>16</dim>
					<dim>56</dim>
					<dim>56</dim>
				</port>
				<port id="1" precision="FP32">
					<dim>1</dim>
					<dim>16</dim>
					<dim>1</dim>
					<dim>1</dim>
				</port>
			</input>
			<output>
				<port id="2" precision="FP32" names="2025">
					<dim>1</dim>
					<dim>16</dim>
					<dim>56</dim>
					<dim>56</dim>
				</port>
			</output>
		</layer>
		<layer id="65" name="635" type="ReLU" version="opset1">
			<rt_info>
				<attribute name="fused_names" version="0" value="635"/>
			</rt_info>
			<input>
				<port id="0" precision="FP32">
					<dim>1</dim>
					<dim>16</dim>
					<dim>56</dim>
					<dim>56</dim>
				</port>
			</input>
			<output>
				<port id="1" precision="FP32" names="635">
					<dim>1</dim>
					<dim>16</dim>
					<dim>56</dim>
					<dim>56</dim>
				</port>
			</output>
		</layer>
		<layer id="66" name="641" type="Concat" version="opset1">
			<data axis="1"/>
			<rt_info>
				<attribute name="fused_names" version="0" value="641"/>
			</rt_info>
			<input>
				<port id="0" precision="FP32">
					<dim>1</dim>
					<dim>16</dim>
					<dim>56</dim>
					<dim>56</dim>
				</port>
				<port id="1" precision="FP32">
					<dim>1</dim>
					<dim>16</dim>
					<dim>56</dim>
					<dim>56</dim>
				</port>
			</input>
			<output>
				<port id="2" precision="FP32" names="641">
					<dim>1</dim>
					<dim>32</dim>
					<dim>56</dim>
					<dim>56</dim>
				</port>
			</output>
		</layer>
		<layer id="67" name="Constant_57827" type="Const" version="opset1">
			<data element_type="i64" shape="1" offset="1816" size="8"/>
			<output>
				<port id="0" precision="I64">
					<dim>1</dim>
				</port>
			</output>
		</layer>
		<layer id="68" name="2349" type="Const" version="opset1">
			<data element_type="i64" shape="1" offset="1824" size="8"/>
			<rt_info>
				<attribute name="fused_names" version="0" value="2349"/>
			</rt_info>
			<output>
				<port id="0" precision="I64" names="2349">
					<dim>1</dim>
				</port>
			</output>
		</layer>
		<layer id="69" name="642" type="ShapeOf" version="opset3">
			<data output_type="i64"/>
			<rt_info>
				<attribute name="fused_names" version="0" value="642, 645, 648, 651"/>
			</rt_info>
			<input>
				<port id="0" precision="FP32">
					<dim>1</dim>
					<dim>32</dim>
					<dim>56</dim>
					<dim>56</dim>
				</port>
			</input>
			<output>
				<port id="1" precision="I64" names="642,645,648,651">
					<dim>4</dim>
				</port>
			</output>
		</layer>
		<layer id="70" name="646" type="Const" version="opset1">
			<data element_type="i64" shape="" offset="1808" size="8"/>
			<rt_info>
				<attribute name="fused_names" version="0" value="646"/>
			</rt_info>
			<output>
				<port id="0" precision="I64" names="646"/>
			</output>
		</layer>
		<layer id="71" name="Constant_921" type="Const" version="opset1">
			<data element_type="i64" shape="" offset="1816" size="8"/>
			<rt_info>
				<attribute name="fused_names" version="0" value="Constant_921"/>
			</rt_info>
			<output>
				<port id="0" precision="I64"/>
			</output>
		</layer>
		<layer id="72" name="647" type="Gather" version="opset8">
			<data batch_dims="0"/>
			<rt_info>
				<attribute name="fused_names" version="0" value="646, 647, Constant_921"/>
			</rt_info>
			<input>
				<port id="0" precision="I64">
					<dim>4</dim>
				</port>
				<port id="1" precision="I64"/>
				<port id="2" precision="I64"/>
			</input>
			<output>
				<port id="3" precision="I64" names="647"/>
			</output>
		</layer>
		<layer id="73" name="654" type="Const" version="opset1">
			<data element_type="i64" shape="" offset="1824" size="8"/>
			<rt_info>
				<attribute name="fused_names" version="0" value="654"/>
			</rt_info>
			<output>
				<port id="0" precision="I64" names="654"/>
			</output>
		</layer>
		<layer id="74" name="655" type="Divide" version="opset1">
			<data auto_broadcast="numpy" m_pythondiv="true"/>
			<rt_info>
				<attribute name="fused_names" version="0" value="654, 655, 656, 657"/>
			</rt_info>
			<input>
				<port id="0" precision="I64"/>
				<port id="1" precision="I64"/>
			</input>
			<output>
				<port id="2" precision="I64" names="655,656,657"/>
			</output>
		</layer>
		<layer id="75" name="Constant_937" type="Const" version="opset1">
			<data element_type="i64" shape="1" offset="1816" size="8"/>
			<rt_info>
				<attribute name="fused_names" version="0" value="Constant_937"/>
			</rt_info>
			<output>
				<port id="0" precision="I64">
					<dim>1</dim>
				</port>
			</output>
		</layer>
		<layer id="76" name="661" type="Unsqueeze" version="opset1">
			<rt_info>
				<attribute name="fused_names" version="0" value="661, Constant_937"/>
			</rt_info>
			<input>
				<port id="0" precision="I64"/>
				<port id="1" precision="I64">
					<dim>1</dim>
				</port>
			</input>
			<output>
				<port id="2" precision="I64" names="661">
					<dim>1</dim>
				</port>
			</output>
		</layer>
		<layer id="77" name="Constant_51000" type="Const" version="opset1">
			<data element_type="i64" shape="2" offset="5500" size="16"/>
			<rt_info>
				<attribute name="fused_names" version="0" value="2349, 664"/>
			</rt_info>
			<output>
				<port id="0" precision="I64">
					<dim>2</dim>
				</port>
			</output>
		</layer>
		<layer id="78" name="Constant_51001" type="Const" version="opset1">
			<data element_type="i64" shape="" offset="1816" size="8"/>
			<output>
				<port id="0" precision="I64"/>
			</output>
		</layer>
		<layer id="79" name="Gather_51002" type="Gather" version="opset8">
			<data batch_dims="0"/>
			<rt_info>
				<attribute name="fused_names" version="0" value="2349, 664"/>
			</rt_info>
			<input>
				<port id="0" precision="I64">
					<dim>4</dim>
				</port>
				<port id="1" precision="I64">
					<dim>2</dim>
				</port>
				<port id="2" precision="I64"/>
			</input>
			<output>
				<port id="3" precision="I64">
					<dim>2</dim>
				</port>
			</output>
		</layer>
		<layer id="80" name="664" type="Concat" version="opset1">
			<data axis="0"/>
			<rt_info>
				<attribute name="fused_names" version="0" value="2349, 664"/>
			</rt_info>
			<input>
				<port id="0" precision="I64">
					<dim>1</dim>
				</port>
				<port id="1" precision="I64">
					<dim>1</dim>
				</port>
				<port id="2" precision="I64">
					<dim>1</dim>
				</port>
				<port id="3" precision="I64">
					<dim>2</dim>
				</port>
			</input>
			<output>
				<port id="4" precision="I64">
					<dim>5</dim>
				</port>
			</output>
		</layer>
		<layer id="81" name="665" type="Reshape" version="opset1">
			<data special_zero="true"/>
			<rt_info>
				<attribute name="fused_names" version="0" value="665"/>
			</rt_info>
			<input>
				<port id="0" precision="FP32">
					<dim>1</dim>
					<dim>32</dim>
					<dim>56</dim>
					<dim>56</dim>
				</port>
				<port id="1" precision="I64">
					<dim>5</dim>
				</port>
			</input>
			<output>
				<port id="2" precision="FP32" names="665">
					<dim>1</dim>
					<dim>2</dim>
					<dim>16</dim>
					<dim>56</dim>
					<dim>56</dim>
				</port>
			</output>
		</layer>
		<layer id="82" name="Constant_1062" type="Const" version="opset1">
			<data element_type="i64" shape="5" offset="5516" size="40"/>
			<rt_info>
				<attribute name="fused_names" version="0" value="Constant_1062"/>
			</rt_info>
			<output>
				<port id="0" precision="I64">
					<dim>5</dim>
				</port>
			</output>
		</layer>
		<layer id="83" name="666" type="Transpose" version="opset1">
			<rt_info>
				<attribute name="fused_names" version="0" value="666"/>
			</rt_info>
			<input>
				<port id="0" precision="FP32">
					<dim>1</dim>
					<dim>2</dim>
					<dim>16</dim>
					<dim>56</dim>
					<dim>56</dim>
				</port>
				<port id="1" precision="I64">
					<dim>5</dim>
				</port>
			</input>
			<output>
				<port id="2" precision="FP32" names="666">
					<dim>1</dim>
					<dim>16</dim>
					<dim>2</dim>
					<dim>56</dim>
					<dim>56</dim>
				</port>
			</output>
		</layer>
		<layer id="84" name="Constant_50061" type="Const" version="opset1">
			<data element_type="i64" shape="1" offset="1816" size="8"/>
			<rt_info>
				<attribute name="fused_names" version="0" value="643, 644, 668, Constant_1064, Constant_917"/>
			</rt_info>
			<output>
				<port id="0" precision="I64">
					<dim>1</dim>
				</port>
			</output>
		</layer>
		<layer id="85" name="Constant_917" type="Const" version="opset1">
			<data element_type="i64" shape="" offset="1816" size="8"/>
			<rt_info>
				<attribute name="fused_names" version="0" value="Constant_917"/>
			</rt_info>
			<output>
				<port id="0" precision="I64"/>
			</output>
		</layer>
		<layer id="86" name="644" type="Gather" version="opset8">
			<data batch_dims="0"/>
			<rt_info>
				<attribute name="fused_names" version="0" value="643, 644, 668, Constant_1064, Constant_917"/>
			</rt_info>
			<input>
				<port id="0" precision="I64">
					<dim>4</dim>
				</port>
				<port id="1" precision="I64">
					<dim>1</dim>
				</port>
				<port id="2" precision="I64"/>
			</input>
			<output>
				<port id="3" precision="I64" names="668">
					<dim>1</dim>
				</port>
			</output>
		</layer>
		<layer id="87" name="2350" type="Const" version="opset1">
			<data element_type="i64" shape="1" offset="5556" size="8"/>
			<rt_info>
				<attribute name="fused_names" version="0" value="2350"/>
			</rt_info>
			<output>
				<port id="0" precision="I64" names="2350">
					<dim>1</dim>
				</port>
			</output>
		</layer>
		<layer id="88" name="Constant_51005" type="Const" version="opset1">
			<data element_type="i64" shape="2" offset="5500" size="16"/>
			<rt_info>
				<attribute name="fused_names" version="0" value="2350, 672"/>
			</rt_info>
			<output>
				<port id="0" precision="I64">
					<dim>2</dim>
				</port>
			</output>
		</layer>
		<layer id="89" name="Constant_51006" type="Const" version="opset1">
			<data element_type="i64" shape="" offset="1816" size="8"/>
			<output>
				<port id="0" precision="I64"/>
			</output>
		</layer>
		<layer id="90" name="Gather_51007" type="Gather" version="opset8">
			<data batch_dims="0"/>
			<rt_info>
				<attribute name="fused_names" version="0" value="2350, 672"/>
			</rt_info>
			<input>
				<port id="0" precision="I64">
					<dim>4</dim>
				</port>
				<port id="1" precision="I64">
					<dim>2</dim>
				</port>
				<port id="2" precision="I64"/>
			</input>
			<output>
				<port id="3" precision="I64">
					<dim>2</dim>
				</port>
			</output>
		</layer>
		<layer id="91" name="672" type="Concat" version="opset1">
			<data axis="0"/>
			<rt_info>
				<attribute name="fused_names" version="0" value="2350, 672"/>
			</rt_info>
			<input>
				<port id="0" precision="I64">
					<dim>1</dim>
				</port>
				<port id="1" precision="I64">
					<dim>1</dim>
				</port>
				<port id="2" precision="I64">
					<dim>2</dim>
				</port>
			</input>
			<output>
				<port id="3" precision="I64" names="672">
					<dim>4</dim>
				</port>
			</output>
		</layer>
		<layer id="92" name="673" type="Reshape" version="opset1">
			<data special_zero="true"/>
			<rt_info>
				<attribute name="fused_names" version="0" value="673"/>
			</rt_info>
			<input>
				<port id="0" precision="FP32">
					<dim>1</dim>
					<dim>16</dim>
					<dim>2</dim>
					<dim>56</dim>
					<dim>56</dim>
				</port>
				<port id="1" precision="I64">
					<dim>4</dim>
				</port>
			</input>
			<output>
				<port id="2" precision="FP32" names="673">
					<dim>1</dim>
					<dim>32</dim>
					<dim>56</dim>
					<dim>56</dim>
				</port>
			</output>
		</layer>
		<layer id="93" name="Reshape_1141_compressed" type="Const" version="opset1">
			<data element_type="f16" shape="32, 1, 1, 3, 3" offset="5564" size="576"/>
			<output>
				<port id="0" precision="FP16">
					<dim>32</dim>
					<dim>1</dim>
					<dim>1</dim>
					<dim>3</dim>
					<dim>3</dim>
				</port>
			</output>
		</layer>
		<layer id="94" name="Reshape_1141" type="Convert" version="opset1">
			<data destination_type="f32"/>
			<rt_info>
				<attribute name="decompression" version="0"/>
			</rt_info>
			<input>
				<port id="0" precision="FP16">
					<dim>32</dim>
					<dim>1</dim>
					<dim>1</dim>
					<dim>3</dim>
					<dim>3</dim>
				</port>
			</input>
			<output>
				<port id="1" precision="FP32">
					<dim>32</dim>
					<dim>1</dim>
					<dim>1</dim>
					<dim>3</dim>
					<dim>3</dim>
				</port>
			</output>
		</layer>
		<layer id="95" name="GroupConvolution_1207" type="GroupConvolution" version="opset1">
			<data strides="1, 1" pads_begin="1, 1" pads_end="1, 1" dilations="1, 1" auto_pad="explicit"/>
			<rt_info>
				<attribute name="fused_names" version="0" value="GroupConvolution_1207, Reshape_1141"/>
			</rt_info>
			<input>
				<port id="0" precision="FP32">
					<dim>1</dim>
					<dim>32</dim>
					<dim>56</dim>
					<dim>56</dim>
				</port>
				<port id="1" precision="FP32">
					<dim>32</dim>
					<dim>1</dim>
					<dim>1</dim>
					<dim>3</dim>
					<dim>3</dim>
				</port>
			</input>
			<output>
				<port id="2" precision="FP32">
					<dim>1</dim>
					<dim>32</dim>
					<dim>56</dim>
					<dim>56</dim>
				</port>
			</output>
		</layer>
		<layer id="96" name="Reshape_1227_compressed" type="Const" version="opset1">
			<data element_type="f16" shape="1, 32, 1, 1" offset="6140" size="64"/>
			<output>
				<port id="0" precision="FP16">
					<dim>1</dim>
					<dim>32</dim>
					<dim>1</dim>
					<dim>1</dim>
				</port>
			</output>
		</layer>
		<layer id="97" name="Reshape_1227" type="Convert" version="opset1">
			<data destination_type="f32"/>
			<rt_info>
				<attribute name="decompression" version="0"/>
			</rt_info>
			<input>
				<port id="0" precision="FP16">
					<dim>1</dim>
					<dim>32</dim>
					<dim>1</dim>
					<dim>1</dim>
				</port>
			</input>
			<output>
				<port id="1" precision="FP32">
					<dim>1</dim>
					<dim>32</dim>
					<dim>1</dim>
					<dim>1</dim>
				</port>
			</output>
		</layer>
		<layer id="98" name="2034" type="Add" version="opset1">
			<data auto_broadcast="numpy"/>
			<rt_info>
				<attribute name="fused_names" version="0" value="2034, Concat_1226, Reshape_1227"/>
			</rt_info>
			<input>
				<port id="0" precision="FP32">
					<dim>1</dim>
					<dim>32</dim>
					<dim>56</dim>
					<dim>56</dim>
				</port>
				<port id="1" precision="FP32">
					<dim>1</dim>
					<dim>32</dim>
					<dim>1</dim>
					<dim>1</dim>
				</port>
			</input>
			<output>
				<port id="2" precision="FP32" names="2034">
					<dim>1</dim>
					<dim>32</dim>
					<dim>56</dim>
					<dim>56</dim>
				</port>
			</output>
		</layer>
		<layer id="99" name="2038_compressed" type="Const" version="opset1">
			<data element_type="f16" shape="16, 32, 3, 3" offset="6204" size="9216"/>
			<output>
				<port id="0" precision="FP16">
					<dim>16</dim>
					<dim>32</dim>
					<dim>3</dim>
					<dim>3</dim>
				</port>
			</output>
		</layer>
		<layer id="100" name="2038" type="Convert" version="opset1">
			<data destination_type="f32"/>
			<rt_info>
				<attribute name="decompression" version="0"/>
				<attribute name="fused_names" version="0" value="2038"/>
			</rt_info>
			<input>
				<port id="0" precision="FP16">
					<dim>16</dim>
					<dim>32</dim>
					<dim>3</dim>
					<dim>3</dim>
				</port>
			</input>
			<output>
				<port id="1" precision="FP32" names="2038">
					<dim>16</dim>
					<dim>32</dim>
					<dim>3</dim>
					<dim>3</dim>
				</port>
			</output>
		</layer>
		<layer id="101" name="Convolution_1255" type="Convolution" version="opset1">
			<data strides="1, 1" dilations="1, 1" pads_begin="1, 1" pads_end="1, 1" auto_pad="explicit"/>
			<rt_info>
				<attribute name="fused_names" version="0" value="Convolution_1255"/>
			</rt_info>
			<input>
				<port id="0" precision="FP32">
					<dim>1</dim>
					<dim>32</dim>
					<dim>56</dim>
					<dim>56</dim>
				</port>
				<port id="1" precision="FP32">
					<dim>16</dim>
					<dim>32</dim>
					<dim>3</dim>
					<dim>3</dim>
				</port>
			</input>
			<output>
				<port id="2" precision="FP32">
					<dim>1</dim>
					<dim>16</dim>
					<dim>56</dim>
					<dim>56</dim>
				</port>
			</output>
		</layer>
		<layer id="102" name="Reshape_1275_compressed" type="Const" version="opset1">
			<data element_type="f16" shape="1, 16, 1, 1" offset="15420" size="32"/>
			<output>
				<port id="0" precision="FP16">
					<dim>1</dim>
					<dim>16</dim>
					<dim>1</dim>
					<dim>1</dim>
				</port>
			</output>
		</layer>
		<layer id="103" name="Reshape_1275" type="Convert" version="opset1">
			<data destination_type="f32"/>
			<rt_info>
				<attribute name="decompression" version="0"/>
			</rt_info>
			<input>
				<port id="0" precision="FP16">
					<dim>1</dim>
					<dim>16</dim>
					<dim>1</dim>
					<dim>1</dim>
				</port>
			</input>
			<output>
				<port id="1" precision="FP32">
					<dim>1</dim>
					<dim>16</dim>
					<dim>1</dim>
					<dim>1</dim>
				</port>
			</output>
		</layer>
		<layer id="104" name="2037" type="Add" version="opset1">
			<data auto_broadcast="numpy"/>
			<rt_info>
				<attribute name="fused_names" version="0" value="2037, Concat_1274, Reshape_1275"/>
			</rt_info>
			<input>
				<port id="0" precision="FP32">
					<dim>1</dim>
					<dim>16</dim>
					<dim>56</dim>
					<dim>56</dim>
				</port>
				<port id="1" precision="FP32">
					<dim>1</dim>
					<dim>16</dim>
					<dim>1</dim>
					<dim>1</dim>
				</port>
			</input>
			<output>
				<port id="2" precision="FP32" names="2037">
					<dim>1</dim>
					<dim>16</dim>
					<dim>56</dim>
					<dim>56</dim>
				</port>
			</output>
		</layer>
		<layer id="105" name="678" type="ReLU" version="opset1">
			<rt_info>
				<attribute name="fused_names" version="0" value="678"/>
			</rt_info>
			<input>
				<port id="0" precision="FP32">
					<dim>1</dim>
					<dim>16</dim>
					<dim>56</dim>
					<dim>56</dim>
				</port>
			</input>
			<output>
				<port id="1" precision="FP32" names="678">
					<dim>1</dim>
					<dim>16</dim>
					<dim>56</dim>
					<dim>56</dim>
				</port>
			</output>
		</layer>
		<layer id="106" name="Constant_65800" type="Const" version="opset1">
			<data element_type="i64" shape="2" offset="1792" size="16"/>
			<rt_info>
				<attribute name="fused_names" version="0" value="685, 694, Broadcast_1487"/>
			</rt_info>
			<output>
				<port id="0" precision="I64">
					<dim>2</dim>
				</port>
			</output>
		</layer>
		<layer id="107" name="Constant_65801" type="Const" version="opset1">
			<data element_type="i64" shape="2" offset="1792" size="16"/>
			<rt_info>
				<attribute name="fused_names" version="0" value="685, 694, Broadcast_1487"/>
			</rt_info>
			<output>
				<port id="0" precision="I64">
					<dim>2</dim>
				</port>
			</output>
		</layer>
		<layer id="108" name="Constant_65797" type="Const" version="opset1">
			<data element_type="i64" shape="1" offset="1808" size="8"/>
			<rt_info>
				<attribute name="fused_names" version="0" value="685, 694, Broadcast_1487"/>
			</rt_info>
			<output>
				<port id="0" precision="I64">
					<dim>1</dim>
				</port>
			</output>
		</layer>
		<layer id="109" name="684" type="ShapeOf" version="opset3">
			<data output_type="i64"/>
			<rt_info>
				<attribute name="fused_names" version="0" value="684"/>
			</rt_info>
			<input>
				<port id="0" precision="FP32">
					<dim>1</dim>
					<dim>16</dim>
					<dim>56</dim>
					<dim>56</dim>
				</port>
			</input>
			<output>
				<port id="1" precision="I64" names="684">
					<dim>4</dim>
				</port>
			</output>
		</layer>
		<layer id="110" name="685" type="Const" version="opset1">
			<data element_type="i64" shape="1" offset="1808" size="8"/>
			<rt_info>
				<attribute name="fused_names" version="0" value="685"/>
			</rt_info>
			<output>
				<port id="0" precision="I64" names="685">
					<dim>1</dim>
				</port>
			</output>
		</layer>
		<layer id="111" name="Constant_1476" type="Const" version="opset1">
			<data element_type="i64" shape="" offset="1816" size="8"/>
			<rt_info>
				<attribute name="fused_names" version="0" value="Constant_1476"/>
			</rt_info>
			<output>
				<port id="0" precision="I64"/>
			</output>
		</layer>
		<layer id="112" name="686" type="Gather" version="opset8">
			<data batch_dims="0"/>
			<rt_info>
				<attribute name="fused_names" version="0" value="685, 686, Constant_1476"/>
			</rt_info>
			<input>
				<port id="0" precision="I64">
					<dim>4</dim>
				</port>
				<port id="1" precision="I64">
					<dim>1</dim>
				</port>
				<port id="2" precision="I64"/>
			</input>
			<output>
				<port id="3" precision="I64" names="686">
					<dim>1</dim>
				</port>
			</output>
		</layer>
		<layer id="113" name="688" type="Const" version="opset1">
			<data element_type="i64" shape="1" offset="1808" size="8"/>
			<rt_info>
				<attribute name="fused_names" version="0" value="688"/>
			</rt_info>
			<output>
				<port id="0" precision="I64" names="688">
					<dim>1</dim>
				</port>
			</output>
		</layer>
		<layer id="114" name="689" type="Add" version="opset1">
			<data auto_broadcast="numpy"/>
			<rt_info>
				<attribute name="fused_names" version="0" value="688, 689"/>
			</rt_info>
			<input>
				<port id="0" precision="I64">
					<dim>1</dim>
				</port>
				<port id="1" precision="I64">
					<dim>1</dim>
				</port>
			</input>
			<output>
				<port id="2" precision="I64" names="689">
					<dim>1</dim>
				</port>
			</output>
		</layer>
		<layer id="115" name="690" type="Const" version="opset1">
			<data element_type="i64" shape="1" offset="1824" size="8"/>
			<rt_info>
				<attribute name="fused_names" version="0" value="690"/>
			</rt_info>
			<output>
				<port id="0" precision="I64" names="690">
					<dim>1</dim>
				</port>
			</output>
		</layer>
		<layer id="116" name="691" type="Divide" version="opset1">
			<data auto_broadcast="numpy" m_pythondiv="true"/>
			<rt_info>
				<attribute name="fused_names" version="0" value="690, 691, 692, 693"/>
			</rt_info>
			<input>
				<port id="0" precision="I64">
					<dim>1</dim>
				</port>
				<port id="1" precision="I64">
					<dim>1</dim>
				</port>
			</input>
			<output>
				<port id="2" precision="I64" names="691,693">
					<dim>1</dim>
				</port>
			</output>
		</layer>
		<layer id="117" name="Constant_65796" type="Const" version="opset1">
			<data element_type="i32" shape="1" offset="1832" size="4"/>
			<rt_info>
				<attribute name="fused_names" version="0" value="685, 694, Broadcast_1487"/>
			</rt_info>
			<output>
				<port id="0" precision="I32">
					<dim>1</dim>
				</port>
			</output>
		</layer>
		<layer id="118" name="ScatterUpdate_65802" type="ScatterUpdate" version="opset3">
			<rt_info>
				<attribute name="fused_names" version="0" value="685, 694, Broadcast_1487"/>
			</rt_info>
			<input>
				<port id="0" precision="I64">
					<dim>2</dim>
				</port>
				<port id="1" precision="I64">
					<dim>1</dim>
				</port>
				<port id="2" precision="I64">
					<dim>1</dim>
				</port>
				<port id="3" precision="I32">
					<dim>1</dim>
				</port>
			</input>
			<output>
				<port id="4" precision="I64">
					<dim>2</dim>
				</port>
			</output>
		</layer>
		<layer id="119" name="Constant_65805" type="Const" version="opset1">
			<data element_type="i64" shape="2" offset="1836" size="16"/>
			<rt_info>
				<attribute name="fused_names" version="0" value="685, 694, Broadcast_1487"/>
			</rt_info>
			<output>
				<port id="0" precision="I64">
					<dim>2</dim>
				</port>
			</output>
		</layer>
		<layer id="120" name="694" type="StridedSlice" version="opset1">
			<data begin_mask="1, 0" end_mask="1, 0" new_axis_mask="" shrink_axis_mask="" ellipsis_mask=""/>
			<rt_info>
				<attribute name="fused_names" version="0" value="685, 694, Broadcast_1487"/>
			</rt_info>
			<input>
				<port id="0" precision="FP32">
					<dim>1</dim>
					<dim>16</dim>
					<dim>56</dim>
					<dim>56</dim>
				</port>
				<port id="1" precision="I64">
					<dim>2</dim>
				</port>
				<port id="2" precision="I64">
					<dim>2</dim>
				</port>
				<port id="3" precision="I64">
					<dim>2</dim>
				</port>
			</input>
			<output>
				<port id="4" precision="FP32" names="694">
					<dim>1</dim>
					<dim>8</dim>
					<dim>56</dim>
					<dim>56</dim>
				</port>
			</output>
		</layer>
		<layer id="121" name="Constant_65877" type="Const" version="opset1">
			<data element_type="i64" shape="2" offset="1792" size="16"/>
			<rt_info>
				<attribute name="fused_names" version="0" value="685, 697, Broadcast_1556"/>
			</rt_info>
			<output>
				<port id="0" precision="I64">
					<dim>2</dim>
				</port>
			</output>
		</layer>
		<layer id="122" name="Constant_65876" type="Const" version="opset1">
			<data element_type="i64" shape="1" offset="1808" size="8"/>
			<rt_info>
				<attribute name="fused_names" version="0" value="685, 697, Broadcast_1556"/>
			</rt_info>
			<output>
				<port id="0" precision="I64">
					<dim>1</dim>
				</port>
			</output>
		</layer>
		<layer id="123" name="Constant_65875" type="Const" version="opset1">
			<data element_type="i32" shape="1" offset="1832" size="4"/>
			<rt_info>
				<attribute name="fused_names" version="0" value="685, 697, Broadcast_1556"/>
			</rt_info>
			<output>
				<port id="0" precision="I32">
					<dim>1</dim>
				</port>
			</output>
		</layer>
		<layer id="124" name="ScatterUpdate_65878" type="ScatterUpdate" version="opset3">
			<rt_info>
				<attribute name="fused_names" version="0" value="685, 697, Broadcast_1556"/>
			</rt_info>
			<input>
				<port id="0" precision="I64">
					<dim>2</dim>
				</port>
				<port id="1" precision="I64">
					<dim>1</dim>
				</port>
				<port id="2" precision="I64">
					<dim>1</dim>
				</port>
				<port id="3" precision="I32">
					<dim>1</dim>
				</port>
			</input>
			<output>
				<port id="4" precision="I64">
					<dim>2</dim>
				</port>
			</output>
		</layer>
		<layer id="125" name="Constant_65879" type="Const" version="opset1">
			<data element_type="i64" shape="2" offset="1792" size="16"/>
			<rt_info>
				<attribute name="fused_names" version="0" value="685, 697, Broadcast_1556"/>
			</rt_info>
			<output>
				<port id="0" precision="I64">
					<dim>2</dim>
				</port>
			</output>
		</layer>
		<layer id="126" name="695" type="Const" version="opset1">
			<data element_type="i64" shape="1" offset="1824" size="8"/>
			<rt_info>
				<attribute name="fused_names" version="0" value="695"/>
			</rt_info>
			<output>
				<port id="0" precision="I64" names="695">
					<dim>1</dim>
				</port>
			</output>
		</layer>
		<layer id="127" name="696" type="Multiply" version="opset1">
			<data auto_broadcast="numpy"/>
			<rt_info>
				<attribute name="fused_names" version="0" value="695, 696"/>
			</rt_info>
			<input>
				<port id="0" precision="I64">
					<dim>1</dim>
				</port>
				<port id="1" precision="I64">
					<dim>1</dim>
				</port>
			</input>
			<output>
				<port id="2" precision="I64" names="696">
					<dim>1</dim>
				</port>
			</output>
		</layer>
		<layer id="128" name="ScatterUpdate_65880" type="ScatterUpdate" version="opset3">
			<rt_info>
				<attribute name="fused_names" version="0" value="685, 697, Broadcast_1556"/>
			</rt_info>
			<input>
				<port id="0" precision="I64">
					<dim>2</dim>
				</port>
				<port id="1" precision="I64">
					<dim>1</dim>
				</port>
				<port id="2" precision="I64">
					<dim>1</dim>
				</port>
				<port id="3" precision="I32">
					<dim>1</dim>
				</port>
			</input>
			<output>
				<port id="4" precision="I64">
					<dim>2</dim>
				</port>
			</output>
		</layer>
		<layer id="129" name="Constant_65883" type="Const" version="opset1">
			<data element_type="i64" shape="2" offset="1836" size="16"/>
			<rt_info>
				<attribute name="fused_names" version="0" value="685, 697, Broadcast_1556"/>
			</rt_info>
			<output>
				<port id="0" precision="I64">
					<dim>2</dim>
				</port>
			</output>
		</layer>
		<layer id="130" name="697" type="StridedSlice" version="opset1">
			<data begin_mask="1, 0" end_mask="1, 0" new_axis_mask="" shrink_axis_mask="" ellipsis_mask=""/>
			<rt_info>
				<attribute name="fused_names" version="0" value="685, 697, 713, Broadcast_1556"/>
			</rt_info>
			<input>
				<port id="0" precision="FP32">
					<dim>1</dim>
					<dim>16</dim>
					<dim>56</dim>
					<dim>56</dim>
				</port>
				<port id="1" precision="I64">
					<dim>2</dim>
				</port>
				<port id="2" precision="I64">
					<dim>2</dim>
				</port>
				<port id="3" precision="I64">
					<dim>2</dim>
				</port>
			</input>
			<output>
				<port id="4" precision="FP32" names="697,713">
					<dim>1</dim>
					<dim>8</dim>
					<dim>56</dim>
					<dim>56</dim>
				</port>
			</output>
		</layer>
		<layer id="131" name="714" type="AvgPool" version="opset1">
			<data kernel="2, 2" strides="2, 2" pads_begin="0, 0" pads_end="0, 0" exclude-pad="true" auto_pad="explicit" rounding_type="floor"/>
			<rt_info>
				<attribute name="fused_names" version="0" value="714"/>
			</rt_info>
			<input>
				<port id="0" precision="FP32">
					<dim>1</dim>
					<dim>8</dim>
					<dim>56</dim>
					<dim>56</dim>
				</port>
			</input>
			<output>
				<port id="1" precision="FP32" names="714">
					<dim>1</dim>
					<dim>8</dim>
					<dim>28</dim>
					<dim>28</dim>
				</port>
			</output>
		</layer>
		<layer id="132" name="Reshape_1311_compressed" type="Const" version="opset1">
			<data element_type="f16" shape="32, 1, 1, 3, 3" offset="15452" size="576"/>
			<output>
				<port id="0" precision="FP16">
					<dim>32</dim>
					<dim>1</dim>
					<dim>1</dim>
					<dim>3</dim>
					<dim>3</dim>
				</port>
			</output>
		</layer>
		<layer id="133" name="Reshape_1311" type="Convert" version="opset1">
			<data destination_type="f32"/>
			<rt_info>
				<attribute name="decompression" version="0"/>
			</rt_info>
			<input>
				<port id="0" precision="FP16">
					<dim>32</dim>
					<dim>1</dim>
					<dim>1</dim>
					<dim>3</dim>
					<dim>3</dim>
				</port>
			</input>
			<output>
				<port id="1" precision="FP32">
					<dim>32</dim>
					<dim>1</dim>
					<dim>1</dim>
					<dim>3</dim>
					<dim>3</dim>
				</port>
			</output>
		</layer>
		<layer id="134" name="GroupConvolution_1377" type="GroupConvolution" version="opset1">
			<data strides="2, 2" pads_begin="1, 1" pads_end="1, 1" dilations="1, 1" auto_pad="explicit"/>
			<rt_info>
				<attribute name="fused_names" version="0" value="GroupConvolution_1377, Reshape_1311"/>
			</rt_info>
			<input>
				<port id="0" precision="FP32">
					<dim>1</dim>
					<dim>32</dim>
					<dim>56</dim>
					<dim>56</dim>
				</port>
				<port id="1" precision="FP32">
					<dim>32</dim>
					<dim>1</dim>
					<dim>1</dim>
					<dim>3</dim>
					<dim>3</dim>
				</port>
			</input>
			<output>
				<port id="2" precision="FP32">
					<dim>1</dim>
					<dim>32</dim>
					<dim>28</dim>
					<dim>28</dim>
				</port>
			</output>
		</layer>
		<layer id="135" name="Reshape_1397_compressed" type="Const" version="opset1">
			<data element_type="f16" shape="1, 32, 1, 1" offset="16028" size="64"/>
			<output>
				<port id="0" precision="FP16">
					<dim>1</dim>
					<dim>32</dim>
					<dim>1</dim>
					<dim>1</dim>
				</port>
			</output>
		</layer>
		<layer id="136" name="Reshape_1397" type="Convert" version="opset1">
			<data destination_type="f32"/>
			<rt_info>
				<attribute name="decompression" version="0"/>
			</rt_info>
			<input>
				<port id="0" precision="FP16">
					<dim>1</dim>
					<dim>32</dim>
					<dim>1</dim>
					<dim>1</dim>
				</port>
			</input>
			<output>
				<port id="1" precision="FP32">
					<dim>1</dim>
					<dim>32</dim>
					<dim>1</dim>
					<dim>1</dim>
				</port>
			</output>
		</layer>
		<layer id="137" name="2040" type="Add" version="opset1">
			<data auto_broadcast="numpy"/>
			<rt_info>
				<attribute name="fused_names" version="0" value="2040, Concat_1396, Reshape_1397"/>
			</rt_info>
			<input>
				<port id="0" precision="FP32">
					<dim>1</dim>
					<dim>32</dim>
					<dim>28</dim>
					<dim>28</dim>
				</port>
				<port id="1" precision="FP32">
					<dim>1</dim>
					<dim>32</dim>
					<dim>1</dim>
					<dim>1</dim>
				</port>
			</input>
			<output>
				<port id="2" precision="FP32" names="2040">
					<dim>1</dim>
					<dim>32</dim>
					<dim>28</dim>
					<dim>28</dim>
				</port>
			</output>
		</layer>
		<layer id="138" name="2044_compressed" type="Const" version="opset1">
			<data element_type="f16" shape="32, 32, 1, 1" offset="16092" size="2048"/>
			<output>
				<port id="0" precision="FP16">
					<dim>32</dim>
					<dim>32</dim>
					<dim>1</dim>
					<dim>1</dim>
				</port>
			</output>
		</layer>
		<layer id="139" name="2044" type="Convert" version="opset1">
			<data destination_type="f32"/>
			<rt_info>
				<attribute name="decompression" version="0"/>
				<attribute name="fused_names" version="0" value="2044"/>
			</rt_info>
			<input>
				<port id="0" precision="FP16">
					<dim>32</dim>
					<dim>32</dim>
					<dim>1</dim>
					<dim>1</dim>
				</port>
			</input>
			<output>
				<port id="1" precision="FP32" names="2044">
					<dim>32</dim>
					<dim>32</dim>
					<dim>1</dim>
					<dim>1</dim>
				</port>
			</output>
		</layer>
		<layer id="140" name="Convolution_1425" type="Convolution" version="opset1">
			<data strides="1, 1" dilations="1, 1" pads_begin="0, 0" pads_end="0, 0" auto_pad="explicit"/>
			<rt_info>
				<attribute name="fused_names" version="0" value="Convolution_1425"/>
			</rt_info>
			<input>
				<port id="0" precision="FP32">
					<dim>1</dim>
					<dim>32</dim>
					<dim>28</dim>
					<dim>28</dim>
				</port>
				<port id="1" precision="FP32">
					<dim>32</dim>
					<dim>32</dim>
					<dim>1</dim>
					<dim>1</dim>
				</port>
			</input>
			<output>
				<port id="2" precision="FP32">
					<dim>1</dim>
					<dim>32</dim>
					<dim>28</dim>
					<dim>28</dim>
				</port>
			</output>
		</layer>
		<layer id="141" name="Reshape_1445_compressed" type="Const" version="opset1">
			<data element_type="f16" shape="1, 32, 1, 1" offset="18140" size="64"/>
			<output>
				<port id="0" precision="FP16">
					<dim>1</dim>
					<dim>32</dim>
					<dim>1</dim>
					<dim>1</dim>
				</port>
			</output>
		</layer>
		<layer id="142" name="Reshape_1445" type="Convert" version="opset1">
			<data destination_type="f32"/>
			<rt_info>
				<attribute name="decompression" version="0"/>
			</rt_info>
			<input>
				<port id="0" precision="FP16">
					<dim>1</dim>
					<dim>32</dim>
					<dim>1</dim>
					<dim>1</dim>
				</port>
			</input>
			<output>
				<port id="1" precision="FP32">
					<dim>1</dim>
					<dim>32</dim>
					<dim>1</dim>
					<dim>1</dim>
				</port>
			</output>
		</layer>
		<layer id="143" name="2043" type="Add" version="opset1">
			<data auto_broadcast="numpy"/>
			<rt_info>
				<attribute name="fused_names" version="0" value="2043, Concat_1444, Reshape_1445"/>
			</rt_info>
			<input>
				<port id="0" precision="FP32">
					<dim>1</dim>
					<dim>32</dim>
					<dim>28</dim>
					<dim>28</dim>
				</port>
				<port id="1" precision="FP32">
					<dim>1</dim>
					<dim>32</dim>
					<dim>1</dim>
					<dim>1</dim>
				</port>
			</input>
			<output>
				<port id="2" precision="FP32" names="2043">
					<dim>1</dim>
					<dim>32</dim>
					<dim>28</dim>
					<dim>28</dim>
				</port>
			</output>
		</layer>
		<layer id="144" name="683" type="ReLU" version="opset1">
			<rt_info>
				<attribute name="fused_names" version="0" value="683"/>
			</rt_info>
			<input>
				<port id="0" precision="FP32">
					<dim>1</dim>
					<dim>32</dim>
					<dim>28</dim>
					<dim>28</dim>
				</port>
			</input>
			<output>
				<port id="1" precision="FP32" names="683">
					<dim>1</dim>
					<dim>32</dim>
					<dim>28</dim>
					<dim>28</dim>
				</port>
			</output>
		</layer>
		<layer id="145" name="Constant_66023" type="Const" version="opset1">
			<data element_type="i64" shape="2" offset="1792" size="16"/>
			<rt_info>
				<attribute name="fused_names" version="0" value="699, 711, Broadcast_1704"/>
			</rt_info>
			<output>
				<port id="0" precision="I64">
					<dim>2</dim>
				</port>
			</output>
		</layer>
		<layer id="146" name="Constant_66022" type="Const" version="opset1">
			<data element_type="i64" shape="1" offset="1808" size="8"/>
			<rt_info>
				<attribute name="fused_names" version="0" value="699, 711, Broadcast_1704"/>
			</rt_info>
			<output>
				<port id="0" precision="I64">
					<dim>1</dim>
				</port>
			</output>
		</layer>
		<layer id="147" name="698" type="ShapeOf" version="opset3">
			<data output_type="i64"/>
			<rt_info>
				<attribute name="fused_names" version="0" value="698"/>
			</rt_info>
			<input>
				<port id="0" precision="FP32">
					<dim>1</dim>
					<dim>32</dim>
					<dim>28</dim>
					<dim>28</dim>
				</port>
			</input>
			<output>
				<port id="1" precision="I64" names="698">
					<dim>4</dim>
				</port>
			</output>
		</layer>
		<layer id="148" name="699" type="Const" version="opset1">
			<data element_type="i64" shape="1" offset="1808" size="8"/>
			<rt_info>
				<attribute name="fused_names" version="0" value="699"/>
			</rt_info>
			<output>
				<port id="0" precision="I64" names="699">
					<dim>1</dim>
				</port>
			</output>
		</layer>
		<layer id="149" name="Constant_1624" type="Const" version="opset1">
			<data element_type="i64" shape="" offset="1816" size="8"/>
			<rt_info>
				<attribute name="fused_names" version="0" value="Constant_1624"/>
			</rt_info>
			<output>
				<port id="0" precision="I64"/>
			</output>
		</layer>
		<layer id="150" name="700" type="Gather" version="opset8">
			<data batch_dims="0"/>
			<rt_info>
				<attribute name="fused_names" version="0" value="699, 700, Constant_1624"/>
			</rt_info>
			<input>
				<port id="0" precision="I64">
					<dim>4</dim>
				</port>
				<port id="1" precision="I64">
					<dim>1</dim>
				</port>
				<port id="2" precision="I64"/>
			</input>
			<output>
				<port id="3" precision="I64" names="700">
					<dim>1</dim>
				</port>
			</output>
		</layer>
		<layer id="151" name="702" type="Const" version="opset1">
			<data element_type="i64" shape="1" offset="1808" size="8"/>
			<rt_info>
				<attribute name="fused_names" version="0" value="702"/>
			</rt_info>
			<output>
				<port id="0" precision="I64" names="702">
					<dim>1</dim>
				</port>
			</output>
		</layer>
		<layer id="152" name="703" type="Add" version="opset1">
			<data auto_broadcast="numpy"/>
			<rt_info>
				<attribute name="fused_names" version="0" value="702, 703"/>
			</rt_info>
			<input>
				<port id="0" precision="I64">
					<dim>1</dim>
				</port>
				<port id="1" precision="I64">
					<dim>1</dim>
				</port>
			</input>
			<output>
				<port id="2" precision="I64" names="703">
					<dim>1</dim>
				</port>
			</output>
		</layer>
		<layer id="153" name="704" type="Const" version="opset1">
			<data element_type="i64" shape="1" offset="1824" size="8"/>
			<rt_info>
				<attribute name="fused_names" version="0" value="704"/>
			</rt_info>
			<output>
				<port id="0" precision="I64" names="704">
					<dim>1</dim>
				</port>
			</output>
		</layer>
		<layer id="154" name="705" type="Divide" version="opset1">
			<data auto_broadcast="numpy" m_pythondiv="true"/>
			<rt_info>
				<attribute name="fused_names" version="0" value="704, 705, 706, 707"/>
			</rt_info>
			<input>
				<port id="0" precision="I64">
					<dim>1</dim>
				</port>
				<port id="1" precision="I64">
					<dim>1</dim>
				</port>
			</input>
			<output>
				<port id="2" precision="I64" names="705,707">
					<dim>1</dim>
				</port>
			</output>
		</layer>
		<layer id="155" name="Constant_66021" type="Const" version="opset1">
			<data element_type="i32" shape="1" offset="1832" size="4"/>
			<rt_info>
				<attribute name="fused_names" version="0" value="699, 711, Broadcast_1704"/>
			</rt_info>
			<output>
				<port id="0" precision="I32">
					<dim>1</dim>
				</port>
			</output>
		</layer>
		<layer id="156" name="ScatterUpdate_66024" type="ScatterUpdate" version="opset3">
			<rt_info>
				<attribute name="fused_names" version="0" value="699, 711, Broadcast_1704"/>
			</rt_info>
			<input>
				<port id="0" precision="I64">
					<dim>2</dim>
				</port>
				<port id="1" precision="I64">
					<dim>1</dim>
				</port>
				<port id="2" precision="I64">
					<dim>1</dim>
				</port>
				<port id="3" precision="I32">
					<dim>1</dim>
				</port>
			</input>
			<output>
				<port id="4" precision="I64">
					<dim>2</dim>
				</port>
			</output>
		</layer>
		<layer id="157" name="Constant_66025" type="Const" version="opset1">
			<data element_type="i64" shape="2" offset="1792" size="16"/>
			<rt_info>
				<attribute name="fused_names" version="0" value="699, 711, Broadcast_1704"/>
			</rt_info>
			<output>
				<port id="0" precision="I64">
					<dim>2</dim>
				</port>
			</output>
		</layer>
		<layer id="158" name="709" type="Const" version="opset1">
			<data element_type="i64" shape="1" offset="1824" size="8"/>
			<rt_info>
				<attribute name="fused_names" version="0" value="709"/>
			</rt_info>
			<output>
				<port id="0" precision="I64" names="709">
					<dim>1</dim>
				</port>
			</output>
		</layer>
		<layer id="159" name="710" type="Multiply" version="opset1">
			<data auto_broadcast="numpy"/>
			<rt_info>
				<attribute name="fused_names" version="0" value="709, 710"/>
			</rt_info>
			<input>
				<port id="0" precision="I64">
					<dim>1</dim>
				</port>
				<port id="1" precision="I64">
					<dim>1</dim>
				</port>
			</input>
			<output>
				<port id="2" precision="I64" names="710">
					<dim>1</dim>
				</port>
			</output>
		</layer>
		<layer id="160" name="ScatterUpdate_66026" type="ScatterUpdate" version="opset3">
			<rt_info>
				<attribute name="fused_names" version="0" value="699, 711, Broadcast_1704"/>
			</rt_info>
			<input>
				<port id="0" precision="I64">
					<dim>2</dim>
				</port>
				<port id="1" precision="I64">
					<dim>1</dim>
				</port>
				<port id="2" precision="I64">
					<dim>1</dim>
				</port>
				<port id="3" precision="I32">
					<dim>1</dim>
				</port>
			</input>
			<output>
				<port id="4" precision="I64">
					<dim>2</dim>
				</port>
			</output>
		</layer>
		<layer id="161" name="Constant_66029" type="Const" version="opset1">
			<data element_type="i64" shape="2" offset="1836" size="16"/>
			<rt_info>
				<attribute name="fused_names" version="0" value="699, 711, Broadcast_1704"/>
			</rt_info>
			<output>
				<port id="0" precision="I64">
					<dim>2</dim>
				</port>
			</output>
		</layer>
		<layer id="162" name="711" type="StridedSlice" version="opset1">
			<data begin_mask="1, 0" end_mask="1, 0" new_axis_mask="" shrink_axis_mask="" ellipsis_mask=""/>
			<rt_info>
				<attribute name="fused_names" version="0" value="699, 711, Broadcast_1704"/>
			</rt_info>
			<input>
				<port id="0" precision="FP32">
					<dim>1</dim>
					<dim>32</dim>
					<dim>28</dim>
					<dim>28</dim>
				</port>
				<port id="1" precision="I64">
					<dim>2</dim>
				</port>
				<port id="2" precision="I64">
					<dim>2</dim>
				</port>
				<port id="3" precision="I64">
					<dim>2</dim>
				</port>
			</input>
			<output>
				<port id="4" precision="FP32" names="711">
					<dim>1</dim>
					<dim>16</dim>
					<dim>28</dim>
					<dim>28</dim>
				</port>
			</output>
		</layer>
		<layer id="163" name="715" type="Concat" version="opset1">
			<data axis="1"/>
			<rt_info>
				<attribute name="fused_names" version="0" value="715"/>
			</rt_info>
			<input>
				<port id="0" precision="FP32">
					<dim>1</dim>
					<dim>8</dim>
					<dim>28</dim>
					<dim>28</dim>
				</port>
				<port id="1" precision="FP32">
					<dim>1</dim>
					<dim>16</dim>
					<dim>28</dim>
					<dim>28</dim>
				</port>
			</input>
			<output>
				<port id="2" precision="FP32" names="715">
					<dim>1</dim>
					<dim>24</dim>
					<dim>28</dim>
					<dim>28</dim>
				</port>
			</output>
		</layer>
		<layer id="164" name="stage0.0.layers.0.cross_resolution_weighting.conv1.0.weight_compressed" type="Const" version="opset1">
			<data element_type="f16" shape="3, 24, 1, 1" offset="18204" size="144"/>
			<output>
				<port id="0" precision="FP16">
					<dim>3</dim>
					<dim>24</dim>
					<dim>1</dim>
					<dim>1</dim>
				</port>
			</output>
		</layer>
		<layer id="165" name="stage0.0.layers.0.cross_resolution_weighting.conv1.0.weight" type="Convert" version="opset1">
			<data destination_type="f32"/>
			<rt_info>
				<attribute name="decompression" version="0"/>
				<attribute name="fused_names" version="0" value="stage0.0.layers.0.cross_resolution_weighting.conv1.0.weight"/>
			</rt_info>
			<input>
				<port id="0" precision="FP16">
					<dim>3</dim>
					<dim>24</dim>
					<dim>1</dim>
					<dim>1</dim>
				</port>
			</input>
			<output>
				<port id="1" precision="FP32" names="stage0.0.layers.0.cross_resolution_weighting.conv1.0.weight">
					<dim>3</dim>
					<dim>24</dim>
					<dim>1</dim>
					<dim>1</dim>
				</port>
			</output>
		</layer>
		<layer id="166" name="Convolution_1777" type="Convolution" version="opset1">
			<data strides="1, 1" dilations="1, 1" pads_begin="0, 0" pads_end="0, 0" auto_pad="explicit"/>
			<rt_info>
				<attribute name="fused_names" version="0" value="Convolution_1777"/>
			</rt_info>
			<input>
				<port id="0" precision="FP32">
					<dim>1</dim>
					<dim>24</dim>
					<dim>28</dim>
					<dim>28</dim>
				</port>
				<port id="1" precision="FP32">
					<dim>3</dim>
					<dim>24</dim>
					<dim>1</dim>
					<dim>1</dim>
				</port>
			</input>
			<output>
				<port id="2" precision="FP32">
					<dim>1</dim>
					<dim>3</dim>
					<dim>28</dim>
					<dim>28</dim>
				</port>
			</output>
		</layer>
		<layer id="167" name="Reshape_1797_compressed" type="Const" version="opset1">
			<data element_type="f16" shape="1, 3, 1, 1" offset="18348" size="6"/>
			<output>
				<port id="0" precision="FP16">
					<dim>1</dim>
					<dim>3</dim>
					<dim>1</dim>
					<dim>1</dim>
				</port>
			</output>
		</layer>
		<layer id="168" name="Reshape_1797" type="Convert" version="opset1">
			<data destination_type="f32"/>
			<rt_info>
				<attribute name="decompression" version="0"/>
			</rt_info>
			<input>
				<port id="0" precision="FP16">
					<dim>1</dim>
					<dim>3</dim>
					<dim>1</dim>
					<dim>1</dim>
				</port>
			</input>
			<output>
				<port id="1" precision="FP32">
					<dim>1</dim>
					<dim>3</dim>
					<dim>1</dim>
					<dim>1</dim>
				</port>
			</output>
		</layer>
		<layer id="169" name="716" type="Add" version="opset1">
			<data auto_broadcast="numpy"/>
			<rt_info>
				<attribute name="fused_names" version="0" value="716, Concat_1796, Reshape_1797"/>
			</rt_info>
			<input>
				<port id="0" precision="FP32">
					<dim>1</dim>
					<dim>3</dim>
					<dim>28</dim>
					<dim>28</dim>
				</port>
				<port id="1" precision="FP32">
					<dim>1</dim>
					<dim>3</dim>
					<dim>1</dim>
					<dim>1</dim>
				</port>
			</input>
			<output>
				<port id="2" precision="FP32" names="716">
					<dim>1</dim>
					<dim>3</dim>
					<dim>28</dim>
					<dim>28</dim>
				</port>
			</output>
		</layer>
		<layer id="170" name="717" type="ReLU" version="opset1">
			<rt_info>
				<attribute name="fused_names" version="0" value="717"/>
			</rt_info>
			<input>
				<port id="0" precision="FP32">
					<dim>1</dim>
					<dim>3</dim>
					<dim>28</dim>
					<dim>28</dim>
				</port>
			</input>
			<output>
				<port id="1" precision="FP32" names="717">
					<dim>1</dim>
					<dim>3</dim>
					<dim>28</dim>
					<dim>28</dim>
				</port>
			</output>
		</layer>
		<layer id="171" name="stage0.0.layers.0.cross_resolution_weighting.conv2.0.weight_compressed" type="Const" version="opset1">
			<data element_type="f16" shape="24, 3, 1, 1" offset="18354" size="144"/>
			<output>
				<port id="0" precision="FP16">
					<dim>24</dim>
					<dim>3</dim>
					<dim>1</dim>
					<dim>1</dim>
				</port>
			</output>
		</layer>
		<layer id="172" name="stage0.0.layers.0.cross_resolution_weighting.conv2.0.weight" type="Convert" version="opset1">
			<data destination_type="f32"/>
			<rt_info>
				<attribute name="decompression" version="0"/>
				<attribute name="fused_names" version="0" value="stage0.0.layers.0.cross_resolution_weighting.conv2.0.weight"/>
			</rt_info>
			<input>
				<port id="0" precision="FP16">
					<dim>24</dim>
					<dim>3</dim>
					<dim>1</dim>
					<dim>1</dim>
				</port>
			</input>
			<output>
				<port id="1" precision="FP32" names="stage0.0.layers.0.cross_resolution_weighting.conv2.0.weight">
					<dim>24</dim>
					<dim>3</dim>
					<dim>1</dim>
					<dim>1</dim>
				</port>
			</output>
		</layer>
		<layer id="173" name="Convolution_1826" type="Convolution" version="opset1">
			<data strides="1, 1" dilations="1, 1" pads_begin="0, 0" pads_end="0, 0" auto_pad="explicit"/>
			<rt_info>
				<attribute name="fused_names" version="0" value="Convolution_1826"/>
			</rt_info>
			<input>
				<port id="0" precision="FP32">
					<dim>1</dim>
					<dim>3</dim>
					<dim>28</dim>
					<dim>28</dim>
				</port>
				<port id="1" precision="FP32">
					<dim>24</dim>
					<dim>3</dim>
					<dim>1</dim>
					<dim>1</dim>
				</port>
			</input>
			<output>
				<port id="2" precision="FP32">
					<dim>1</dim>
					<dim>24</dim>
					<dim>28</dim>
					<dim>28</dim>
				</port>
			</output>
		</layer>
		<layer id="174" name="Reshape_1846_compressed" type="Const" version="opset1">
			<data element_type="f16" shape="1, 24, 1, 1" offset="18498" size="48"/>
			<output>
				<port id="0" precision="FP16">
					<dim>1</dim>
					<dim>24</dim>
					<dim>1</dim>
					<dim>1</dim>
				</port>
			</output>
		</layer>
		<layer id="175" name="Reshape_1846" type="Convert" version="opset1">
			<data destination_type="f32"/>
			<rt_info>
				<attribute name="decompression" version="0"/>
			</rt_info>
			<input>
				<port id="0" precision="FP16">
					<dim>1</dim>
					<dim>24</dim>
					<dim>1</dim>
					<dim>1</dim>
				</port>
			</input>
			<output>
				<port id="1" precision="FP32">
					<dim>1</dim>
					<dim>24</dim>
					<dim>1</dim>
					<dim>1</dim>
				</port>
			</output>
		</layer>
		<layer id="176" name="718" type="Add" version="opset1">
			<data auto_broadcast="numpy"/>
			<rt_info>
				<attribute name="fused_names" version="0" value="718, Concat_1845, Reshape_1846"/>
			</rt_info>
			<input>
				<port id="0" precision="FP32">
					<dim>1</dim>
					<dim>24</dim>
					<dim>28</dim>
					<dim>28</dim>
				</port>
				<port id="1" precision="FP32">
					<dim>1</dim>
					<dim>24</dim>
					<dim>1</dim>
					<dim>1</dim>
				</port>
			</input>
			<output>
				<port id="2" precision="FP32" names="718">
					<dim>1</dim>
					<dim>24</dim>
					<dim>28</dim>
					<dim>28</dim>
				</port>
			</output>
		</layer>
		<layer id="177" name="719" type="Sigmoid" version="opset1">
			<rt_info>
				<attribute name="fused_names" version="0" value="719"/>
			</rt_info>
			<input>
				<port id="0" precision="FP32">
					<dim>1</dim>
					<dim>24</dim>
					<dim>28</dim>
					<dim>28</dim>
				</port>
			</input>
			<output>
				<port id="1" precision="FP32" names="719">
					<dim>1</dim>
					<dim>24</dim>
					<dim>28</dim>
					<dim>28</dim>
				</port>
			</output>
		</layer>
		<layer id="178" name="Constant_1875" type="Const" version="opset1">
			<data element_type="i64" shape="" offset="1808" size="8"/>
			<rt_info>
				<attribute name="fused_names" version="0" value="Constant_1875"/>
			</rt_info>
			<output>
				<port id="0" precision="I64"/>
			</output>
		</layer>
		<layer id="179" name="Constant_1876" type="Const" version="opset1">
			<data element_type="i64" shape="2" offset="18546" size="16"/>
			<rt_info>
				<attribute name="fused_names" version="0" value="Constant_1876"/>
			</rt_info>
			<output>
				<port id="0" precision="I64">
					<dim>2</dim>
				</port>
			</output>
		</layer>
		<layer id="180" name="721" type="VariadicSplit" version="opset1">
			<rt_info>
				<attribute name="fused_names" version="0" value="721"/>
			</rt_info>
			<input>
				<port id="0" precision="FP32">
					<dim>1</dim>
					<dim>24</dim>
					<dim>28</dim>
					<dim>28</dim>
				</port>
				<port id="1" precision="I64"/>
				<port id="2" precision="I64">
					<dim>2</dim>
				</port>
			</input>
			<output>
				<port id="3" precision="FP32" names="720">
					<dim>1</dim>
					<dim>8</dim>
					<dim>28</dim>
					<dim>28</dim>
				</port>
				<port id="4" precision="FP32" names="721">
					<dim>1</dim>
					<dim>16</dim>
					<dim>28</dim>
					<dim>28</dim>
				</port>
			</output>
		</layer>
		<layer id="181" name="731" type="ShapeOf" version="opset3">
			<data output_type="i64"/>
			<rt_info>
				<attribute name="fused_names" version="0" value="731, ShapeOf_1920"/>
			</rt_info>
			<input>
				<port id="0" precision="FP32">
					<dim>1</dim>
					<dim>8</dim>
					<dim>28</dim>
					<dim>28</dim>
				</port>
			</input>
			<output>
				<port id="1" precision="I64" names="731">
					<dim>4</dim>
				</port>
			</output>
		</layer>
		<layer id="182" name="733" type="Const" version="opset1">
			<data element_type="i64" shape="1" offset="1816" size="8"/>
			<rt_info>
				<attribute name="fused_names" version="0" value="732, 733, 734, 735, Broadcast_1897, ShapeOf_1896"/>
			</rt_info>
			<output>
				<port id="0" precision="I64" names="733">
					<dim>1</dim>
				</port>
			</output>
		</layer>
		<layer id="183" name="734" type="Const" version="opset1">
			<data element_type="i64" shape="1" offset="1824" size="8"/>
			<rt_info>
				<attribute name="fused_names" version="0" value="732, 733, 734, 735, Broadcast_1897, ShapeOf_1896"/>
			</rt_info>
			<output>
				<port id="0" precision="I64" names="734">
					<dim>1</dim>
				</port>
			</output>
		</layer>
		<layer id="184" name="Broadcast_1897" type="Const" version="opset1">
			<data element_type="i64" shape="1" offset="1808" size="8"/>
			<rt_info>
				<attribute name="fused_names" version="0" value="732, 733, 734, 735, Broadcast_1897, ShapeOf_1896"/>
			</rt_info>
			<output>
				<port id="0" precision="I64">
					<dim>1</dim>
				</port>
			</output>
		</layer>
		<layer id="185" name="735" type="StridedSlice" version="opset1">
			<data begin_mask="0" end_mask="0" new_axis_mask="" shrink_axis_mask="" ellipsis_mask=""/>
			<rt_info>
				<attribute name="fused_names" version="0" value="732, 733, 734, 735, Broadcast_1897, ShapeOf_1896"/>
			</rt_info>
			<input>
				<port id="0" precision="I64">
					<dim>4</dim>
				</port>
				<port id="1" precision="I64">
					<dim>1</dim>
				</port>
				<port id="2" precision="I64">
					<dim>1</dim>
				</port>
				<port id="3" precision="I64">
					<dim>1</dim>
				</port>
			</input>
			<output>
				<port id="4" precision="I64" names="735">
					<dim>2</dim>
				</port>
			</output>
		</layer>
		<layer id="186" name="722" type="ShapeOf" version="opset3">
			<data output_type="i64"/>
			<rt_info>
				<attribute name="fused_names" version="0" value="722, 725"/>
			</rt_info>
			<input>
				<port id="0" precision="FP32">
					<dim>1</dim>
					<dim>8</dim>
					<dim>56</dim>
					<dim>56</dim>
				</port>
			</input>
			<output>
				<port id="1" precision="I64" names="722,725">
					<dim>4</dim>
				</port>
			</output>
		</layer>
		<layer id="187" name="Constant_51010" type="Const" version="opset1">
			<data element_type="i64" shape="2" offset="5500" size="16"/>
			<rt_info>
				<attribute name="fused_names" version="0" value="730"/>
			</rt_info>
			<output>
				<port id="0" precision="I64">
					<dim>2</dim>
				</port>
			</output>
		</layer>
		<layer id="188" name="Constant_51011" type="Const" version="opset1">
			<data element_type="i64" shape="" offset="1816" size="8"/>
			<output>
				<port id="0" precision="I64"/>
			</output>
		</layer>
		<layer id="189" name="Gather_51012" type="Gather" version="opset8">
			<data batch_dims="0"/>
			<rt_info>
				<attribute name="fused_names" version="0" value="730, 736"/>
			</rt_info>
			<input>
				<port id="0" precision="I64">
					<dim>4</dim>
				</port>
				<port id="1" precision="I64">
					<dim>2</dim>
				</port>
				<port id="2" precision="I64"/>
			</input>
			<output>
				<port id="3" precision="I64" names="730,736">
					<dim>2</dim>
				</port>
			</output>
		</layer>
		<layer id="190" name="737" type="Concat" version="opset1">
			<data axis="0"/>
			<rt_info>
				<attribute name="fused_names" version="0" value="737"/>
			</rt_info>
			<input>
				<port id="0" precision="I64">
					<dim>2</dim>
				</port>
				<port id="1" precision="I64">
					<dim>2</dim>
				</port>
			</input>
			<output>
				<port id="2" precision="I64" names="737">
					<dim>4</dim>
				</port>
			</output>
		</layer>
		<layer id="191" name="Convert_1922" type="Convert" version="opset1">
			<data destination_type="f32"/>
			<rt_info>
				<attribute name="fused_names" version="0" value="Convert_1922"/>
			</rt_info>
			<input>
				<port id="0" precision="I64">
					<dim>4</dim>
				</port>
			</input>
			<output>
				<port id="1" precision="FP32">
					<dim>4</dim>
				</port>
			</output>
		</layer>
		<layer id="192" name="Convert_1921" type="Convert" version="opset1">
			<data destination_type="f32"/>
			<rt_info>
				<attribute name="fused_names" version="0" value="Convert_1921"/>
			</rt_info>
			<input>
				<port id="0" precision="I64">
					<dim>4</dim>
				</port>
			</input>
			<output>
				<port id="1" precision="FP32">
					<dim>4</dim>
				</port>
			</output>
		</layer>
		<layer id="193" name="Divide_1923" type="Divide" version="opset1">
			<data auto_broadcast="numpy" m_pythondiv="true"/>
			<rt_info>
				<attribute name="fused_names" version="0" value="Divide_1923"/>
			</rt_info>
			<input>
				<port id="0" precision="FP32">
					<dim>4</dim>
				</port>
				<port id="1" precision="FP32">
					<dim>4</dim>
				</port>
			</input>
			<output>
				<port id="2" precision="FP32">
					<dim>4</dim>
				</port>
			</output>
		</layer>
		<layer id="194" name="Constant_76282" type="Const" version="opset1">
			<data element_type="f32" shape="1" offset="18562" size="4"/>
			<output>
				<port id="0" precision="FP32">
					<dim>1</dim>
				</port>
			</output>
		</layer>
		<layer id="195" name="Add_1925" type="Add" version="opset1">
			<data auto_broadcast="numpy"/>
			<rt_info>
				<attribute name="fused_names" version="0" value="Add_1925"/>
			</rt_info>
			<input>
				<port id="0" precision="FP32">
					<dim>4</dim>
				</port>
				<port id="1" precision="FP32">
					<dim>1</dim>
				</port>
			</input>
			<output>
				<port id="2" precision="FP32">
					<dim>4</dim>
				</port>
			</output>
		</layer>
		<layer id="196" name="740" type="Interpolate" version="opset4">
			<data mode="nearest" shape_calculation_mode="sizes" coordinate_transformation_mode="asymmetric" nearest_mode="floor" antialias="false" pads_begin="0, 0, 0, 0" pads_end="0, 0, 0, 0" cube_coeff="-0.75"/>
			<rt_info>
				<attribute name="fused_names" version="0" value="740"/>
			</rt_info>
			<input>
				<port id="0" precision="FP32">
					<dim>1</dim>
					<dim>8</dim>
					<dim>28</dim>
					<dim>28</dim>
				</port>
				<port id="1" precision="I64">
					<dim>4</dim>
				</port>
				<port id="2" precision="FP32">
					<dim>4</dim>
				</port>
			</input>
			<output>
				<port id="3" precision="FP32" names="740">
					<dim>1</dim>
					<dim>8</dim>
					<dim>56</dim>
					<dim>56</dim>
				</port>
			</output>
		</layer>
		<layer id="197" name="741" type="Multiply" version="opset1">
			<data auto_broadcast="numpy"/>
			<rt_info>
				<attribute name="fused_names" version="0" value="741"/>
			</rt_info>
			<input>
				<port id="0" precision="FP32">
					<dim>1</dim>
					<dim>8</dim>
					<dim>56</dim>
					<dim>56</dim>
				</port>
				<port id="1" precision="FP32">
					<dim>1</dim>
					<dim>8</dim>
					<dim>56</dim>
					<dim>56</dim>
				</port>
			</input>
			<output>
				<port id="2" precision="FP32" names="741">
					<dim>1</dim>
					<dim>8</dim>
					<dim>56</dim>
					<dim>56</dim>
				</port>
			</output>
		</layer>
		<layer id="198" name="Reshape_2135_compressed" type="Const" version="opset1">
			<data element_type="f16" shape="8, 1, 1, 3, 3" offset="18566" size="144"/>
			<output>
				<port id="0" precision="FP16">
					<dim>8</dim>
					<dim>1</dim>
					<dim>1</dim>
					<dim>3</dim>
					<dim>3</dim>
				</port>
			</output>
		</layer>
		<layer id="199" name="Reshape_2135" type="Convert" version="opset1">
			<data destination_type="f32"/>
			<rt_info>
				<attribute name="decompression" version="0"/>
			</rt_info>
			<input>
				<port id="0" precision="FP16">
					<dim>8</dim>
					<dim>1</dim>
					<dim>1</dim>
					<dim>3</dim>
					<dim>3</dim>
				</port>
			</input>
			<output>
				<port id="1" precision="FP32">
					<dim>8</dim>
					<dim>1</dim>
					<dim>1</dim>
					<dim>3</dim>
					<dim>3</dim>
				</port>
			</output>
		</layer>
		<layer id="200" name="GroupConvolution_2201" type="GroupConvolution" version="opset1">
			<data strides="1, 1" pads_begin="1, 1" pads_end="1, 1" dilations="1, 1" auto_pad="explicit"/>
			<rt_info>
				<attribute name="fused_names" version="0" value="GroupConvolution_2201, Reshape_2135"/>
			</rt_info>
			<input>
				<port id="0" precision="FP32">
					<dim>1</dim>
					<dim>8</dim>
					<dim>56</dim>
					<dim>56</dim>
				</port>
				<port id="1" precision="FP32">
					<dim>8</dim>
					<dim>1</dim>
					<dim>1</dim>
					<dim>3</dim>
					<dim>3</dim>
				</port>
			</input>
			<output>
				<port id="2" precision="FP32">
					<dim>1</dim>
					<dim>8</dim>
					<dim>56</dim>
					<dim>56</dim>
				</port>
			</output>
		</layer>
		<layer id="201" name="Reshape_2221_compressed" type="Const" version="opset1">
			<data element_type="f16" shape="1, 8, 1, 1" offset="18710" size="16"/>
			<output>
				<port id="0" precision="FP16">
					<dim>1</dim>
					<dim>8</dim>
					<dim>1</dim>
					<dim>1</dim>
				</port>
			</output>
		</layer>
		<layer id="202" name="Reshape_2221" type="Convert" version="opset1">
			<data destination_type="f32"/>
			<rt_info>
				<attribute name="decompression" version="0"/>
			</rt_info>
			<input>
				<port id="0" precision="FP16">
					<dim>1</dim>
					<dim>8</dim>
					<dim>1</dim>
					<dim>1</dim>
				</port>
			</input>
			<output>
				<port id="1" precision="FP32">
					<dim>1</dim>
					<dim>8</dim>
					<dim>1</dim>
					<dim>1</dim>
				</port>
			</output>
		</layer>
		<layer id="203" name="2046" type="Add" version="opset1">
			<data auto_broadcast="numpy"/>
			<rt_info>
				<attribute name="fused_names" version="0" value="2046, Concat_2220, Reshape_2221"/>
			</rt_info>
			<input>
				<port id="0" precision="FP32">
					<dim>1</dim>
					<dim>8</dim>
					<dim>56</dim>
					<dim>56</dim>
				</port>
				<port id="1" precision="FP32">
					<dim>1</dim>
					<dim>8</dim>
					<dim>1</dim>
					<dim>1</dim>
				</port>
			</input>
			<output>
				<port id="2" precision="FP32" names="2046">
					<dim>1</dim>
					<dim>8</dim>
					<dim>56</dim>
					<dim>56</dim>
				</port>
			</output>
		</layer>
		<layer id="204" name="Range_2377" type="Const" version="opset1">
			<data element_type="i64" shape="2" offset="5500" size="16"/>
			<output>
				<port id="0" precision="I64">
					<dim>2</dim>
				</port>
			</output>
		</layer>
		<layer id="205" name="766" type="ReduceMean" version="opset1">
			<data keep_dims="true"/>
			<rt_info>
				<attribute name="fused_names" version="0" value="766, Range_2377"/>
			</rt_info>
			<input>
				<port id="0" precision="FP32">
					<dim>1</dim>
					<dim>8</dim>
					<dim>56</dim>
					<dim>56</dim>
				</port>
				<port id="1" precision="I64">
					<dim>2</dim>
				</port>
			</input>
			<output>
				<port id="2" precision="FP32" names="766">
					<dim>1</dim>
					<dim>8</dim>
					<dim>1</dim>
					<dim>1</dim>
				</port>
			</output>
		</layer>
		<layer id="206" name="stage0.0.layers.0.spatial_weighting.0.conv1.0.weight_compressed" type="Const" version="opset1">
			<data element_type="f16" shape="2, 8, 1, 1" offset="18726" size="32"/>
			<output>
				<port id="0" precision="FP16">
					<dim>2</dim>
					<dim>8</dim>
					<dim>1</dim>
					<dim>1</dim>
				</port>
			</output>
		</layer>
		<layer id="207" name="stage0.0.layers.0.spatial_weighting.0.conv1.0.weight" type="Convert" version="opset1">
			<data destination_type="f32"/>
			<rt_info>
				<attribute name="decompression" version="0"/>
				<attribute name="fused_names" version="0" value="stage0.0.layers.0.spatial_weighting.0.conv1.0.weight"/>
			</rt_info>
			<input>
				<port id="0" precision="FP16">
					<dim>2</dim>
					<dim>8</dim>
					<dim>1</dim>
					<dim>1</dim>
				</port>
			</input>
			<output>
				<port id="1" precision="FP32" names="stage0.0.layers.0.spatial_weighting.0.conv1.0.weight">
					<dim>2</dim>
					<dim>8</dim>
					<dim>1</dim>
					<dim>1</dim>
				</port>
			</output>
		</layer>
		<layer id="208" name="Convolution_2402" type="Convolution" version="opset1">
			<data strides="1, 1" dilations="1, 1" pads_begin="0, 0" pads_end="0, 0" auto_pad="explicit"/>
			<rt_info>
				<attribute name="fused_names" version="0" value="Convolution_2402"/>
			</rt_info>
			<input>
				<port id="0" precision="FP32">
					<dim>1</dim>
					<dim>8</dim>
					<dim>1</dim>
					<dim>1</dim>
				</port>
				<port id="1" precision="FP32">
					<dim>2</dim>
					<dim>8</dim>
					<dim>1</dim>
					<dim>1</dim>
				</port>
			</input>
			<output>
				<port id="2" precision="FP32">
					<dim>1</dim>
					<dim>2</dim>
					<dim>1</dim>
					<dim>1</dim>
				</port>
			</output>
		</layer>
		<layer id="209" name="Reshape_2422_compressed" type="Const" version="opset1">
			<data element_type="f16" shape="1, 2, 1, 1" offset="18758" size="4"/>
			<output>
				<port id="0" precision="FP16">
					<dim>1</dim>
					<dim>2</dim>
					<dim>1</dim>
					<dim>1</dim>
				</port>
			</output>
		</layer>
		<layer id="210" name="Reshape_2422" type="Convert" version="opset1">
			<data destination_type="f32"/>
			<rt_info>
				<attribute name="decompression" version="0"/>
			</rt_info>
			<input>
				<port id="0" precision="FP16">
					<dim>1</dim>
					<dim>2</dim>
					<dim>1</dim>
					<dim>1</dim>
				</port>
			</input>
			<output>
				<port id="1" precision="FP32">
					<dim>1</dim>
					<dim>2</dim>
					<dim>1</dim>
					<dim>1</dim>
				</port>
			</output>
		</layer>
		<layer id="211" name="767" type="Add" version="opset1">
			<data auto_broadcast="numpy"/>
			<rt_info>
				<attribute name="fused_names" version="0" value="767, Concat_2421, Reshape_2422"/>
			</rt_info>
			<input>
				<port id="0" precision="FP32">
					<dim>1</dim>
					<dim>2</dim>
					<dim>1</dim>
					<dim>1</dim>
				</port>
				<port id="1" precision="FP32">
					<dim>1</dim>
					<dim>2</dim>
					<dim>1</dim>
					<dim>1</dim>
				</port>
			</input>
			<output>
				<port id="2" precision="FP32" names="767">
					<dim>1</dim>
					<dim>2</dim>
					<dim>1</dim>
					<dim>1</dim>
				</port>
			</output>
		</layer>
		<layer id="212" name="768" type="ReLU" version="opset1">
			<rt_info>
				<attribute name="fused_names" version="0" value="768"/>
			</rt_info>
			<input>
				<port id="0" precision="FP32">
					<dim>1</dim>
					<dim>2</dim>
					<dim>1</dim>
					<dim>1</dim>
				</port>
			</input>
			<output>
				<port id="1" precision="FP32" names="768">
					<dim>1</dim>
					<dim>2</dim>
					<dim>1</dim>
					<dim>1</dim>
				</port>
			</output>
		</layer>
		<layer id="213" name="stage0.0.layers.0.spatial_weighting.0.conv2.0.weight_compressed" type="Const" version="opset1">
			<data element_type="f16" shape="8, 2, 1, 1" offset="18762" size="32"/>
			<output>
				<port id="0" precision="FP16">
					<dim>8</dim>
					<dim>2</dim>
					<dim>1</dim>
					<dim>1</dim>
				</port>
			</output>
		</layer>
		<layer id="214" name="stage0.0.layers.0.spatial_weighting.0.conv2.0.weight" type="Convert" version="opset1">
			<data destination_type="f32"/>
			<rt_info>
				<attribute name="decompression" version="0"/>
				<attribute name="fused_names" version="0" value="stage0.0.layers.0.spatial_weighting.0.conv2.0.weight"/>
			</rt_info>
			<input>
				<port id="0" precision="FP16">
					<dim>8</dim>
					<dim>2</dim>
					<dim>1</dim>
					<dim>1</dim>
				</port>
			</input>
			<output>
				<port id="1" precision="FP32" names="stage0.0.layers.0.spatial_weighting.0.conv2.0.weight">
					<dim>8</dim>
					<dim>2</dim>
					<dim>1</dim>
					<dim>1</dim>
				</port>
			</output>
		</layer>
		<layer id="215" name="Convolution_2451" type="Convolution" version="opset1">
			<data strides="1, 1" dilations="1, 1" pads_begin="0, 0" pads_end="0, 0" auto_pad="explicit"/>
			<rt_info>
				<attribute name="fused_names" version="0" value="Convolution_2451"/>
			</rt_info>
			<input>
				<port id="0" precision="FP32">
					<dim>1</dim>
					<dim>2</dim>
					<dim>1</dim>
					<dim>1</dim>
				</port>
				<port id="1" precision="FP32">
					<dim>8</dim>
					<dim>2</dim>
					<dim>1</dim>
					<dim>1</dim>
				</port>
			</input>
			<output>
				<port id="2" precision="FP32">
					<dim>1</dim>
					<dim>8</dim>
					<dim>1</dim>
					<dim>1</dim>
				</port>
			</output>
		</layer>
		<layer id="216" name="Reshape_2471_compressed" type="Const" version="opset1">
			<data element_type="f16" shape="1, 8, 1, 1" offset="18794" size="16"/>
			<output>
				<port id="0" precision="FP16">
					<dim>1</dim>
					<dim>8</dim>
					<dim>1</dim>
					<dim>1</dim>
				</port>
			</output>
		</layer>
		<layer id="217" name="Reshape_2471" type="Convert" version="opset1">
			<data destination_type="f32"/>
			<rt_info>
				<attribute name="decompression" version="0"/>
			</rt_info>
			<input>
				<port id="0" precision="FP16">
					<dim>1</dim>
					<dim>8</dim>
					<dim>1</dim>
					<dim>1</dim>
				</port>
			</input>
			<output>
				<port id="1" precision="FP32">
					<dim>1</dim>
					<dim>8</dim>
					<dim>1</dim>
					<dim>1</dim>
				</port>
			</output>
		</layer>
		<layer id="218" name="769" type="Add" version="opset1">
			<data auto_broadcast="numpy"/>
			<rt_info>
				<attribute name="fused_names" version="0" value="769, Concat_2470, Reshape_2471"/>
			</rt_info>
			<input>
				<port id="0" precision="FP32">
					<dim>1</dim>
					<dim>8</dim>
					<dim>1</dim>
					<dim>1</dim>
				</port>
				<port id="1" precision="FP32">
					<dim>1</dim>
					<dim>8</dim>
					<dim>1</dim>
					<dim>1</dim>
				</port>
			</input>
			<output>
				<port id="2" precision="FP32" names="769">
					<dim>1</dim>
					<dim>8</dim>
					<dim>1</dim>
					<dim>1</dim>
				</port>
			</output>
		</layer>
		<layer id="219" name="770" type="Sigmoid" version="opset1">
			<rt_info>
				<attribute name="fused_names" version="0" value="770"/>
			</rt_info>
			<input>
				<port id="0" precision="FP32">
					<dim>1</dim>
					<dim>8</dim>
					<dim>1</dim>
					<dim>1</dim>
				</port>
			</input>
			<output>
				<port id="1" precision="FP32" names="770">
					<dim>1</dim>
					<dim>8</dim>
					<dim>1</dim>
					<dim>1</dim>
				</port>
			</output>
		</layer>
		<layer id="220" name="771" type="Multiply" version="opset1">
			<data auto_broadcast="numpy"/>
			<rt_info>
				<attribute name="fused_names" version="0" value="771"/>
			</rt_info>
			<input>
				<port id="0" precision="FP32">
					<dim>1</dim>
					<dim>8</dim>
					<dim>56</dim>
					<dim>56</dim>
				</port>
				<port id="1" precision="FP32">
					<dim>1</dim>
					<dim>8</dim>
					<dim>1</dim>
					<dim>1</dim>
				</port>
			</input>
			<output>
				<port id="2" precision="FP32" names="771">
					<dim>1</dim>
					<dim>8</dim>
					<dim>56</dim>
					<dim>56</dim>
				</port>
			</output>
		</layer>
		<layer id="221" name="778" type="Concat" version="opset1">
			<data axis="1"/>
			<rt_info>
				<attribute name="fused_names" version="0" value="778"/>
			</rt_info>
			<input>
				<port id="0" precision="FP32">
					<dim>1</dim>
					<dim>8</dim>
					<dim>56</dim>
					<dim>56</dim>
				</port>
				<port id="1" precision="FP32">
					<dim>1</dim>
					<dim>8</dim>
					<dim>56</dim>
					<dim>56</dim>
				</port>
			</input>
			<output>
				<port id="2" precision="FP32" names="778">
					<dim>1</dim>
					<dim>16</dim>
					<dim>56</dim>
					<dim>56</dim>
				</port>
			</output>
		</layer>
		<layer id="222" name="Constant_57940" type="Const" version="opset1">
			<data element_type="i64" shape="1" offset="1816" size="8"/>
			<output>
				<port id="0" precision="I64">
					<dim>1</dim>
				</port>
			</output>
		</layer>
		<layer id="223" name="2351" type="Const" version="opset1">
			<data element_type="i64" shape="1" offset="1824" size="8"/>
			<rt_info>
				<attribute name="fused_names" version="0" value="2351"/>
			</rt_info>
			<output>
				<port id="0" precision="I64" names="2351">
					<dim>1</dim>
				</port>
			</output>
		</layer>
		<layer id="224" name="780" type="ShapeOf" version="opset3">
			<data output_type="i64"/>
			<rt_info>
				<attribute name="fused_names" version="0" value="780, 783, 786, 789"/>
			</rt_info>
			<input>
				<port id="0" precision="FP32">
					<dim>1</dim>
					<dim>16</dim>
					<dim>56</dim>
					<dim>56</dim>
				</port>
			</input>
			<output>
				<port id="1" precision="I64" names="780,783,786,789">
					<dim>4</dim>
				</port>
			</output>
		</layer>
		<layer id="225" name="784" type="Const" version="opset1">
			<data element_type="i64" shape="" offset="1808" size="8"/>
			<rt_info>
				<attribute name="fused_names" version="0" value="784"/>
			</rt_info>
			<output>
				<port id="0" precision="I64" names="784"/>
			</output>
		</layer>
		<layer id="226" name="Constant_2640" type="Const" version="opset1">
			<data element_type="i64" shape="" offset="1816" size="8"/>
			<rt_info>
				<attribute name="fused_names" version="0" value="Constant_2640"/>
			</rt_info>
			<output>
				<port id="0" precision="I64"/>
			</output>
		</layer>
		<layer id="227" name="785" type="Gather" version="opset8">
			<data batch_dims="0"/>
			<rt_info>
				<attribute name="fused_names" version="0" value="784, 785, Constant_2640"/>
			</rt_info>
			<input>
				<port id="0" precision="I64">
					<dim>4</dim>
				</port>
				<port id="1" precision="I64"/>
				<port id="2" precision="I64"/>
			</input>
			<output>
				<port id="3" precision="I64" names="785"/>
			</output>
		</layer>
		<layer id="228" name="792" type="Const" version="opset1">
			<data element_type="i64" shape="" offset="1824" size="8"/>
			<rt_info>
				<attribute name="fused_names" version="0" value="792"/>
			</rt_info>
			<output>
				<port id="0" precision="I64" names="792"/>
			</output>
		</layer>
		<layer id="229" name="793" type="Divide" version="opset1">
			<data auto_broadcast="numpy" m_pythondiv="true"/>
			<rt_info>
				<attribute name="fused_names" version="0" value="792, 793, 794, 795"/>
			</rt_info>
			<input>
				<port id="0" precision="I64"/>
				<port id="1" precision="I64"/>
			</input>
			<output>
				<port id="2" precision="I64" names="793,794,795"/>
			</output>
		</layer>
		<layer id="230" name="Constant_2656" type="Const" version="opset1">
			<data element_type="i64" shape="1" offset="1816" size="8"/>
			<rt_info>
				<attribute name="fused_names" version="0" value="Constant_2656"/>
			</rt_info>
			<output>
				<port id="0" precision="I64">
					<dim>1</dim>
				</port>
			</output>
		</layer>
		<layer id="231" name="799" type="Unsqueeze" version="opset1">
			<rt_info>
				<attribute name="fused_names" version="0" value="799, Constant_2656"/>
			</rt_info>
			<input>
				<port id="0" precision="I64"/>
				<port id="1" precision="I64">
					<dim>1</dim>
				</port>
			</input>
			<output>
				<port id="2" precision="I64" names="799">
					<dim>1</dim>
				</port>
			</output>
		</layer>
		<layer id="232" name="Constant_51014" type="Const" version="opset1">
			<data element_type="i64" shape="2" offset="5500" size="16"/>
			<rt_info>
				<attribute name="fused_names" version="0" value="2351, 802"/>
			</rt_info>
			<output>
				<port id="0" precision="I64">
					<dim>2</dim>
				</port>
			</output>
		</layer>
		<layer id="233" name="Constant_51015" type="Const" version="opset1">
			<data element_type="i64" shape="" offset="1816" size="8"/>
			<output>
				<port id="0" precision="I64"/>
			</output>
		</layer>
		<layer id="234" name="Gather_51016" type="Gather" version="opset8">
			<data batch_dims="0"/>
			<rt_info>
				<attribute name="fused_names" version="0" value="2351, 802"/>
			</rt_info>
			<input>
				<port id="0" precision="I64">
					<dim>4</dim>
				</port>
				<port id="1" precision="I64">
					<dim>2</dim>
				</port>
				<port id="2" precision="I64"/>
			</input>
			<output>
				<port id="3" precision="I64">
					<dim>2</dim>
				</port>
			</output>
		</layer>
		<layer id="235" name="802" type="Concat" version="opset1">
			<data axis="0"/>
			<rt_info>
				<attribute name="fused_names" version="0" value="2351, 802"/>
			</rt_info>
			<input>
				<port id="0" precision="I64">
					<dim>1</dim>
				</port>
				<port id="1" precision="I64">
					<dim>1</dim>
				</port>
				<port id="2" precision="I64">
					<dim>1</dim>
				</port>
				<port id="3" precision="I64">
					<dim>2</dim>
				</port>
			</input>
			<output>
				<port id="4" precision="I64">
					<dim>5</dim>
				</port>
			</output>
		</layer>
		<layer id="236" name="803" type="Reshape" version="opset1">
			<data special_zero="true"/>
			<rt_info>
				<attribute name="fused_names" version="0" value="803"/>
			</rt_info>
			<input>
				<port id="0" precision="FP32">
					<dim>1</dim>
					<dim>16</dim>
					<dim>56</dim>
					<dim>56</dim>
				</port>
				<port id="1" precision="I64">
					<dim>5</dim>
				</port>
			</input>
			<output>
				<port id="2" precision="FP32" names="803">
					<dim>1</dim>
					<dim>2</dim>
					<dim>8</dim>
					<dim>56</dim>
					<dim>56</dim>
				</port>
			</output>
		</layer>
		<layer id="237" name="Constant_2781" type="Const" version="opset1">
			<data element_type="i64" shape="5" offset="5516" size="40"/>
			<rt_info>
				<attribute name="fused_names" version="0" value="Constant_2781"/>
			</rt_info>
			<output>
				<port id="0" precision="I64">
					<dim>5</dim>
				</port>
			</output>
		</layer>
		<layer id="238" name="804" type="Transpose" version="opset1">
			<rt_info>
				<attribute name="fused_names" version="0" value="804"/>
			</rt_info>
			<input>
				<port id="0" precision="FP32">
					<dim>1</dim>
					<dim>2</dim>
					<dim>8</dim>
					<dim>56</dim>
					<dim>56</dim>
				</port>
				<port id="1" precision="I64">
					<dim>5</dim>
				</port>
			</input>
			<output>
				<port id="2" precision="FP32" names="804">
					<dim>1</dim>
					<dim>8</dim>
					<dim>2</dim>
					<dim>56</dim>
					<dim>56</dim>
				</port>
			</output>
		</layer>
		<layer id="239" name="Constant_50133" type="Const" version="opset1">
			<data element_type="i64" shape="1" offset="1816" size="8"/>
			<rt_info>
				<attribute name="fused_names" version="0" value="781, 782, 806, Constant_2636, Constant_2783"/>
			</rt_info>
			<output>
				<port id="0" precision="I64">
					<dim>1</dim>
				</port>
			</output>
		</layer>
		<layer id="240" name="Constant_2636" type="Const" version="opset1">
			<data element_type="i64" shape="" offset="1816" size="8"/>
			<rt_info>
				<attribute name="fused_names" version="0" value="Constant_2636"/>
			</rt_info>
			<output>
				<port id="0" precision="I64"/>
			</output>
		</layer>
		<layer id="241" name="782" type="Gather" version="opset8">
			<data batch_dims="0"/>
			<rt_info>
				<attribute name="fused_names" version="0" value="781, 782, 806, Constant_2636, Constant_2783"/>
			</rt_info>
			<input>
				<port id="0" precision="I64">
					<dim>4</dim>
				</port>
				<port id="1" precision="I64">
					<dim>1</dim>
				</port>
				<port id="2" precision="I64"/>
			</input>
			<output>
				<port id="3" precision="I64" names="806">
					<dim>1</dim>
				</port>
			</output>
		</layer>
		<layer id="242" name="2352" type="Const" version="opset1">
			<data element_type="i64" shape="1" offset="5556" size="8"/>
			<rt_info>
				<attribute name="fused_names" version="0" value="2352"/>
			</rt_info>
			<output>
				<port id="0" precision="I64" names="2352">
					<dim>1</dim>
				</port>
			</output>
		</layer>
		<layer id="243" name="Constant_51019" type="Const" version="opset1">
			<data element_type="i64" shape="2" offset="5500" size="16"/>
			<rt_info>
				<attribute name="fused_names" version="0" value="2352, 810"/>
			</rt_info>
			<output>
				<port id="0" precision="I64">
					<dim>2</dim>
				</port>
			</output>
		</layer>
		<layer id="244" name="Constant_51020" type="Const" version="opset1">
			<data element_type="i64" shape="" offset="1816" size="8"/>
			<output>
				<port id="0" precision="I64"/>
			</output>
		</layer>
		<layer id="245" name="Gather_51021" type="Gather" version="opset8">
			<data batch_dims="0"/>
			<rt_info>
				<attribute name="fused_names" version="0" value="2352, 810"/>
			</rt_info>
			<input>
				<port id="0" precision="I64">
					<dim>4</dim>
				</port>
				<port id="1" precision="I64">
					<dim>2</dim>
				</port>
				<port id="2" precision="I64"/>
			</input>
			<output>
				<port id="3" precision="I64">
					<dim>2</dim>
				</port>
			</output>
		</layer>
		<layer id="246" name="810" type="Concat" version="opset1">
			<data axis="0"/>
			<rt_info>
				<attribute name="fused_names" version="0" value="2352, 810"/>
			</rt_info>
			<input>
				<port id="0" precision="I64">
					<dim>1</dim>
				</port>
				<port id="1" precision="I64">
					<dim>1</dim>
				</port>
				<port id="2" precision="I64">
					<dim>2</dim>
				</port>
			</input>
			<output>
				<port id="3" precision="I64" names="810">
					<dim>4</dim>
				</port>
			</output>
		</layer>
		<layer id="247" name="811" type="Reshape" version="opset1">
			<data special_zero="true"/>
			<rt_info>
				<attribute name="fused_names" version="0" value="811"/>
			</rt_info>
			<input>
				<port id="0" precision="FP32">
					<dim>1</dim>
					<dim>8</dim>
					<dim>2</dim>
					<dim>56</dim>
					<dim>56</dim>
				</port>
				<port id="1" precision="I64">
					<dim>4</dim>
				</port>
			</input>
			<output>
				<port id="2" precision="FP32" names="811">
					<dim>1</dim>
					<dim>16</dim>
					<dim>56</dim>
					<dim>56</dim>
				</port>
			</output>
		</layer>
		<layer id="248" name="844" type="Add" version="opset1">
			<data auto_broadcast="numpy"/>
			<rt_info>
				<attribute name="fused_names" version="0" value="844"/>
			</rt_info>
			<input>
				<port id="0" precision="FP32">
					<dim>1</dim>
					<dim>16</dim>
					<dim>56</dim>
					<dim>56</dim>
				</port>
				<port id="1" precision="FP32">
					<dim>1</dim>
					<dim>16</dim>
					<dim>56</dim>
					<dim>56</dim>
				</port>
			</input>
			<output>
				<port id="2" precision="FP32" names="844">
					<dim>1</dim>
					<dim>16</dim>
					<dim>56</dim>
					<dim>56</dim>
				</port>
			</output>
		</layer>
		<layer id="249" name="Constant_66172" type="Const" version="opset1">
			<data element_type="i64" shape="2" offset="1792" size="16"/>
			<rt_info>
				<attribute name="fused_names" version="0" value="699, 708, Broadcast_1635"/>
			</rt_info>
			<output>
				<port id="0" precision="I64">
					<dim>2</dim>
				</port>
			</output>
		</layer>
		<layer id="250" name="Constant_66173" type="Const" version="opset1">
			<data element_type="i64" shape="2" offset="1792" size="16"/>
			<rt_info>
				<attribute name="fused_names" version="0" value="699, 708, Broadcast_1635"/>
			</rt_info>
			<output>
				<port id="0" precision="I64">
					<dim>2</dim>
				</port>
			</output>
		</layer>
		<layer id="251" name="Constant_66169" type="Const" version="opset1">
			<data element_type="i64" shape="1" offset="1808" size="8"/>
			<rt_info>
				<attribute name="fused_names" version="0" value="699, 708, Broadcast_1635"/>
			</rt_info>
			<output>
				<port id="0" precision="I64">
					<dim>1</dim>
				</port>
			</output>
		</layer>
		<layer id="252" name="Constant_66168" type="Const" version="opset1">
			<data element_type="i32" shape="1" offset="1832" size="4"/>
			<rt_info>
				<attribute name="fused_names" version="0" value="699, 708, Broadcast_1635"/>
			</rt_info>
			<output>
				<port id="0" precision="I32">
					<dim>1</dim>
				</port>
			</output>
		</layer>
		<layer id="253" name="ScatterUpdate_66174" type="ScatterUpdate" version="opset3">
			<rt_info>
				<attribute name="fused_names" version="0" value="699, 708, Broadcast_1635"/>
			</rt_info>
			<input>
				<port id="0" precision="I64">
					<dim>2</dim>
				</port>
				<port id="1" precision="I64">
					<dim>1</dim>
				</port>
				<port id="2" precision="I64">
					<dim>1</dim>
				</port>
				<port id="3" precision="I32">
					<dim>1</dim>
				</port>
			</input>
			<output>
				<port id="4" precision="I64">
					<dim>2</dim>
				</port>
			</output>
		</layer>
		<layer id="254" name="Constant_66177" type="Const" version="opset1">
			<data element_type="i64" shape="2" offset="1836" size="16"/>
			<rt_info>
				<attribute name="fused_names" version="0" value="699, 708, Broadcast_1635"/>
			</rt_info>
			<output>
				<port id="0" precision="I64">
					<dim>2</dim>
				</port>
			</output>
		</layer>
		<layer id="255" name="708" type="StridedSlice" version="opset1">
			<data begin_mask="1, 0" end_mask="1, 0" new_axis_mask="" shrink_axis_mask="" ellipsis_mask=""/>
			<rt_info>
				<attribute name="fused_names" version="0" value="699, 708, Broadcast_1635"/>
			</rt_info>
			<input>
				<port id="0" precision="FP32">
					<dim>1</dim>
					<dim>32</dim>
					<dim>28</dim>
					<dim>28</dim>
				</port>
				<port id="1" precision="I64">
					<dim>2</dim>
				</port>
				<port id="2" precision="I64">
					<dim>2</dim>
				</port>
				<port id="3" precision="I64">
					<dim>2</dim>
				</port>
			</input>
			<output>
				<port id="4" precision="FP32" names="708">
					<dim>1</dim>
					<dim>16</dim>
					<dim>28</dim>
					<dim>28</dim>
				</port>
			</output>
		</layer>
		<layer id="256" name="751" type="ShapeOf" version="opset3">
			<data output_type="i64"/>
			<rt_info>
				<attribute name="fused_names" version="0" value="751, ShapeOf_2045"/>
			</rt_info>
			<input>
				<port id="0" precision="FP32">
					<dim>1</dim>
					<dim>16</dim>
					<dim>28</dim>
					<dim>28</dim>
				</port>
			</input>
			<output>
				<port id="1" precision="I64" names="751">
					<dim>4</dim>
				</port>
			</output>
		</layer>
		<layer id="257" name="753" type="Const" version="opset1">
			<data element_type="i64" shape="1" offset="1816" size="8"/>
			<rt_info>
				<attribute name="fused_names" version="0" value="752, 753, 754, 755, Broadcast_2022, ShapeOf_2021"/>
			</rt_info>
			<output>
				<port id="0" precision="I64" names="753">
					<dim>1</dim>
				</port>
			</output>
		</layer>
		<layer id="258" name="754" type="Const" version="opset1">
			<data element_type="i64" shape="1" offset="1824" size="8"/>
			<rt_info>
				<attribute name="fused_names" version="0" value="752, 753, 754, 755, Broadcast_2022, ShapeOf_2021"/>
			</rt_info>
			<output>
				<port id="0" precision="I64" names="754">
					<dim>1</dim>
				</port>
			</output>
		</layer>
		<layer id="259" name="Broadcast_2022" type="Const" version="opset1">
			<data element_type="i64" shape="1" offset="1808" size="8"/>
			<rt_info>
				<attribute name="fused_names" version="0" value="752, 753, 754, 755, Broadcast_2022, ShapeOf_2021"/>
			</rt_info>
			<output>
				<port id="0" precision="I64">
					<dim>1</dim>
				</port>
			</output>
		</layer>
		<layer id="260" name="755" type="StridedSlice" version="opset1">
			<data begin_mask="0" end_mask="0" new_axis_mask="" shrink_axis_mask="" ellipsis_mask=""/>
			<rt_info>
				<attribute name="fused_names" version="0" value="752, 753, 754, 755, Broadcast_2022, ShapeOf_2021"/>
			</rt_info>
			<input>
				<port id="0" precision="I64">
					<dim>4</dim>
				</port>
				<port id="1" precision="I64">
					<dim>1</dim>
				</port>
				<port id="2" precision="I64">
					<dim>1</dim>
				</port>
				<port id="3" precision="I64">
					<dim>1</dim>
				</port>
			</input>
			<output>
				<port id="4" precision="I64" names="755">
					<dim>2</dim>
				</port>
			</output>
		</layer>
		<layer id="261" name="742" type="ShapeOf" version="opset3">
			<data output_type="i64"/>
			<rt_info>
				<attribute name="fused_names" version="0" value="742, 745"/>
			</rt_info>
			<input>
				<port id="0" precision="FP32">
					<dim>1</dim>
					<dim>16</dim>
					<dim>28</dim>
					<dim>28</dim>
				</port>
			</input>
			<output>
				<port id="1" precision="I64" names="742,745">
					<dim>4</dim>
				</port>
			</output>
		</layer>
		<layer id="262" name="Constant_51024" type="Const" version="opset1">
			<data element_type="i64" shape="2" offset="5500" size="16"/>
			<rt_info>
				<attribute name="fused_names" version="0" value="750"/>
			</rt_info>
			<output>
				<port id="0" precision="I64">
					<dim>2</dim>
				</port>
			</output>
		</layer>
		<layer id="263" name="Constant_51025" type="Const" version="opset1">
			<data element_type="i64" shape="" offset="1816" size="8"/>
			<output>
				<port id="0" precision="I64"/>
			</output>
		</layer>
		<layer id="264" name="Gather_51026" type="Gather" version="opset8">
			<data batch_dims="0"/>
			<rt_info>
				<attribute name="fused_names" version="0" value="750, 756"/>
			</rt_info>
			<input>
				<port id="0" precision="I64">
					<dim>4</dim>
				</port>
				<port id="1" precision="I64">
					<dim>2</dim>
				</port>
				<port id="2" precision="I64"/>
			</input>
			<output>
				<port id="3" precision="I64" names="750,756">
					<dim>2</dim>
				</port>
			</output>
		</layer>
		<layer id="265" name="757" type="Concat" version="opset1">
			<data axis="0"/>
			<rt_info>
				<attribute name="fused_names" version="0" value="757"/>
			</rt_info>
			<input>
				<port id="0" precision="I64">
					<dim>2</dim>
				</port>
				<port id="1" precision="I64">
					<dim>2</dim>
				</port>
			</input>
			<output>
				<port id="2" precision="I64" names="757">
					<dim>4</dim>
				</port>
			</output>
		</layer>
		<layer id="266" name="Convert_2047" type="Convert" version="opset1">
			<data destination_type="f32"/>
			<rt_info>
				<attribute name="fused_names" version="0" value="Convert_2047"/>
			</rt_info>
			<input>
				<port id="0" precision="I64">
					<dim>4</dim>
				</port>
			</input>
			<output>
				<port id="1" precision="FP32">
					<dim>4</dim>
				</port>
			</output>
		</layer>
		<layer id="267" name="Convert_2046" type="Convert" version="opset1">
			<data destination_type="f32"/>
			<rt_info>
				<attribute name="fused_names" version="0" value="Convert_2046"/>
			</rt_info>
			<input>
				<port id="0" precision="I64">
					<dim>4</dim>
				</port>
			</input>
			<output>
				<port id="1" precision="FP32">
					<dim>4</dim>
				</port>
			</output>
		</layer>
		<layer id="268" name="Divide_2048" type="Divide" version="opset1">
			<data auto_broadcast="numpy" m_pythondiv="true"/>
			<rt_info>
				<attribute name="fused_names" version="0" value="Divide_2048"/>
			</rt_info>
			<input>
				<port id="0" precision="FP32">
					<dim>4</dim>
				</port>
				<port id="1" precision="FP32">
					<dim>4</dim>
				</port>
			</input>
			<output>
				<port id="2" precision="FP32">
					<dim>4</dim>
				</port>
			</output>
		</layer>
		<layer id="269" name="Constant_76283" type="Const" version="opset1">
			<data element_type="f32" shape="1" offset="18562" size="4"/>
			<output>
				<port id="0" precision="FP32">
					<dim>1</dim>
				</port>
			</output>
		</layer>
		<layer id="270" name="Add_2050" type="Add" version="opset1">
			<data auto_broadcast="numpy"/>
			<rt_info>
				<attribute name="fused_names" version="0" value="Add_2050"/>
			</rt_info>
			<input>
				<port id="0" precision="FP32">
					<dim>4</dim>
				</port>
				<port id="1" precision="FP32">
					<dim>1</dim>
				</port>
			</input>
			<output>
				<port id="2" precision="FP32">
					<dim>4</dim>
				</port>
			</output>
		</layer>
		<layer id="271" name="760" type="Interpolate" version="opset4">
			<data mode="nearest" shape_calculation_mode="sizes" coordinate_transformation_mode="asymmetric" nearest_mode="floor" antialias="false" pads_begin="0, 0, 0, 0" pads_end="0, 0, 0, 0" cube_coeff="-0.75"/>
			<rt_info>
				<attribute name="fused_names" version="0" value="760"/>
			</rt_info>
			<input>
				<port id="0" precision="FP32">
					<dim>1</dim>
					<dim>16</dim>
					<dim>28</dim>
					<dim>28</dim>
				</port>
				<port id="1" precision="I64">
					<dim>4</dim>
				</port>
				<port id="2" precision="FP32">
					<dim>4</dim>
				</port>
			</input>
			<output>
				<port id="3" precision="FP32" names="760">
					<dim>1</dim>
					<dim>16</dim>
					<dim>28</dim>
					<dim>28</dim>
				</port>
			</output>
		</layer>
		<layer id="272" name="761" type="Multiply" version="opset1">
			<data auto_broadcast="numpy"/>
			<rt_info>
				<attribute name="fused_names" version="0" value="761"/>
			</rt_info>
			<input>
				<port id="0" precision="FP32">
					<dim>1</dim>
					<dim>16</dim>
					<dim>28</dim>
					<dim>28</dim>
				</port>
				<port id="1" precision="FP32">
					<dim>1</dim>
					<dim>16</dim>
					<dim>28</dim>
					<dim>28</dim>
				</port>
			</input>
			<output>
				<port id="2" precision="FP32" names="761">
					<dim>1</dim>
					<dim>16</dim>
					<dim>28</dim>
					<dim>28</dim>
				</port>
			</output>
		</layer>
		<layer id="273" name="Reshape_2256_compressed" type="Const" version="opset1">
			<data element_type="f16" shape="16, 1, 1, 3, 3" offset="18810" size="288"/>
			<output>
				<port id="0" precision="FP16">
					<dim>16</dim>
					<dim>1</dim>
					<dim>1</dim>
					<dim>3</dim>
					<dim>3</dim>
				</port>
			</output>
		</layer>
		<layer id="274" name="Reshape_2256" type="Convert" version="opset1">
			<data destination_type="f32"/>
			<rt_info>
				<attribute name="decompression" version="0"/>
			</rt_info>
			<input>
				<port id="0" precision="FP16">
					<dim>16</dim>
					<dim>1</dim>
					<dim>1</dim>
					<dim>3</dim>
					<dim>3</dim>
				</port>
			</input>
			<output>
				<port id="1" precision="FP32">
					<dim>16</dim>
					<dim>1</dim>
					<dim>1</dim>
					<dim>3</dim>
					<dim>3</dim>
				</port>
			</output>
		</layer>
		<layer id="275" name="GroupConvolution_2322" type="GroupConvolution" version="opset1">
			<data strides="1, 1" pads_begin="1, 1" pads_end="1, 1" dilations="1, 1" auto_pad="explicit"/>
			<rt_info>
				<attribute name="fused_names" version="0" value="GroupConvolution_2322, Reshape_2256"/>
			</rt_info>
			<input>
				<port id="0" precision="FP32">
					<dim>1</dim>
					<dim>16</dim>
					<dim>28</dim>
					<dim>28</dim>
				</port>
				<port id="1" precision="FP32">
					<dim>16</dim>
					<dim>1</dim>
					<dim>1</dim>
					<dim>3</dim>
					<dim>3</dim>
				</port>
			</input>
			<output>
				<port id="2" precision="FP32">
					<dim>1</dim>
					<dim>16</dim>
					<dim>28</dim>
					<dim>28</dim>
				</port>
			</output>
		</layer>
		<layer id="276" name="Reshape_2342_compressed" type="Const" version="opset1">
			<data element_type="f16" shape="1, 16, 1, 1" offset="19098" size="32"/>
			<output>
				<port id="0" precision="FP16">
					<dim>1</dim>
					<dim>16</dim>
					<dim>1</dim>
					<dim>1</dim>
				</port>
			</output>
		</layer>
		<layer id="277" name="Reshape_2342" type="Convert" version="opset1">
			<data destination_type="f32"/>
			<rt_info>
				<attribute name="decompression" version="0"/>
			</rt_info>
			<input>
				<port id="0" precision="FP16">
					<dim>1</dim>
					<dim>16</dim>
					<dim>1</dim>
					<dim>1</dim>
				</port>
			</input>
			<output>
				<port id="1" precision="FP32">
					<dim>1</dim>
					<dim>16</dim>
					<dim>1</dim>
					<dim>1</dim>
				</port>
			</output>
		</layer>
		<layer id="278" name="2049" type="Add" version="opset1">
			<data auto_broadcast="numpy"/>
			<rt_info>
				<attribute name="fused_names" version="0" value="2049, Concat_2341, Reshape_2342"/>
			</rt_info>
			<input>
				<port id="0" precision="FP32">
					<dim>1</dim>
					<dim>16</dim>
					<dim>28</dim>
					<dim>28</dim>
				</port>
				<port id="1" precision="FP32">
					<dim>1</dim>
					<dim>16</dim>
					<dim>1</dim>
					<dim>1</dim>
				</port>
			</input>
			<output>
				<port id="2" precision="FP32" names="2049">
					<dim>1</dim>
					<dim>16</dim>
					<dim>28</dim>
					<dim>28</dim>
				</port>
			</output>
		</layer>
		<layer id="279" name="Range_2508" type="Const" version="opset1">
			<data element_type="i64" shape="2" offset="5500" size="16"/>
			<output>
				<port id="0" precision="I64">
					<dim>2</dim>
				</port>
			</output>
		</layer>
		<layer id="280" name="772" type="ReduceMean" version="opset1">
			<data keep_dims="true"/>
			<rt_info>
				<attribute name="fused_names" version="0" value="772, Range_2508"/>
			</rt_info>
			<input>
				<port id="0" precision="FP32">
					<dim>1</dim>
					<dim>16</dim>
					<dim>28</dim>
					<dim>28</dim>
				</port>
				<port id="1" precision="I64">
					<dim>2</dim>
				</port>
			</input>
			<output>
				<port id="2" precision="FP32" names="772">
					<dim>1</dim>
					<dim>16</dim>
					<dim>1</dim>
					<dim>1</dim>
				</port>
			</output>
		</layer>
		<layer id="281" name="stage0.0.layers.0.spatial_weighting.1.conv1.0.weight_compressed" type="Const" version="opset1">
			<data element_type="f16" shape="4, 16, 1, 1" offset="19130" size="128"/>
			<output>
				<port id="0" precision="FP16">
					<dim>4</dim>
					<dim>16</dim>
					<dim>1</dim>
					<dim>1</dim>
				</port>
			</output>
		</layer>
		<layer id="282" name="stage0.0.layers.0.spatial_weighting.1.conv1.0.weight" type="Convert" version="opset1">
			<data destination_type="f32"/>
			<rt_info>
				<attribute name="decompression" version="0"/>
				<attribute name="fused_names" version="0" value="stage0.0.layers.0.spatial_weighting.1.conv1.0.weight"/>
			</rt_info>
			<input>
				<port id="0" precision="FP16">
					<dim>4</dim>
					<dim>16</dim>
					<dim>1</dim>
					<dim>1</dim>
				</port>
			</input>
			<output>
				<port id="1" precision="FP32" names="stage0.0.layers.0.spatial_weighting.1.conv1.0.weight">
					<dim>4</dim>
					<dim>16</dim>
					<dim>1</dim>
					<dim>1</dim>
				</port>
			</output>
		</layer>
		<layer id="283" name="Convolution_2533" type="Convolution" version="opset1">
			<data strides="1, 1" dilations="1, 1" pads_begin="0, 0" pads_end="0, 0" auto_pad="explicit"/>
			<rt_info>
				<attribute name="fused_names" version="0" value="Convolution_2533"/>
			</rt_info>
			<input>
				<port id="0" precision="FP32">
					<dim>1</dim>
					<dim>16</dim>
					<dim>1</dim>
					<dim>1</dim>
				</port>
				<port id="1" precision="FP32">
					<dim>4</dim>
					<dim>16</dim>
					<dim>1</dim>
					<dim>1</dim>
				</port>
			</input>
			<output>
				<port id="2" precision="FP32">
					<dim>1</dim>
					<dim>4</dim>
					<dim>1</dim>
					<dim>1</dim>
				</port>
			</output>
		</layer>
		<layer id="284" name="Reshape_2553_compressed" type="Const" version="opset1">
			<data element_type="f16" shape="1, 4, 1, 1" offset="19258" size="8"/>
			<output>
				<port id="0" precision="FP16">
					<dim>1</dim>
					<dim>4</dim>
					<dim>1</dim>
					<dim>1</dim>
				</port>
			</output>
		</layer>
		<layer id="285" name="Reshape_2553" type="Convert" version="opset1">
			<data destination_type="f32"/>
			<rt_info>
				<attribute name="decompression" version="0"/>
			</rt_info>
			<input>
				<port id="0" precision="FP16">
					<dim>1</dim>
					<dim>4</dim>
					<dim>1</dim>
					<dim>1</dim>
				</port>
			</input>
			<output>
				<port id="1" precision="FP32">
					<dim>1</dim>
					<dim>4</dim>
					<dim>1</dim>
					<dim>1</dim>
				</port>
			</output>
		</layer>
		<layer id="286" name="773" type="Add" version="opset1">
			<data auto_broadcast="numpy"/>
			<rt_info>
				<attribute name="fused_names" version="0" value="773, Concat_2552, Reshape_2553"/>
			</rt_info>
			<input>
				<port id="0" precision="FP32">
					<dim>1</dim>
					<dim>4</dim>
					<dim>1</dim>
					<dim>1</dim>
				</port>
				<port id="1" precision="FP32">
					<dim>1</dim>
					<dim>4</dim>
					<dim>1</dim>
					<dim>1</dim>
				</port>
			</input>
			<output>
				<port id="2" precision="FP32" names="773">
					<dim>1</dim>
					<dim>4</dim>
					<dim>1</dim>
					<dim>1</dim>
				</port>
			</output>
		</layer>
		<layer id="287" name="774" type="ReLU" version="opset1">
			<rt_info>
				<attribute name="fused_names" version="0" value="774"/>
			</rt_info>
			<input>
				<port id="0" precision="FP32">
					<dim>1</dim>
					<dim>4</dim>
					<dim>1</dim>
					<dim>1</dim>
				</port>
			</input>
			<output>
				<port id="1" precision="FP32" names="774">
					<dim>1</dim>
					<dim>4</dim>
					<dim>1</dim>
					<dim>1</dim>
				</port>
			</output>
		</layer>
		<layer id="288" name="stage0.0.layers.0.spatial_weighting.1.conv2.0.weight_compressed" type="Const" version="opset1">
			<data element_type="f16" shape="16, 4, 1, 1" offset="19266" size="128"/>
			<output>
				<port id="0" precision="FP16">
					<dim>16</dim>
					<dim>4</dim>
					<dim>1</dim>
					<dim>1</dim>
				</port>
			</output>
		</layer>
		<layer id="289" name="stage0.0.layers.0.spatial_weighting.1.conv2.0.weight" type="Convert" version="opset1">
			<data destination_type="f32"/>
			<rt_info>
				<attribute name="decompression" version="0"/>
				<attribute name="fused_names" version="0" value="stage0.0.layers.0.spatial_weighting.1.conv2.0.weight"/>
			</rt_info>
			<input>
				<port id="0" precision="FP16">
					<dim>16</dim>
					<dim>4</dim>
					<dim>1</dim>
					<dim>1</dim>
				</port>
			</input>
			<output>
				<port id="1" precision="FP32" names="stage0.0.layers.0.spatial_weighting.1.conv2.0.weight">
					<dim>16</dim>
					<dim>4</dim>
					<dim>1</dim>
					<dim>1</dim>
				</port>
			</output>
		</layer>
		<layer id="290" name="Convolution_2582" type="Convolution" version="opset1">
			<data strides="1, 1" dilations="1, 1" pads_begin="0, 0" pads_end="0, 0" auto_pad="explicit"/>
			<rt_info>
				<attribute name="fused_names" version="0" value="Convolution_2582"/>
			</rt_info>
			<input>
				<port id="0" precision="FP32">
					<dim>1</dim>
					<dim>4</dim>
					<dim>1</dim>
					<dim>1</dim>
				</port>
				<port id="1" precision="FP32">
					<dim>16</dim>
					<dim>4</dim>
					<dim>1</dim>
					<dim>1</dim>
				</port>
			</input>
			<output>
				<port id="2" precision="FP32">
					<dim>1</dim>
					<dim>16</dim>
					<dim>1</dim>
					<dim>1</dim>
				</port>
			</output>
		</layer>
		<layer id="291" name="Reshape_2602_compressed" type="Const" version="opset1">
			<data element_type="f16" shape="1, 16, 1, 1" offset="19394" size="32"/>
			<output>
				<port id="0" precision="FP16">
					<dim>1</dim>
					<dim>16</dim>
					<dim>1</dim>
					<dim>1</dim>
				</port>
			</output>
		</layer>
		<layer id="292" name="Reshape_2602" type="Convert" version="opset1">
			<data destination_type="f32"/>
			<rt_info>
				<attribute name="decompression" version="0"/>
			</rt_info>
			<input>
				<port id="0" precision="FP16">
					<dim>1</dim>
					<dim>16</dim>
					<dim>1</dim>
					<dim>1</dim>
				</port>
			</input>
			<output>
				<port id="1" precision="FP32">
					<dim>1</dim>
					<dim>16</dim>
					<dim>1</dim>
					<dim>1</dim>
				</port>
			</output>
		</layer>
		<layer id="293" name="775" type="Add" version="opset1">
			<data auto_broadcast="numpy"/>
			<rt_info>
				<attribute name="fused_names" version="0" value="775, Concat_2601, Reshape_2602"/>
			</rt_info>
			<input>
				<port id="0" precision="FP32">
					<dim>1</dim>
					<dim>16</dim>
					<dim>1</dim>
					<dim>1</dim>
				</port>
				<port id="1" precision="FP32">
					<dim>1</dim>
					<dim>16</dim>
					<dim>1</dim>
					<dim>1</dim>
				</port>
			</input>
			<output>
				<port id="2" precision="FP32" names="775">
					<dim>1</dim>
					<dim>16</dim>
					<dim>1</dim>
					<dim>1</dim>
				</port>
			</output>
		</layer>
		<layer id="294" name="776" type="Sigmoid" version="opset1">
			<rt_info>
				<attribute name="fused_names" version="0" value="776"/>
			</rt_info>
			<input>
				<port id="0" precision="FP32">
					<dim>1</dim>
					<dim>16</dim>
					<dim>1</dim>
					<dim>1</dim>
				</port>
			</input>
			<output>
				<port id="1" precision="FP32" names="776">
					<dim>1</dim>
					<dim>16</dim>
					<dim>1</dim>
					<dim>1</dim>
				</port>
			</output>
		</layer>
		<layer id="295" name="777" type="Multiply" version="opset1">
			<data auto_broadcast="numpy"/>
			<rt_info>
				<attribute name="fused_names" version="0" value="777"/>
			</rt_info>
			<input>
				<port id="0" precision="FP32">
					<dim>1</dim>
					<dim>16</dim>
					<dim>28</dim>
					<dim>28</dim>
				</port>
				<port id="1" precision="FP32">
					<dim>1</dim>
					<dim>16</dim>
					<dim>1</dim>
					<dim>1</dim>
				</port>
			</input>
			<output>
				<port id="2" precision="FP32" names="777">
					<dim>1</dim>
					<dim>16</dim>
					<dim>28</dim>
					<dim>28</dim>
				</port>
			</output>
		</layer>
		<layer id="296" name="779" type="Concat" version="opset1">
			<data axis="1"/>
			<rt_info>
				<attribute name="fused_names" version="0" value="779"/>
			</rt_info>
			<input>
				<port id="0" precision="FP32">
					<dim>1</dim>
					<dim>16</dim>
					<dim>28</dim>
					<dim>28</dim>
				</port>
				<port id="1" precision="FP32">
					<dim>1</dim>
					<dim>16</dim>
					<dim>28</dim>
					<dim>28</dim>
				</port>
			</input>
			<output>
				<port id="2" precision="FP32" names="779">
					<dim>1</dim>
					<dim>32</dim>
					<dim>28</dim>
					<dim>28</dim>
				</port>
			</output>
		</layer>
		<layer id="297" name="Constant_58053" type="Const" version="opset1">
			<data element_type="i64" shape="1" offset="1816" size="8"/>
			<output>
				<port id="0" precision="I64">
					<dim>1</dim>
				</port>
			</output>
		</layer>
		<layer id="298" name="2353" type="Const" version="opset1">
			<data element_type="i64" shape="1" offset="1824" size="8"/>
			<rt_info>
				<attribute name="fused_names" version="0" value="2353"/>
			</rt_info>
			<output>
				<port id="0" precision="I64" names="2353">
					<dim>1</dim>
				</port>
			</output>
		</layer>
		<layer id="299" name="812" type="ShapeOf" version="opset3">
			<data output_type="i64"/>
			<rt_info>
				<attribute name="fused_names" version="0" value="812, 815, 818, 821"/>
			</rt_info>
			<input>
				<port id="0" precision="FP32">
					<dim>1</dim>
					<dim>32</dim>
					<dim>28</dim>
					<dim>28</dim>
				</port>
			</input>
			<output>
				<port id="1" precision="I64" names="812,815,818,821">
					<dim>4</dim>
				</port>
			</output>
		</layer>
		<layer id="300" name="816" type="Const" version="opset1">
			<data element_type="i64" shape="" offset="1808" size="8"/>
			<rt_info>
				<attribute name="fused_names" version="0" value="816"/>
			</rt_info>
			<output>
				<port id="0" precision="I64" names="816"/>
			</output>
		</layer>
		<layer id="301" name="Constant_2859" type="Const" version="opset1">
			<data element_type="i64" shape="" offset="1816" size="8"/>
			<rt_info>
				<attribute name="fused_names" version="0" value="Constant_2859"/>
			</rt_info>
			<output>
				<port id="0" precision="I64"/>
			</output>
		</layer>
		<layer id="302" name="817" type="Gather" version="opset8">
			<data batch_dims="0"/>
			<rt_info>
				<attribute name="fused_names" version="0" value="816, 817, Constant_2859"/>
			</rt_info>
			<input>
				<port id="0" precision="I64">
					<dim>4</dim>
				</port>
				<port id="1" precision="I64"/>
				<port id="2" precision="I64"/>
			</input>
			<output>
				<port id="3" precision="I64" names="817"/>
			</output>
		</layer>
		<layer id="303" name="824" type="Const" version="opset1">
			<data element_type="i64" shape="" offset="1824" size="8"/>
			<rt_info>
				<attribute name="fused_names" version="0" value="824"/>
			</rt_info>
			<output>
				<port id="0" precision="I64" names="824"/>
			</output>
		</layer>
		<layer id="304" name="825" type="Divide" version="opset1">
			<data auto_broadcast="numpy" m_pythondiv="true"/>
			<rt_info>
				<attribute name="fused_names" version="0" value="824, 825, 826, 827"/>
			</rt_info>
			<input>
				<port id="0" precision="I64"/>
				<port id="1" precision="I64"/>
			</input>
			<output>
				<port id="2" precision="I64" names="825,826,827"/>
			</output>
		</layer>
		<layer id="305" name="Constant_2875" type="Const" version="opset1">
			<data element_type="i64" shape="1" offset="1816" size="8"/>
			<rt_info>
				<attribute name="fused_names" version="0" value="Constant_2875"/>
			</rt_info>
			<output>
				<port id="0" precision="I64">
					<dim>1</dim>
				</port>
			</output>
		</layer>
		<layer id="306" name="831" type="Unsqueeze" version="opset1">
			<rt_info>
				<attribute name="fused_names" version="0" value="831, Constant_2875"/>
			</rt_info>
			<input>
				<port id="0" precision="I64"/>
				<port id="1" precision="I64">
					<dim>1</dim>
				</port>
			</input>
			<output>
				<port id="2" precision="I64" names="831">
					<dim>1</dim>
				</port>
			</output>
		</layer>
		<layer id="307" name="Constant_51028" type="Const" version="opset1">
			<data element_type="i64" shape="2" offset="5500" size="16"/>
			<rt_info>
				<attribute name="fused_names" version="0" value="2353, 834"/>
			</rt_info>
			<output>
				<port id="0" precision="I64">
					<dim>2</dim>
				</port>
			</output>
		</layer>
		<layer id="308" name="Constant_51029" type="Const" version="opset1">
			<data element_type="i64" shape="" offset="1816" size="8"/>
			<output>
				<port id="0" precision="I64"/>
			</output>
		</layer>
		<layer id="309" name="Gather_51030" type="Gather" version="opset8">
			<data batch_dims="0"/>
			<rt_info>
				<attribute name="fused_names" version="0" value="2353, 834"/>
			</rt_info>
			<input>
				<port id="0" precision="I64">
					<dim>4</dim>
				</port>
				<port id="1" precision="I64">
					<dim>2</dim>
				</port>
				<port id="2" precision="I64"/>
			</input>
			<output>
				<port id="3" precision="I64">
					<dim>2</dim>
				</port>
			</output>
		</layer>
		<layer id="310" name="834" type="Concat" version="opset1">
			<data axis="0"/>
			<rt_info>
				<attribute name="fused_names" version="0" value="2353, 834"/>
			</rt_info>
			<input>
				<port id="0" precision="I64">
					<dim>1</dim>
				</port>
				<port id="1" precision="I64">
					<dim>1</dim>
				</port>
				<port id="2" precision="I64">
					<dim>1</dim>
				</port>
				<port id="3" precision="I64">
					<dim>2</dim>
				</port>
			</input>
			<output>
				<port id="4" precision="I64">
					<dim>5</dim>
				</port>
			</output>
		</layer>
		<layer id="311" name="835" type="Reshape" version="opset1">
			<data special_zero="true"/>
			<rt_info>
				<attribute name="fused_names" version="0" value="835"/>
			</rt_info>
			<input>
				<port id="0" precision="FP32">
					<dim>1</dim>
					<dim>32</dim>
					<dim>28</dim>
					<dim>28</dim>
				</port>
				<port id="1" precision="I64">
					<dim>5</dim>
				</port>
			</input>
			<output>
				<port id="2" precision="FP32" names="835">
					<dim>1</dim>
					<dim>2</dim>
					<dim>16</dim>
					<dim>28</dim>
					<dim>28</dim>
				</port>
			</output>
		</layer>
		<layer id="312" name="Constant_3000" type="Const" version="opset1">
			<data element_type="i64" shape="5" offset="5516" size="40"/>
			<rt_info>
				<attribute name="fused_names" version="0" value="Constant_3000"/>
			</rt_info>
			<output>
				<port id="0" precision="I64">
					<dim>5</dim>
				</port>
			</output>
		</layer>
		<layer id="313" name="836" type="Transpose" version="opset1">
			<rt_info>
				<attribute name="fused_names" version="0" value="836"/>
			</rt_info>
			<input>
				<port id="0" precision="FP32">
					<dim>1</dim>
					<dim>2</dim>
					<dim>16</dim>
					<dim>28</dim>
					<dim>28</dim>
				</port>
				<port id="1" precision="I64">
					<dim>5</dim>
				</port>
			</input>
			<output>
				<port id="2" precision="FP32" names="836">
					<dim>1</dim>
					<dim>16</dim>
					<dim>2</dim>
					<dim>28</dim>
					<dim>28</dim>
				</port>
			</output>
		</layer>
		<layer id="314" name="Constant_50205" type="Const" version="opset1">
			<data element_type="i64" shape="1" offset="1816" size="8"/>
			<rt_info>
				<attribute name="fused_names" version="0" value="813, 814, 838, Constant_2855, Constant_3002"/>
			</rt_info>
			<output>
				<port id="0" precision="I64">
					<dim>1</dim>
				</port>
			</output>
		</layer>
		<layer id="315" name="Constant_2855" type="Const" version="opset1">
			<data element_type="i64" shape="" offset="1816" size="8"/>
			<rt_info>
				<attribute name="fused_names" version="0" value="Constant_2855"/>
			</rt_info>
			<output>
				<port id="0" precision="I64"/>
			</output>
		</layer>
		<layer id="316" name="814" type="Gather" version="opset8">
			<data batch_dims="0"/>
			<rt_info>
				<attribute name="fused_names" version="0" value="813, 814, 838, Constant_2855, Constant_3002"/>
			</rt_info>
			<input>
				<port id="0" precision="I64">
					<dim>4</dim>
				</port>
				<port id="1" precision="I64">
					<dim>1</dim>
				</port>
				<port id="2" precision="I64"/>
			</input>
			<output>
				<port id="3" precision="I64" names="838">
					<dim>1</dim>
				</port>
			</output>
		</layer>
		<layer id="317" name="2354" type="Const" version="opset1">
			<data element_type="i64" shape="1" offset="5556" size="8"/>
			<rt_info>
				<attribute name="fused_names" version="0" value="2354"/>
			</rt_info>
			<output>
				<port id="0" precision="I64" names="2354">
					<dim>1</dim>
				</port>
			</output>
		</layer>
		<layer id="318" name="Constant_51033" type="Const" version="opset1">
			<data element_type="i64" shape="2" offset="5500" size="16"/>
			<rt_info>
				<attribute name="fused_names" version="0" value="2354, 842"/>
			</rt_info>
			<output>
				<port id="0" precision="I64">
					<dim>2</dim>
				</port>
			</output>
		</layer>
		<layer id="319" name="Constant_51034" type="Const" version="opset1">
			<data element_type="i64" shape="" offset="1816" size="8"/>
			<output>
				<port id="0" precision="I64"/>
			</output>
		</layer>
		<layer id="320" name="Gather_51035" type="Gather" version="opset8">
			<data batch_dims="0"/>
			<rt_info>
				<attribute name="fused_names" version="0" value="2354, 842"/>
			</rt_info>
			<input>
				<port id="0" precision="I64">
					<dim>4</dim>
				</port>
				<port id="1" precision="I64">
					<dim>2</dim>
				</port>
				<port id="2" precision="I64"/>
			</input>
			<output>
				<port id="3" precision="I64">
					<dim>2</dim>
				</port>
			</output>
		</layer>
		<layer id="321" name="842" type="Concat" version="opset1">
			<data axis="0"/>
			<rt_info>
				<attribute name="fused_names" version="0" value="2354, 842"/>
			</rt_info>
			<input>
				<port id="0" precision="I64">
					<dim>1</dim>
				</port>
				<port id="1" precision="I64">
					<dim>1</dim>
				</port>
				<port id="2" precision="I64">
					<dim>2</dim>
				</port>
			</input>
			<output>
				<port id="3" precision="I64" names="842">
					<dim>4</dim>
				</port>
			</output>
		</layer>
		<layer id="322" name="843" type="Reshape" version="opset1">
			<data special_zero="true"/>
			<rt_info>
				<attribute name="fused_names" version="0" value="843"/>
			</rt_info>
			<input>
				<port id="0" precision="FP32">
					<dim>1</dim>
					<dim>16</dim>
					<dim>2</dim>
					<dim>28</dim>
					<dim>28</dim>
				</port>
				<port id="1" precision="I64">
					<dim>4</dim>
				</port>
			</input>
			<output>
				<port id="2" precision="FP32" names="843">
					<dim>1</dim>
					<dim>32</dim>
					<dim>28</dim>
					<dim>28</dim>
				</port>
			</output>
		</layer>
		<layer id="323" name="2053_compressed" type="Const" version="opset1">
			<data element_type="f16" shape="16, 32, 1, 1" offset="19426" size="1024"/>
			<output>
				<port id="0" precision="FP16">
					<dim>16</dim>
					<dim>32</dim>
					<dim>1</dim>
					<dim>1</dim>
				</port>
			</output>
		</layer>
		<layer id="324" name="2053" type="Convert" version="opset1">
			<data destination_type="f32"/>
			<rt_info>
				<attribute name="decompression" version="0"/>
				<attribute name="fused_names" version="0" value="2053"/>
			</rt_info>
			<input>
				<port id="0" precision="FP16">
					<dim>16</dim>
					<dim>32</dim>
					<dim>1</dim>
					<dim>1</dim>
				</port>
			</input>
			<output>
				<port id="1" precision="FP32" names="2053">
					<dim>16</dim>
					<dim>32</dim>
					<dim>1</dim>
					<dim>1</dim>
				</port>
			</output>
		</layer>
		<layer id="325" name="Convolution_3073" type="Convolution" version="opset1">
			<data strides="1, 1" dilations="1, 1" pads_begin="0, 0" pads_end="0, 0" auto_pad="explicit"/>
			<rt_info>
				<attribute name="fused_names" version="0" value="Convolution_3073"/>
			</rt_info>
			<input>
				<port id="0" precision="FP32">
					<dim>1</dim>
					<dim>32</dim>
					<dim>28</dim>
					<dim>28</dim>
				</port>
				<port id="1" precision="FP32">
					<dim>16</dim>
					<dim>32</dim>
					<dim>1</dim>
					<dim>1</dim>
				</port>
			</input>
			<output>
				<port id="2" precision="FP32">
					<dim>1</dim>
					<dim>16</dim>
					<dim>28</dim>
					<dim>28</dim>
				</port>
			</output>
		</layer>
		<layer id="326" name="Reshape_3093_compressed" type="Const" version="opset1">
			<data element_type="f16" shape="1, 16, 1, 1" offset="20450" size="32"/>
			<output>
				<port id="0" precision="FP16">
					<dim>1</dim>
					<dim>16</dim>
					<dim>1</dim>
					<dim>1</dim>
				</port>
			</output>
		</layer>
		<layer id="327" name="Reshape_3093" type="Convert" version="opset1">
			<data destination_type="f32"/>
			<rt_info>
				<attribute name="decompression" version="0"/>
			</rt_info>
			<input>
				<port id="0" precision="FP16">
					<dim>1</dim>
					<dim>16</dim>
					<dim>1</dim>
					<dim>1</dim>
				</port>
			</input>
			<output>
				<port id="1" precision="FP32">
					<dim>1</dim>
					<dim>16</dim>
					<dim>1</dim>
					<dim>1</dim>
				</port>
			</output>
		</layer>
		<layer id="328" name="2052" type="Add" version="opset1">
			<data auto_broadcast="numpy"/>
			<rt_info>
				<attribute name="fused_names" version="0" value="2052, Concat_3092, Reshape_3093"/>
			</rt_info>
			<input>
				<port id="0" precision="FP32">
					<dim>1</dim>
					<dim>16</dim>
					<dim>28</dim>
					<dim>28</dim>
				</port>
				<port id="1" precision="FP32">
					<dim>1</dim>
					<dim>16</dim>
					<dim>1</dim>
					<dim>1</dim>
				</port>
			</input>
			<output>
				<port id="2" precision="FP32" names="2052">
					<dim>1</dim>
					<dim>16</dim>
					<dim>28</dim>
					<dim>28</dim>
				</port>
			</output>
		</layer>
		<layer id="329" name="ShapeOf_3123" type="ShapeOf" version="opset3">
			<data output_type="i64"/>
			<rt_info>
				<attribute name="fused_names" version="0" value="ShapeOf_3123"/>
			</rt_info>
			<input>
				<port id="0" precision="FP32">
					<dim>1</dim>
					<dim>16</dim>
					<dim>28</dim>
					<dim>28</dim>
				</port>
			</input>
			<output>
				<port id="1" precision="I64">
					<dim>4</dim>
				</port>
			</output>
		</layer>
		<layer id="330" name="Convert_3124" type="Convert" version="opset1">
			<data destination_type="f32"/>
			<rt_info>
				<attribute name="fused_names" version="0" value="Convert_3124"/>
			</rt_info>
			<input>
				<port id="0" precision="I64">
					<dim>4</dim>
				</port>
			</input>
			<output>
				<port id="1" precision="FP32">
					<dim>4</dim>
				</port>
			</output>
		</layer>
		<layer id="331" name="2355" type="Const" version="opset1">
			<data element_type="f32" shape="4" offset="20482" size="16"/>
			<rt_info>
				<attribute name="fused_names" version="0" value="2355"/>
			</rt_info>
			<output>
				<port id="0" precision="FP32" names="2355">
					<dim>4</dim>
				</port>
			</output>
		</layer>
…
		<edge from-layer="1421" from-port="0" to-layer="1422" to-port="3"/>
		<edge from-layer="1422" from-port="4" to-layer="1424" to-port="2"/>
		<edge from-layer="1423" from-port="0" to-layer="1424" to-port="3"/>
		<edge from-layer="1424" from-port="4" to-layer="1465" to-port="0"/>
		<edge from-layer="1425" from-port="1" to-layer="1436" to-port="0"/>
		<edge from-layer="1425" from-port="1" to-layer="1429" to-port="0"/>
		<edge from-layer="1426" from-port="0" to-layer="1429" to-port="1"/>
		<edge from-layer="1427" from-port="0" to-layer="1429" to-port="2"/>
		<edge from-layer="1428" from-port="0" to-layer="1429" to-port="3"/>
		<edge from-layer="1429" from-port="4" to-layer="1434" to-port="0"/>
		<edge from-layer="1430" from-port="1" to-layer="1433" to-port="0"/>
		<edge from-layer="1431" from-port="0" to-layer="1433" to-port="1"/>
		<edge from-layer="1432" from-port="0" to-layer="1433" to-port="2"/>
		<edge from-layer="1433" from-port="3" to-layer="1434" to-port="1"/>
		<edge from-layer="1434" from-port="2" to-layer="1435" to-port="0"/>
		<edge from-layer="1434" from-port="2" to-layer="1440" to-port="1"/>
		<edge from-layer="1435" from-port="1" to-layer="1437" to-port="0"/>
		<edge from-layer="1436" from-port="1" to-layer="1437" to-port="1"/>
		<edge from-layer="1437" from-port="2" to-layer="1439" to-port="0"/>
		<edge from-layer="1438" from-port="0" to-layer="1439" to-port="1"/>
		<edge from-layer="1439" from-port="2" to-layer="1440" to-port="2"/>
		<edge from-layer="1440" from-port="3" to-layer="1441" to-port="1"/>
		<edge from-layer="1441" from-port="2" to-layer="1444" to-port="0"/>
		<edge from-layer="1442" from-port="0" to-layer="1443" to-port="0"/>
		<edge from-layer="1443" from-port="1" to-layer="1444" to-port="1"/>
		<edge from-layer="1444" from-port="2" to-layer="1447" to-port="0"/>
		<edge from-layer="1445" from-port="0" to-layer="1446" to-port="0"/>
		<edge from-layer="1446" from-port="1" to-layer="1447" to-port="1"/>
		<edge from-layer="1447" from-port="2" to-layer="1464" to-port="0"/>
		<edge from-layer="1447" from-port="2" to-layer="1449" to-port="0"/>
		<edge from-layer="1448" from-port="0" to-layer="1449" to-port="1"/>
		<edge from-layer="1449" from-port="2" to-layer="1452" to-port="0"/>
		<edge from-layer="1450" from-port="0" to-layer="1451" to-port="0"/>
		<edge from-layer="1451" from-port="1" to-layer="1452" to-port="1"/>
		<edge from-layer="1452" from-port="2" to-layer="1455" to-port="0"/>
		<edge from-layer="1453" from-port="0" to-layer="1454" to-port="0"/>
		<edge from-layer="1454" from-port="1" to-layer="1455" to-port="1"/>
		<edge from-layer="1455" from-port="2" to-layer="1456" to-port="0"/>
		<edge from-layer="1456" from-port="1" to-layer="1459" to-port="0"/>
		<edge from-layer="1457" from-port="0" to-layer="1458" to-port="0"/>
		<edge from-layer="1458" from-port="1" to-layer="1459" to-port="1"/>
		<edge from-layer="1459" from-port="2" to-layer="1462" to-port="0"/>
		<edge from-layer="1460" from-port="0" to-layer="1461" to-port="0"/>
		<edge from-layer="1461" from-port="1" to-layer="1462" to-port="1"/>
		<edge from-layer="1462" from-port="2" to-layer="1463" to-port="0"/>
		<edge from-layer="1463" from-port="1" to-layer="1464" to-port="1"/>
		<edge from-layer="1464" from-port="2" to-layer="1465" to-port="1"/>
		<edge from-layer="1465" from-port="2" to-layer="1468" to-port="0"/>
		<edge from-layer="1465" from-port="2" to-layer="1480" to-port="0"/>
		<edge from-layer="1466" from-port="0" to-layer="1479" to-port="0"/>
		<edge from-layer="1467" from-port="0" to-layer="1479" to-port="1"/>
		<edge from-layer="1468" from-port="1" to-layer="1478" to-port="0"/>
		<edge from-layer="1468" from-port="1" to-layer="1471" to-port="0"/>
		<edge from-layer="1468" from-port="1" to-layer="1489" to-port="0"/>
		<edge from-layer="1468" from-port="1" to-layer="1485" to-port="0"/>
		<edge from-layer="1469" from-port="0" to-layer="1471" to-port="1"/>
		<edge from-layer="1470" from-port="0" to-layer="1471" to-port="2"/>
		<edge from-layer="1471" from-port="3" to-layer="1473" to-port="0"/>
		<edge from-layer="1472" from-port="0" to-layer="1473" to-port="1"/>
		<edge from-layer="1473" from-port="2" to-layer="1475" to-port="0"/>
		<edge from-layer="1474" from-port="0" to-layer="1475" to-port="1"/>
		<edge from-layer="1475" from-port="2" to-layer="1479" to-port="2"/>
		<edge from-layer="1476" from-port="0" to-layer="1478" to-port="1"/>
		<edge from-layer="1477" from-port="0" to-layer="1478" to-port="2"/>
		<edge from-layer="1478" from-port="3" to-layer="1479" to-port="3"/>
		<edge from-layer="1479" from-port="4" to-layer="1480" to-port="1"/>
		<edge from-layer="1480" from-port="2" to-layer="1482" to-port="0"/>
		<edge from-layer="1481" from-port="0" to-layer="1482" to-port="1"/>
		<edge from-layer="1482" from-port="2" to-layer="1491" to-port="0"/>
		<edge from-layer="1483" from-port="0" to-layer="1485" to-port="1"/>
		<edge from-layer="1484" from-port="0" to-layer="1485" to-port="2"/>
		<edge from-layer="1485" from-port="3" to-layer="1490" to-port="0"/>
		<edge from-layer="1486" from-port="0" to-layer="1490" to-port="1"/>
		<edge from-layer="1487" from-port="0" to-layer="1489" to-port="1"/>
		<edge from-layer="1488" from-port="0" to-layer="1489" to-port="2"/>
		<edge from-layer="1489" from-port="3" to-layer="1490" to-port="2"/>
		<edge from-layer="1490" from-port="3" to-layer="1491" to-port="1"/>
		<edge from-layer="1491" from-port="2" to-layer="1705" to-port="1"/>
		<edge from-layer="1491" from-port="2" to-layer="1786" to-port="0"/>
		<edge from-layer="1491" from-port="2" to-layer="1891" to-port="0"/>
		<edge from-layer="1491" from-port="2" to-layer="1494" to-port="0"/>
		<edge from-layer="1492" from-port="0" to-layer="1493" to-port="0"/>
		<edge from-layer="1493" from-port="1" to-layer="1494" to-port="1"/>
		<edge from-layer="1494" from-port="2" to-layer="1497" to-port="0"/>
		<edge from-layer="1495" from-port="0" to-layer="1496" to-port="0"/>
		<edge from-layer="1496" from-port="1" to-layer="1497" to-port="1"/>
		<edge from-layer="1497" from-port="2" to-layer="1503" to-port="0"/>
		<edge from-layer="1497" from-port="2" to-layer="1498" to-port="0"/>
		<edge from-layer="1498" from-port="1" to-layer="1499" to-port="0"/>
		<edge from-layer="1499" from-port="1" to-layer="1501" to-port="0"/>
		<edge from-layer="1500" from-port="0" to-layer="1503" to-port="2"/>
		<edge from-layer="1500" from-port="0" to-layer="1501" to-port="1"/>
		<edge from-layer="1501" from-port="2" to-layer="1502" to-port="0"/>
		<edge from-layer="1502" from-port="1" to-layer="1503" to-port="1"/>
		<edge from-layer="1503" from-port="3" to-layer="1504" to-port="1"/>
		<edge from-layer="1504" from-port="2" to-layer="1591" to-port="0"/>
		<edge from-layer="1505" from-port="0" to-layer="1511" to-port="1"/>
		<edge from-layer="1506" from-port="0" to-layer="1509" to-port="0"/>
		<edge from-layer="1507" from-port="0" to-layer="1509" to-port="1"/>
		<edge from-layer="1508" from-port="0" to-layer="1509" to-port="3"/>
		<edge from-layer="1509" from-port="4" to-layer="1511" to-port="2"/>
		<edge from-layer="1510" from-port="0" to-layer="1511" to-port="3"/>
		<edge from-layer="1511" from-port="4" to-layer="1552" to-port="0"/>
		<edge from-layer="1512" from-port="1" to-layer="1516" to-port="0"/>
		<edge from-layer="1512" from-port="1" to-layer="1523" to-port="0"/>
		<edge from-layer="1513" from-port="0" to-layer="1516" to-port="1"/>
		<edge from-layer="1514" from-port="0" to-layer="1516" to-port="2"/>
		<edge from-layer="1515" from-port="0" to-layer="1516" to-port="3"/>
		<edge from-layer="1516" from-port="4" to-layer="1521" to-port="0"/>
		<edge from-layer="1517" from-port="1" to-layer="1520" to-port="0"/>
		<edge from-layer="1518" from-port="0" to-layer="1520" to-port="1"/>
		<edge from-layer="1519" from-port="0" to-layer="1520" to-port="2"/>
		<edge from-layer="1520" from-port="3" to-layer="1521" to-port="1"/>
		<edge from-layer="1521" from-port="2" to-layer="1527" to-port="1"/>
		<edge from-layer="1521" from-port="2" to-layer="1522" to-port="0"/>
		<edge from-layer="1522" from-port="1" to-layer="1524" to-port="0"/>
		<edge from-layer="1523" from-port="1" to-layer="1524" to-port="1"/>
		<edge from-layer="1524" from-port="2" to-layer="1526" to-port="0"/>
		<edge from-layer="1525" from-port="0" to-layer="1526" to-port="1"/>
		<edge from-layer="1526" from-port="2" to-layer="1527" to-port="2"/>
		<edge from-layer="1527" from-port="3" to-layer="1528" to-port="1"/>
		<edge from-layer="1528" from-port="2" to-layer="1531" to-port="0"/>
		<edge from-layer="1529" from-port="0" to-layer="1530" to-port="0"/>
		<edge from-layer="1530" from-port="1" to-layer="1531" to-port="1"/>
		<edge from-layer="1531" from-port="2" to-layer="1534" to-port="0"/>
		<edge from-layer="1532" from-port="0" to-layer="1533" to-port="0"/>
		<edge from-layer="1533" from-port="1" to-layer="1534" to-port="1"/>
		<edge from-layer="1534" from-port="2" to-layer="1551" to-port="0"/>
		<edge from-layer="1534" from-port="2" to-layer="1536" to-port="0"/>
		<edge from-layer="1535" from-port="0" to-layer="1536" to-port="1"/>
		<edge from-layer="1536" from-port="2" to-layer="1539" to-port="0"/>
		<edge from-layer="1537" from-port="0" to-layer="1538" to-port="0"/>
		<edge from-layer="1538" from-port="1" to-layer="1539" to-port="1"/>
		<edge from-layer="1539" from-port="2" to-layer="1542" to-port="0"/>
		<edge from-layer="1540" from-port="0" to-layer="1541" to-port="0"/>
		<edge from-layer="1541" from-port="1" to-layer="1542" to-port="1"/>
		<edge from-layer="1542" from-port="2" to-layer="1543" to-port="0"/>
		<edge from-layer="1543" from-port="1" to-layer="1546" to-port="0"/>
		<edge from-layer="1544" from-port="0" to-layer="1545" to-port="0"/>
		<edge from-layer="1545" from-port="1" to-layer="1546" to-port="1"/>
		<edge from-layer="1546" from-port="2" to-layer="1549" to-port="0"/>
		<edge from-layer="1547" from-port="0" to-layer="1548" to-port="0"/>
		<edge from-layer="1548" from-port="1" to-layer="1549" to-port="1"/>
		<edge from-layer="1549" from-port="2" to-layer="1550" to-port="0"/>
		<edge from-layer="1550" from-port="1" to-layer="1551" to-port="1"/>
		<edge from-layer="1551" from-port="2" to-layer="1552" to-port="1"/>
		<edge from-layer="1552" from-port="2" to-layer="1555" to-port="0"/>
		<edge from-layer="1552" from-port="2" to-layer="1567" to-port="0"/>
		<edge from-layer="1553" from-port="0" to-layer="1566" to-port="0"/>
		<edge from-layer="1554" from-port="0" to-layer="1566" to-port="1"/>
		<edge from-layer="1555" from-port="1" to-layer="1558" to-port="0"/>
		<edge from-layer="1555" from-port="1" to-layer="1565" to-port="0"/>
		<edge from-layer="1555" from-port="1" to-layer="1572" to-port="0"/>
		<edge from-layer="1555" from-port="1" to-layer="1576" to-port="0"/>
		<edge from-layer="1556" from-port="0" to-layer="1558" to-port="1"/>
		<edge from-layer="1557" from-port="0" to-layer="1558" to-port="2"/>
		<edge from-layer="1558" from-port="3" to-layer="1560" to-port="0"/>
		<edge from-layer="1559" from-port="0" to-layer="1560" to-port="1"/>
		<edge from-layer="1560" from-port="2" to-layer="1562" to-port="0"/>
		<edge from-layer="1561" from-port="0" to-layer="1562" to-port="1"/>
		<edge from-layer="1562" from-port="2" to-layer="1566" to-port="2"/>
		<edge from-layer="1563" from-port="0" to-layer="1565" to-port="1"/>
		<edge from-layer="1564" from-port="0" to-layer="1565" to-port="2"/>
		<edge from-layer="1565" from-port="3" to-layer="1566" to-port="3"/>
		<edge from-layer="1566" from-port="4" to-layer="1567" to-port="1"/>
		<edge from-layer="1567" from-port="2" to-layer="1569" to-port="0"/>
		<edge from-layer="1568" from-port="0" to-layer="1569" to-port="1"/>
		<edge from-layer="1569" from-port="2" to-layer="1578" to-port="0"/>
		<edge from-layer="1570" from-port="0" to-layer="1572" to-port="1"/>
		<edge from-layer="1571" from-port="0" to-layer="1572" to-port="2"/>
		<edge from-layer="1572" from-port="3" to-layer="1577" to-port="0"/>
		<edge from-layer="1573" from-port="0" to-layer="1577" to-port="1"/>
		<edge from-layer="1574" from-port="0" to-layer="1576" to-port="1"/>
		<edge from-layer="1575" from-port="0" to-layer="1576" to-port="2"/>
		<edge from-layer="1576" from-port="3" to-layer="1577" to-port="2"/>
		<edge from-layer="1577" from-port="3" to-layer="1578" to-port="1"/>
		<edge from-layer="1578" from-port="2" to-layer="1708" to-port="0"/>
		<edge from-layer="1578" from-port="2" to-layer="1917" to-port="0"/>
		<edge from-layer="1578" from-port="2" to-layer="1797" to-port="1"/>
		<edge from-layer="1578" from-port="2" to-layer="1581" to-port="0"/>
		<edge from-layer="1579" from-port="0" to-layer="1580" to-port="0"/>
		<edge from-layer="1580" from-port="1" to-layer="1581" to-port="1"/>
		<edge from-layer="1581" from-port="2" to-layer="1584" to-port="0"/>
		<edge from-layer="1582" from-port="0" to-layer="1583" to-port="0"/>
		<edge from-layer="1583" from-port="1" to-layer="1584" to-port="1"/>
		<edge from-layer="1584" from-port="2" to-layer="1590" to-port="0"/>
		<edge from-layer="1584" from-port="2" to-layer="1585" to-port="0"/>
		<edge from-layer="1585" from-port="1" to-layer="1586" to-port="0"/>
		<edge from-layer="1586" from-port="1" to-layer="1588" to-port="0"/>
		<edge from-layer="1587" from-port="0" to-layer="1590" to-port="2"/>
		<edge from-layer="1587" from-port="0" to-layer="1588" to-port="1"/>
		<edge from-layer="1588" from-port="2" to-layer="1589" to-port="0"/>
		<edge from-layer="1589" from-port="1" to-layer="1590" to-port="1"/>
		<edge from-layer="1590" from-port="3" to-layer="1591" to-port="1"/>
		<edge from-layer="1591" from-port="2" to-layer="1678" to-port="0"/>
		<edge from-layer="1592" from-port="0" to-layer="1598" to-port="1"/>
		<edge from-layer="1593" from-port="0" to-layer="1596" to-port="0"/>
		<edge from-layer="1594" from-port="0" to-layer="1596" to-port="1"/>
		<edge from-layer="1595" from-port="0" to-layer="1596" to-port="3"/>
		<edge from-layer="1596" from-port="4" to-layer="1598" to-port="2"/>
		<edge from-layer="1597" from-port="0" to-layer="1598" to-port="3"/>
		<edge from-layer="1598" from-port="4" to-layer="1639" to-port="0"/>
		<edge from-layer="1599" from-port="1" to-layer="1603" to-port="0"/>
		<edge from-layer="1599" from-port="1" to-layer="1610" to-port="0"/>
		<edge from-layer="1600" from-port="0" to-layer="1603" to-port="1"/>
		<edge from-layer="1601" from-port="0" to-layer="1603" to-port="2"/>
		<edge from-layer="1602" from-port="0" to-layer="1603" to-port="3"/>
		<edge from-layer="1603" from-port="4" to-layer="1608" to-port="0"/>
		<edge from-layer="1604" from-port="1" to-layer="1607" to-port="0"/>
		<edge from-layer="1605" from-port="0" to-layer="1607" to-port="1"/>
		<edge from-layer="1606" from-port="0" to-layer="1607" to-port="2"/>
		<edge from-layer="1607" from-port="3" to-layer="1608" to-port="1"/>
		<edge from-layer="1608" from-port="2" to-layer="1614" to-port="1"/>
		<edge from-layer="1608" from-port="2" to-layer="1609" to-port="0"/>
		<edge from-layer="1609" from-port="1" to-layer="1611" to-port="0"/>
		<edge from-layer="1610" from-port="1" to-layer="1611" to-port="1"/>
		<edge from-layer="1611" from-port="2" to-layer="1613" to-port="0"/>
		<edge from-layer="1612" from-port="0" to-layer="1613" to-port="1"/>
		<edge from-layer="1613" from-port="2" to-layer="1614" to-port="2"/>
		<edge from-layer="1614" from-port="3" to-layer="1615" to-port="1"/>
		<edge from-layer="1615" from-port="2" to-layer="1618" to-port="0"/>
		<edge from-layer="1616" from-port="0" to-layer="1617" to-port="0"/>
		<edge from-layer="1617" from-port="1" to-layer="1618" to-port="1"/>
		<edge from-layer="1618" from-port="2" to-layer="1621" to-port="0"/>
		<edge from-layer="1619" from-port="0" to-layer="1620" to-port="0"/>
		<edge from-layer="1620" from-port="1" to-layer="1621" to-port="1"/>
		<edge from-layer="1621" from-port="2" to-layer="1623" to-port="0"/>
		<edge from-layer="1621" from-port="2" to-layer="1638" to-port="0"/>
		<edge from-layer="1622" from-port="0" to-layer="1623" to-port="1"/>
		<edge from-layer="1623" from-port="2" to-layer="1626" to-port="0"/>
		<edge from-layer="1624" from-port="0" to-layer="1625" to-port="0"/>
		<edge from-layer="1625" from-port="1" to-layer="1626" to-port="1"/>
		<edge from-layer="1626" from-port="2" to-layer="1629" to-port="0"/>
		<edge from-layer="1627" from-port="0" to-layer="1628" to-port="0"/>
		<edge from-layer="1628" from-port="1" to-layer="1629" to-port="1"/>
		<edge from-layer="1629" from-port="2" to-layer="1630" to-port="0"/>
		<edge from-layer="1630" from-port="1" to-layer="1633" to-port="0"/>
		<edge from-layer="1631" from-port="0" to-layer="1632" to-port="0"/>
		<edge from-layer="1632" from-port="1" to-layer="1633" to-port="1"/>
		<edge from-layer="1633" from-port="2" to-layer="1636" to-port="0"/>
		<edge from-layer="1634" from-port="0" to-layer="1635" to-port="0"/>
		<edge from-layer="1635" from-port="1" to-layer="1636" to-port="1"/>
		<edge from-layer="1636" from-port="2" to-layer="1637" to-port="0"/>
		<edge from-layer="1637" from-port="1" to-layer="1638" to-port="1"/>
		<edge from-layer="1638" from-port="2" to-layer="1639" to-port="1"/>
		<edge from-layer="1639" from-port="2" to-layer="1642" to-port="0"/>
		<edge from-layer="1639" from-port="2" to-layer="1654" to-port="0"/>
		<edge from-layer="1640" from-port="0" to-layer="1653" to-port="0"/>
		<edge from-layer="1641" from-port="0" to-layer="1653" to-port="1"/>
		<edge from-layer="1642" from-port="1" to-layer="1652" to-port="0"/>
		<edge from-layer="1642" from-port="1" to-layer="1645" to-port="0"/>
		<edge from-layer="1642" from-port="1" to-layer="1663" to-port="0"/>
		<edge from-layer="1642" from-port="1" to-layer="1659" to-port="0"/>
		<edge from-layer="1643" from-port="0" to-layer="1645" to-port="1"/>
		<edge from-layer="1644" from-port="0" to-layer="1645" to-port="2"/>
		<edge from-layer="1645" from-port="3" to-layer="1647" to-port="0"/>
		<edge from-layer="1646" from-port="0" to-layer="1647" to-port="1"/>
		<edge from-layer="1647" from-port="2" to-layer="1649" to-port="0"/>
		<edge from-layer="1648" from-port="0" to-layer="1649" to-port="1"/>
		<edge from-layer="1649" from-port="2" to-layer="1653" to-port="2"/>
		<edge from-layer="1650" from-port="0" to-layer="1652" to-port="1"/>
		<edge from-layer="1651" from-port="0" to-layer="1652" to-port="2"/>
		<edge from-layer="1652" from-port="3" to-layer="1653" to-port="3"/>
		<edge from-layer="1653" from-port="4" to-layer="1654" to-port="1"/>
		<edge from-layer="1654" from-port="2" to-layer="1656" to-port="0"/>
		<edge from-layer="1655" from-port="0" to-layer="1656" to-port="1"/>
		<edge from-layer="1656" from-port="2" to-layer="1665" to-port="0"/>
		<edge from-layer="1657" from-port="0" to-layer="1659" to-port="1"/>
		<edge from-layer="1658" from-port="0" to-layer="1659" to-port="2"/>
		<edge from-layer="1659" from-port="3" to-layer="1664" to-port="0"/>
		<edge from-layer="1660" from-port="0" to-layer="1664" to-port="1"/>
		<edge from-layer="1661" from-port="0" to-layer="1663" to-port="1"/>
		<edge from-layer="1662" from-port="0" to-layer="1663" to-port="2"/>
		<edge from-layer="1663" from-port="3" to-layer="1664" to-port="2"/>
		<edge from-layer="1664" from-port="3" to-layer="1665" to-port="1"/>
		<edge from-layer="1665" from-port="2" to-layer="1928" to-port="1"/>
		<edge from-layer="1665" from-port="2" to-layer="1800" to-port="0"/>
		<edge from-layer="1665" from-port="2" to-layer="1721" to-port="0"/>
		<edge from-layer="1665" from-port="2" to-layer="1668" to-port="0"/>
		<edge from-layer="1666" from-port="0" to-layer="1667" to-port="0"/>
		<edge from-layer="1667" from-port="1" to-layer="1668" to-port="1"/>
		<edge from-layer="1668" from-port="2" to-layer="1671" to-port="0"/>
		<edge from-layer="1669" from-port="0" to-layer="1670" to-port="0"/>
		<edge from-layer="1670" from-port="1" to-layer="1671" to-port="1"/>
		<edge from-layer="1671" from-port="2" to-layer="1677" to-port="0"/>
		<edge from-layer="1671" from-port="2" to-layer="1672" to-port="0"/>
		<edge from-layer="1672" from-port="1" to-layer="1673" to-port="0"/>
		<edge from-layer="1673" from-port="1" to-layer="1675" to-port="0"/>
		<edge from-layer="1674" from-port="0" to-layer="1677" to-port="2"/>
		<edge from-layer="1674" from-port="0" to-layer="1675" to-port="1"/>
		<edge from-layer="1675" from-port="2" to-layer="1676" to-port="0"/>
		<edge from-layer="1676" from-port="1" to-layer="1677" to-port="1"/>
		<edge from-layer="1677" from-port="3" to-layer="1678" to-port="1"/>
		<edge from-layer="1678" from-port="2" to-layer="1682" to-port="0"/>
		<edge from-layer="1678" from-port="2" to-layer="1735" to-port="0"/>
		<edge from-layer="1678" from-port="2" to-layer="1760" to-port="0"/>
		<edge from-layer="1678" from-port="2" to-layer="1814" to-port="0"/>
		<edge from-layer="1678" from-port="2" to-layer="1694" to-port="0"/>
		<edge from-layer="1678" from-port="2" to-layer="1852" to-port="0"/>
		<edge from-layer="1678" from-port="2" to-layer="1679" to-port="0"/>
		<edge from-layer="1679" from-port="1" to-layer="2022" to-port="0"/>
		<edge from-layer="1679" from-port="1" to-layer="2011" to-port="0"/>
		<edge from-layer="1680" from-port="0" to-layer="1681" to-port="0"/>
		<edge from-layer="1681" from-port="1" to-layer="1682" to-port="1"/>
		<edge from-layer="1682" from-port="2" to-layer="1685" to-port="0"/>
		<edge from-layer="1683" from-port="0" to-layer="1684" to-port="0"/>
		<edge from-layer="1684" from-port="1" to-layer="1685" to-port="1"/>
		<edge from-layer="1685" from-port="2" to-layer="1688" to-port="0"/>
		<edge from-layer="1686" from-port="0" to-layer="1687" to-port="0"/>
		<edge from-layer="1687" from-port="1" to-layer="1688" to-port="1"/>
		<edge from-layer="1688" from-port="2" to-layer="1691" to-port="0"/>
		<edge from-layer="1689" from-port="0" to-layer="1690" to-port="0"/>
		<edge from-layer="1690" from-port="1" to-layer="1691" to-port="1"/>
		<edge from-layer="1691" from-port="2" to-layer="1704" to-port="0"/>
		<edge from-layer="1692" from-port="0" to-layer="1693" to-port="0"/>
		<edge from-layer="1693" from-port="1" to-layer="1694" to-port="1"/>
		<edge from-layer="1694" from-port="2" to-layer="1697" to-port="0"/>
		<edge from-layer="1695" from-port="0" to-layer="1696" to-port="0"/>
		<edge from-layer="1696" from-port="1" to-layer="1697" to-port="1"/>
		<edge from-layer="1697" from-port="2" to-layer="1700" to-port="0"/>
		<edge from-layer="1698" from-port="0" to-layer="1699" to-port="0"/>
		<edge from-layer="1699" from-port="1" to-layer="1700" to-port="1"/>
		<edge from-layer="1700" from-port="2" to-layer="1703" to-port="0"/>
		<edge from-layer="1701" from-port="0" to-layer="1702" to-port="0"/>
		<edge from-layer="1702" from-port="1" to-layer="1703" to-port="1"/>
		<edge from-layer="1703" from-port="2" to-layer="1704" to-port="1"/>
		<edge from-layer="1704" from-port="2" to-layer="1705" to-port="0"/>
		<edge from-layer="1705" from-port="2" to-layer="1718" to-port="0"/>
		<edge from-layer="1706" from-port="0" to-layer="1707" to-port="0"/>
		<edge from-layer="1707" from-port="1" to-layer="1708" to-port="1"/>
		<edge from-layer="1708" from-port="2" to-layer="1711" to-port="0"/>
		<edge from-layer="1709" from-port="0" to-layer="1710" to-port="0"/>
		<edge from-layer="1710" from-port="1" to-layer="1711" to-port="1"/>
		<edge from-layer="1711" from-port="2" to-layer="1717" to-port="0"/>
		<edge from-layer="1711" from-port="2" to-layer="1712" to-port="0"/>
		<edge from-layer="1712" from-port="1" to-layer="1713" to-port="0"/>
		<edge from-layer="1713" from-port="1" to-layer="1715" to-port="0"/>
		<edge from-layer="1714" from-port="0" to-layer="1715" to-port="1"/>
		<edge from-layer="1714" from-port="0" to-layer="1717" to-port="2"/>
		<edge from-layer="1715" from-port="2" to-layer="1716" to-port="0"/>
		<edge from-layer="1716" from-port="1" to-layer="1717" to-port="1"/>
		<edge from-layer="1717" from-port="3" to-layer="1718" to-port="1"/>
		<edge from-layer="1718" from-port="2" to-layer="1731" to-port="0"/>
		<edge from-layer="1719" from-port="0" to-layer="1720" to-port="0"/>
		<edge from-layer="1720" from-port="1" to-layer="1721" to-port="1"/>
		<edge from-layer="1721" from-port="2" to-layer="1724" to-port="0"/>
		<edge from-layer="1722" from-port="0" to-layer="1723" to-port="0"/>
		<edge from-layer="1723" from-port="1" to-layer="1724" to-port="1"/>
		<edge from-layer="1724" from-port="2" to-layer="1730" to-port="0"/>
		<edge from-layer="1724" from-port="2" to-layer="1725" to-port="0"/>
		<edge from-layer="1725" from-port="1" to-layer="1726" to-port="0"/>
		<edge from-layer="1726" from-port="1" to-layer="1728" to-port="0"/>
		<edge from-layer="1727" from-port="0" to-layer="1730" to-port="2"/>
		<edge from-layer="1727" from-port="0" to-layer="1728" to-port="1"/>
		<edge from-layer="1728" from-port="2" to-layer="1729" to-port="0"/>
		<edge from-layer="1729" from-port="1" to-layer="1730" to-port="1"/>
		<edge from-layer="1730" from-port="3" to-layer="1731" to-port="1"/>
		<edge from-layer="1731" from-port="2" to-layer="1732" to-port="0"/>
		<edge from-layer="1732" from-port="1" to-layer="1980" to-port="0"/>
		<edge from-layer="1732" from-port="1" to-layer="1991" to-port="0"/>
		<edge from-layer="1733" from-port="0" to-layer="1734" to-port="0"/>
		<edge from-layer="1734" from-port="1" to-layer="1735" to-port="1"/>
		<edge from-layer="1735" from-port="2" to-layer="1738" to-port="0"/>
		<edge from-layer="1736" from-port="0" to-layer="1737" to-port="0"/>
		<edge from-layer="1737" from-port="1" to-layer="1738" to-port="1"/>
		<edge from-layer="1738" from-port="2" to-layer="1741" to-port="0"/>
		<edge from-layer="1739" from-port="0" to-layer="1740" to-port="0"/>
		<edge from-layer="1740" from-port="1" to-layer="1741" to-port="1"/>
		<edge from-layer="1741" from-port="2" to-layer="1744" to-port="0"/>
		<edge from-layer="1742" from-port="0" to-layer="1743" to-port="0"/>
		<edge from-layer="1743" from-port="1" to-layer="1744" to-port="1"/>
		<edge from-layer="1744" from-port="2" to-layer="1745" to-port="0"/>
		<edge from-layer="1745" from-port="1" to-layer="1748" to-port="0"/>
		<edge from-layer="1746" from-port="0" to-layer="1747" to-port="0"/>
		<edge from-layer="1747" from-port="1" to-layer="1748" to-port="1"/>
		<edge from-layer="1748" from-port="2" to-layer="1751" to-port="0"/>
		<edge from-layer="1749" from-port="0" to-layer="1750" to-port="0"/>
		<edge from-layer="1750" from-port="1" to-layer="1751" to-port="1"/>
		<edge from-layer="1751" from-port="2" to-layer="1754" to-port="0"/>
		<edge from-layer="1752" from-port="0" to-layer="1753" to-port="0"/>
		<edge from-layer="1753" from-port="1" to-layer="1754" to-port="1"/>
		<edge from-layer="1754" from-port="2" to-layer="1757" to-port="0"/>
		<edge from-layer="1755" from-port="0" to-layer="1756" to-port="0"/>
		<edge from-layer="1756" from-port="1" to-layer="1757" to-port="1"/>
		<edge from-layer="1757" from-port="2" to-layer="1783" to-port="0"/>
		<edge from-layer="1758" from-port="0" to-layer="1759" to-port="0"/>
		<edge from-layer="1759" from-port="1" to-layer="1760" to-port="1"/>
		<edge from-layer="1760" from-port="2" to-layer="1763" to-port="0"/>
		<edge from-layer="1761" from-port="0" to-layer="1762" to-port="0"/>
		<edge from-layer="1762" from-port="1" to-layer="1763" to-port="1"/>
		<edge from-layer="1763" from-port="2" to-layer="1766" to-port="0"/>
		<edge from-layer="1764" from-port="0" to-layer="1765" to-port="0"/>
		<edge from-layer="1765" from-port="1" to-layer="1766" to-port="1"/>
		<edge from-layer="1766" from-port="2" to-layer="1769" to-port="0"/>
		<edge from-layer="1767" from-port="0" to-layer="1768" to-port="0"/>
		<edge from-layer="1768" from-port="1" to-layer="1769" to-port="1"/>
		<edge from-layer="1769" from-port="2" to-layer="1770" to-port="0"/>
		<edge from-layer="1770" from-port="1" to-layer="1773" to-port="0"/>
		<edge from-layer="1771" from-port="0" to-layer="1772" to-port="0"/>
		<edge from-layer="1772" from-port="1" to-layer="1773" to-port="1"/>
		<edge from-layer="1773" from-port="2" to-layer="1776" to-port="0"/>
		<edge from-layer="1774" from-port="0" to-layer="1775" to-port="0"/>
		<edge from-layer="1775" from-port="1" to-layer="1776" to-port="1"/>
		<edge from-layer="1776" from-port="2" to-layer="1779" to-port="0"/>
		<edge from-layer="1777" from-port="0" to-layer="1778" to-port="0"/>
		<edge from-layer="1778" from-port="1" to-layer="1779" to-port="1"/>
		<edge from-layer="1779" from-port="2" to-layer="1782" to-port="0"/>
		<edge from-layer="1780" from-port="0" to-layer="1781" to-port="0"/>
		<edge from-layer="1781" from-port="1" to-layer="1782" to-port="1"/>
		<edge from-layer="1782" from-port="2" to-layer="1783" to-port="1"/>
		<edge from-layer="1783" from-port="2" to-layer="1796" to-port="0"/>
		<edge from-layer="1784" from-port="0" to-layer="1785" to-port="0"/>
		<edge from-layer="1785" from-port="1" to-layer="1786" to-port="1"/>
		<edge from-layer="1786" from-port="2" to-layer="1789" to-port="0"/>
		<edge from-layer="1787" from-port="0" to-layer="1788" to-port="0"/>
		<edge from-layer="1788" from-port="1" to-layer="1789" to-port="1"/>
		<edge from-layer="1789" from-port="2" to-layer="1792" to-port="0"/>
		<edge from-layer="1790" from-port="0" to-layer="1791" to-port="0"/>
		<edge from-layer="1791" from-port="1" to-layer="1792" to-port="1"/>
		<edge from-layer="1792" from-port="2" to-layer="1795" to-port="0"/>
		<edge from-layer="1793" from-port="0" to-layer="1794" to-port="0"/>
		<edge from-layer="1794" from-port="1" to-layer="1795" to-port="1"/>
		<edge from-layer="1795" from-port="2" to-layer="1796" to-port="1"/>
		<edge from-layer="1796" from-port="2" to-layer="1797" to-port="0"/>
		<edge from-layer="1797" from-port="2" to-layer="1810" to-port="0"/>
		<edge from-layer="1798" from-port="0" to-layer="1799" to-port="0"/>
		<edge from-layer="1799" from-port="1" to-layer="1800" to-port="1"/>
		<edge from-layer="1800" from-port="2" to-layer="1803" to-port="0"/>
		<edge from-layer="1801" from-port="0" to-layer="1802" to-port="0"/>
		<edge from-layer="1802" from-port="1" to-layer="1803" to-port="1"/>
		<edge from-layer="1803" from-port="2" to-layer="1809" to-port="0"/>
		<edge from-layer="1803" from-port="2" to-layer="1804" to-port="0"/>
		<edge from-layer="1804" from-port="1" to-layer="1805" to-port="0"/>
		<edge from-layer="1805" from-port="1" to-layer="1807" to-port="0"/>
		<edge from-layer="1806" from-port="0" to-layer="1809" to-port="2"/>
		<edge from-layer="1806" from-port="0" to-layer="1807" to-port="1"/>
		<edge from-layer="1807" from-port="2" to-layer="1808" to-port="0"/>
		<edge from-layer="1808" from-port="1" to-layer="1809" to-port="1"/>
		<edge from-layer="1809" from-port="3" to-layer="1810" to-port="1"/>
		<edge from-layer="1810" from-port="2" to-layer="1811" to-port="0"/>
		<edge from-layer="1811" from-port="1" to-layer="1960" to-port="0"/>
		<edge from-layer="1811" from-port="1" to-layer="1949" to-port="0"/>
		<edge from-layer="1812" from-port="0" to-layer="1813" to-port="0"/>
		<edge from-layer="1813" from-port="1" to-layer="1814" to-port="1"/>
		<edge from-layer="1814" from-port="2" to-layer="1817" to-port="0"/>
		<edge from-layer="1815" from-port="0" to-layer="1816" to-port="0"/>
		<edge from-layer="1816" from-port="1" to-layer="1817" to-port="1"/>
		<edge from-layer="1817" from-port="2" to-layer="1820" to-port="0"/>
		<edge from-layer="1818" from-port="0" to-layer="1819" to-port="0"/>
		<edge from-layer="1819" from-port="1" to-layer="1820" to-port="1"/>
		<edge from-layer="1820" from-port="2" to-layer="1823" to-port="0"/>
		<edge from-layer="1821" from-port="0" to-layer="1822" to-port="0"/>
		<edge from-layer="1822" from-port="1" to-layer="1823" to-port="1"/>
		<edge from-layer="1823" from-port="2" to-layer="1824" to-port="0"/>
		<edge from-layer="1824" from-port="1" to-layer="1827" to-port="0"/>
		<edge from-layer="1825" from-port="0" to-layer="1826" to-port="0"/>
		<edge from-layer="1826" from-port="1" to-layer="1827" to-port="1"/>
		<edge from-layer="1827" from-port="2" to-layer="1830" to-port="0"/>
		<edge from-layer="1828" from-port="0" to-layer="1829" to-port="0"/>
		<edge from-layer="1829" from-port="1" to-layer="1830" to-port="1"/>
		<edge from-layer="1830" from-port="2" to-layer="1833" to-port="0"/>
		<edge from-layer="1831" from-port="0" to-layer="1832" to-port="0"/>
		<edge from-layer="1832" from-port="1" to-layer="1833" to-port="1"/>
		<edge from-layer="1833" from-port="2" to-layer="1836" to-port="0"/>
		<edge from-layer="1834" from-port="0" to-layer="1835" to-port="0"/>
		<edge from-layer="1835" from-port="1" to-layer="1836" to-port="1"/>
		<edge from-layer="1836" from-port="2" to-layer="1837" to-port="0"/>
		<edge from-layer="1837" from-port="1" to-layer="1840" to-port="0"/>
		<edge from-layer="1838" from-port="0" to-layer="1839" to-port="0"/>
		<edge from-layer="1839" from-port="1" to-layer="1840" to-port="1"/>
		<edge from-layer="1840" from-port="2" to-layer="1843" to-port="0"/>
		<edge from-layer="1841" from-port="0" to-layer="1842" to-port="0"/>
		<edge from-layer="1842" from-port="1" to-layer="1843" to-port="1"/>
		<edge from-layer="1843" from-port="2" to-layer="1846" to-port="0"/>
		<edge from-layer="1844" from-port="0" to-layer="1845" to-port="0"/>
		<edge from-layer="1845" from-port="1" to-layer="1846" to-port="1"/>
		<edge from-layer="1846" from-port="2" to-layer="1849" to-port="0"/>
		<edge from-layer="1847" from-port="0" to-layer="1848" to-port="0"/>
		<edge from-layer="1848" from-port="1" to-layer="1849" to-port="1"/>
		<edge from-layer="1849" from-port="2" to-layer="1888" to-port="0"/>
		<edge from-layer="1850" from-port="0" to-layer="1851" to-port="0"/>
		<edge from-layer="1851" from-port="1" to-layer="1852" to-port="1"/>
		<edge from-layer="1852" from-port="2" to-layer="1855" to-port="0"/>
		<edge from-layer="1853" from-port="0" to-layer="1854" to-port="0"/>
		<edge from-layer="1854" from-port="1" to-layer="1855" to-port="1"/>
		<edge from-layer="1855" from-port="2" to-layer="1858" to-port="0"/>
		<edge from-layer="1856" from-port="0" to-layer="1857" to-port="0"/>
		<edge from-layer="1857" from-port="1" to-layer="1858" to-port="1"/>
		<edge from-layer="1858" from-port="2" to-layer="1861" to-port="0"/>
		<edge from-layer="1859" from-port="0" to-layer="1860" to-port="0"/>
		<edge from-layer="1860" from-port="1" to-layer="1861" to-port="1"/>
		<edge from-layer="1861" from-port="2" to-layer="1862" to-port="0"/>
		<edge from-layer="1862" from-port="1" to-layer="1865" to-port="0"/>
		<edge from-layer="1863" from-port="0" to-layer="1864" to-port="0"/>
		<edge from-layer="1864" from-port="1" to-layer="1865" to-port="1"/>
		<edge from-layer="1865" from-port="2" to-layer="1868" to-port="0"/>
		<edge from-layer="1866" from-port="0" to-layer="1867" to-port="0"/>
		<edge from-layer="1867" from-port="1" to-layer="1868" to-port="1"/>
		<edge from-layer="1868" from-port="2" to-layer="1871" to-port="0"/>
		<edge from-layer="1869" from-port="0" to-layer="1870" to-port="0"/>
		<edge from-layer="1870" from-port="1" to-layer="1871" to-port="1"/>
		<edge from-layer="1871" from-port="2" to-layer="1874" to-port="0"/>
		<edge from-layer="1872" from-port="0" to-layer="1873" to-port="0"/>
		<edge from-layer="1873" from-port="1" to-layer="1874" to-port="1"/>
		<edge from-layer="1874" from-port="2" to-layer="1875" to-port="0"/>
		<edge from-layer="1875" from-port="1" to-layer="1878" to-port="0"/>
		<edge from-layer="1876" from-port="0" to-layer="1877" to-port="0"/>
		<edge from-layer="1877" from-port="1" to-layer="1878" to-port="1"/>
		<edge from-layer="1878" from-port="2" to-layer="1881" to-port="0"/>
		<edge from-layer="1879" from-port="0" to-layer="1880" to-port="0"/>
		<edge from-layer="1880" from-port="1" to-layer="1881" to-port="1"/>
		<edge from-layer="1881" from-port="2" to-layer="1884" to-port="0"/>
		<edge from-layer="1882" from-port="0" to-layer="1883" to-port="0"/>
		<edge from-layer="1883" from-port="1" to-layer="1884" to-port="1"/>
		<edge from-layer="1884" from-port="2" to-layer="1887" to-port="0"/>
		<edge from-layer="1885" from-port="0" to-layer="1886" to-port="0"/>
		<edge from-layer="1886" from-port="1" to-layer="1887" to-port="1"/>
		<edge from-layer="1887" from-port="2" to-layer="1888" to-port="1"/>
		<edge from-layer="1888" from-port="2" to-layer="1914" to-port="0"/>
		<edge from-layer="1889" from-port="0" to-layer="1890" to-port="0"/>
		<edge from-layer="1890" from-port="1" to-layer="1891" to-port="1"/>
		<edge from-layer="1891" from-port="2" to-layer="1894" to-port="0"/>
		<edge from-layer="1892" from-port="0" to-layer="1893" to-port="0"/>
		<edge from-layer="1893" from-port="1" to-layer="1894" to-port="1"/>
		<edge from-layer="1894" from-port="2" to-layer="1897" to-port="0"/>
		<edge from-layer="1895" from-port="0" to-layer="1896" to-port="0"/>
		<edge from-layer="1896" from-port="1" to-layer="1897" to-port="1"/>
		<edge from-layer="1897" from-port="2" to-layer="1900" to-port="0"/>
		<edge from-layer="1898" from-port="0" to-layer="1899" to-port="0"/>
		<edge from-layer="1899" from-port="1" to-layer="1900" to-port="1"/>
		<edge from-layer="1900" from-port="2" to-layer="1901" to-port="0"/>
		<edge from-layer="1901" from-port="1" to-layer="1904" to-port="0"/>
		<edge from-layer="1902" from-port="0" to-layer="1903" to-port="0"/>
		<edge from-layer="1903" from-port="1" to-layer="1904" to-port="1"/>
		<edge from-layer="1904" from-port="2" to-layer="1907" to-port="0"/>
		<edge from-layer="1905" from-port="0" to-layer="1906" to-port="0"/>
		<edge from-layer="1906" from-port="1" to-layer="1907" to-port="1"/>
		<edge from-layer="1907" from-port="2" to-layer="1910" to-port="0"/>
		<edge from-layer="1908" from-port="0" to-layer="1909" to-port="0"/>
		<edge from-layer="1909" from-port="1" to-layer="1910" to-port="1"/>
		<edge from-layer="1910" from-port="2" to-layer="1913" to-port="0"/>
		<edge from-layer="1911" from-port="0" to-layer="1912" to-port="0"/>
		<edge from-layer="1912" from-port="1" to-layer="1913" to-port="1"/>
		<edge from-layer="1913" from-port="2" to-layer="1914" to-port="1"/>
		<edge from-layer="1914" from-port="2" to-layer="1927" to-port="0"/>
		<edge from-layer="1915" from-port="0" to-layer="1916" to-port="0"/>
		<edge from-layer="1916" from-port="1" to-layer="1917" to-port="1"/>
		<edge from-layer="1917" from-port="2" to-layer="1920" to-port="0"/>
		<edge from-layer="1918" from-port="0" to-layer="1919" to-port="0"/>
		<edge from-layer="1919" from-port="1" to-layer="1920" to-port="1"/>
		<edge from-layer="1920" from-port="2" to-layer="1923" to-port="0"/>
		<edge from-layer="1921" from-port="0" to-layer="1922" to-port="0"/>
		<edge from-layer="1922" from-port="1" to-layer="1923" to-port="1"/>
		<edge from-layer="1923" from-port="2" to-layer="1926" to-port="0"/>
		<edge from-layer="1924" from-port="0" to-layer="1925" to-port="0"/>
		<edge from-layer="1925" from-port="1" to-layer="1926" to-port="1"/>
		<edge from-layer="1926" from-port="2" to-layer="1927" to-port="1"/>
		<edge from-layer="1927" from-port="2" to-layer="1928" to-port="0"/>
		<edge from-layer="1928" from-port="2" to-layer="1929" to-port="0"/>
		<edge from-layer="1929" from-port="1" to-layer="1932" to-port="0"/>
		<edge from-layer="1930" from-port="0" to-layer="1931" to-port="0"/>
		<edge from-layer="1931" from-port="1" to-layer="1932" to-port="1"/>
		<edge from-layer="1932" from-port="2" to-layer="1935" to-port="0"/>
		<edge from-layer="1933" from-port="0" to-layer="1934" to-port="0"/>
		<edge from-layer="1934" from-port="1" to-layer="1935" to-port="1"/>
		<edge from-layer="1935" from-port="2" to-layer="1936" to-port="0"/>
		<edge from-layer="1936" from-port="1" to-layer="1939" to-port="0"/>
		<edge from-layer="1937" from-port="0" to-layer="1938" to-port="0"/>
		<edge from-layer="1938" from-port="1" to-layer="1939" to-port="1"/>
		<edge from-layer="1939" from-port="2" to-layer="1942" to-port="0"/>
		<edge from-layer="1940" from-port="0" to-layer="1941" to-port="0"/>
		<edge from-layer="1941" from-port="1" to-layer="1942" to-port="1"/>
		<edge from-layer="1942" from-port="2" to-layer="1943" to-port="0"/>
		<edge from-layer="1943" from-port="1" to-layer="1959" to-port="0"/>
		<edge from-layer="1943" from-port="1" to-layer="1944" to-port="0"/>
		<edge from-layer="1944" from-port="1" to-layer="1948" to-port="0"/>
		<edge from-layer="1944" from-port="1" to-layer="1955" to-port="0"/>
		<edge from-layer="1945" from-port="0" to-layer="1948" to-port="1"/>
		<edge from-layer="1946" from-port="0" to-layer="1948" to-port="2"/>
		<edge from-layer="1947" from-port="0" to-layer="1948" to-port="3"/>
		<edge from-layer="1948" from-port="4" to-layer="1953" to-port="0"/>
		<edge from-layer="1949" from-port="1" to-layer="1952" to-port="0"/>
		<edge from-layer="1950" from-port="0" to-layer="1952" to-port="1"/>
		<edge from-layer="1951" from-port="0" to-layer="1952" to-port="2"/>
		<edge from-layer="1952" from-port="3" to-layer="1953" to-port="1"/>
		<edge from-layer="1953" from-port="2" to-layer="1959" to-port="1"/>
		<edge from-layer="1953" from-port="2" to-layer="1954" to-port="0"/>
		<edge from-layer="1954" from-port="1" to-layer="1956" to-port="0"/>
		<edge from-layer="1955" from-port="1" to-layer="1956" to-port="1"/>
		<edge from-layer="1956" from-port="2" to-layer="1958" to-port="0"/>
		<edge from-layer="1957" from-port="0" to-layer="1958" to-port="1"/>
		<edge from-layer="1958" from-port="2" to-layer="1959" to-port="2"/>
		<edge from-layer="1959" from-port="3" to-layer="1960" to-port="1"/>
		<edge from-layer="1960" from-port="2" to-layer="1963" to-port="0"/>
		<edge from-layer="1961" from-port="0" to-layer="1962" to-port="0"/>
		<edge from-layer="1962" from-port="1" to-layer="1963" to-port="1"/>
		<edge from-layer="1963" from-port="2" to-layer="1966" to-port="0"/>
		<edge from-layer="1964" from-port="0" to-layer="1965" to-port="0"/>
		<edge from-layer="1965" from-port="1" to-layer="1966" to-port="1"/>
		<edge from-layer="1966" from-port="2" to-layer="1967" to-port="0"/>
		<edge from-layer="1967" from-port="1" to-layer="1970" to-port="0"/>
		<edge from-layer="1968" from-port="0" to-layer="1969" to-port="0"/>
		<edge from-layer="1969" from-port="1" to-layer="1970" to-port="1"/>
		<edge from-layer="1970" from-port="2" to-layer="1973" to-port="0"/>
		<edge from-layer="1971" from-port="0" to-layer="1972" to-port="0"/>
		<edge from-layer="1972" from-port="1" to-layer="1973" to-port="1"/>
		<edge from-layer="1973" from-port="2" to-layer="1974" to-port="0"/>
		<edge from-layer="1974" from-port="1" to-layer="1975" to-port="0"/>
		<edge from-layer="1974" from-port="1" to-layer="1990" to-port="0"/>
		<edge from-layer="1975" from-port="1" to-layer="1986" to-port="0"/>
		<edge from-layer="1975" from-port="1" to-layer="1979" to-port="0"/>
		<edge from-layer="1976" from-port="0" to-layer="1979" to-port="1"/>
		<edge from-layer="1977" from-port="0" to-layer="1979" to-port="2"/>
		<edge from-layer="1978" from-port="0" to-layer="1979" to-port="3"/>
		<edge from-layer="1979" from-port="4" to-layer="1984" to-port="0"/>
		<edge from-layer="1980" from-port="1" to-layer="1983" to-port="0"/>
		<edge from-layer="1981" from-port="0" to-layer="1983" to-port="1"/>
		<edge from-layer="1982" from-port="0" to-layer="1983" to-port="2"/>
		<edge from-layer="1983" from-port="3" to-layer="1984" to-port="1"/>
		<edge from-layer="1984" from-port="2" to-layer="1985" to-port="0"/>
		<edge from-layer="1984" from-port="2" to-layer="1990" to-port="1"/>
		<edge from-layer="1985" from-port="1" to-layer="1987" to-port="0"/>
		<edge from-layer="1986" from-port="1" to-layer="1987" to-port="1"/>
		<edge from-layer="1987" from-port="2" to-layer="1989" to-port="0"/>
		<edge from-layer="1988" from-port="0" to-layer="1989" to-port="1"/>
		<edge from-layer="1989" from-port="2" to-layer="1990" to-port="2"/>
		<edge from-layer="1990" from-port="3" to-layer="1991" to-port="1"/>
		<edge from-layer="1991" from-port="2" to-layer="1994" to-port="0"/>
		<edge from-layer="1992" from-port="0" to-layer="1993" to-port="0"/>
		<edge from-layer="1993" from-port="1" to-layer="1994" to-port="1"/>
		<edge from-layer="1994" from-port="2" to-layer="1997" to-port="0"/>
		<edge from-layer="1995" from-port="0" to-layer="1996" to-port="0"/>
		<edge from-layer="1996" from-port="1" to-layer="1997" to-port="1"/>
		<edge from-layer="1997" from-port="2" to-layer="1998" to-port="0"/>
		<edge from-layer="1998" from-port="1" to-layer="2001" to-port="0"/>
		<edge from-layer="1999" from-port="0" to-layer="2000" to-port="0"/>
		<edge from-layer="2000" from-port="1" to-layer="2001" to-port="1"/>
		<edge from-layer="2001" from-port="2" to-layer="2004" to-port="0"/>
		<edge from-layer="2002" from-port="0" to-layer="2003" to-port="0"/>
		<edge from-layer="2003" from-port="1" to-layer="2004" to-port="1"/>
		<edge from-layer="2004" from-port="2" to-layer="2005" to-port="0"/>
		<edge from-layer="2005" from-port="1" to-layer="2006" to-port="0"/>
		<edge from-layer="2005" from-port="1" to-layer="2021" to-port="0"/>
		<edge from-layer="2006" from-port="1" to-layer="2010" to-port="0"/>
		<edge from-layer="2006" from-port="1" to-layer="2017" to-port="0"/>
		<edge from-layer="2007" from-port="0" to-layer="2010" to-port="1"/>
		<edge from-layer="2008" from-port="0" to-layer="2010" to-port="2"/>
		<edge from-layer="2009" from-port="0" to-layer="2010" to-port="3"/>
		<edge from-layer="2010" from-port="4" to-layer="2015" to-port="0"/>
		<edge from-layer="2011" from-port="1" to-layer="2014" to-port="0"/>
		<edge from-layer="2012" from-port="0" to-layer="2014" to-port="1"/>
		<edge from-layer="2013" from-port="0" to-layer="2014" to-port="2"/>
		<edge from-layer="2014" from-port="3" to-layer="2015" to-port="1"/>
		<edge from-layer="2015" from-port="2" to-layer="2016" to-port="0"/>
		<edge from-layer="2015" from-port="2" to-layer="2021" to-port="1"/>
		<edge from-layer="2016" from-port="1" to-layer="2018" to-port="0"/>
		<edge from-layer="2017" from-port="1" to-layer="2018" to-port="1"/>
		<edge from-layer="2018" from-port="2" to-layer="2020" to-port="0"/>
		<edge from-layer="2019" from-port="0" to-layer="2020" to-port="1"/>
		<edge from-layer="2020" from-port="2" to-layer="2021" to-port="2"/>
		<edge from-layer="2021" from-port="3" to-layer="2022" to-port="1"/>
		<edge from-layer="2022" from-port="2" to-layer="2025" to-port="0"/>
		<edge from-layer="2023" from-port="0" to-layer="2024" to-port="0"/>
		<edge from-layer="2024" from-port="1" to-layer="2025" to-port="1"/>
		<edge from-layer="2025" from-port="2" to-layer="2028" to-port="0"/>
		<edge from-layer="2026" from-port="0" to-layer="2027" to-port="0"/>
		<edge from-layer="2027" from-port="1" to-layer="2028" to-port="1"/>
		<edge from-layer="2028" from-port="2" to-layer="2029" to-port="0"/>
		<edge from-layer="2029" from-port="1" to-layer="2032" to-port="0"/>
		<edge from-layer="2030" from-port="0" to-layer="2031" to-port="0"/>
		<edge from-layer="2031" from-port="1" to-layer="2032" to-port="1"/>
		<edge from-layer="2032" from-port="2" to-layer="2035" to-port="0"/>
		<edge from-layer="2033" from-port="0" to-layer="2034" to-port="0"/>
		<edge from-layer="2034" from-port="1" to-layer="2035" to-port="1"/>
		<edge from-layer="2035" from-port="2" to-layer="2036" to-port="0"/>
		<edge from-layer="2036" from-port="1" to-layer="2039" to-port="0"/>
		<edge from-layer="2037" from-port="0" to-layer="2038" to-port="0"/>
		<edge from-layer="2038" from-port="1" to-layer="2039" to-port="1"/>
		<edge from-layer="2039" from-port="2" to-layer="2042" to-port="0"/>
		<edge from-layer="2040" from-port="0" to-layer="2041" to-port="0"/>
		<edge from-layer="2041" from-port="1" to-layer="2042" to-port="1"/>
		<edge from-layer="2042" from-port="2" to-layer="2043" to-port="0"/>
		<edge from-layer="2043" from-port="1" to-layer="2044" to-port="0"/>
	</edges>
	<meta_data>
		<MO_version value="2022.1.0-7019-cdb9bec7210-releases/2022/1"/>
		<Runtime_version value="2022.1.0-7019-cdb9bec7210-releases/2022/1"/>
		<legacy_path value="False"/>
		<cli_parameters>
			<caffe_parser_path value="DIR"/>
			<compress_fp16 value="True"/>
			<data_type value="FP32"/>
			<disable_nhwc_to_nchw value="False"/>
			<disable_omitting_optional value="False"/>
			<disable_resnet_optimization value="False"/>
			<disable_weights_compression value="False"/>
			<enable_concat_optimization value="False"/>
			<enable_flattening_nested_params value="False"/>
			<enable_ssd_gluoncv value="False"/>
			<extensions value="DIR"/>
			<framework value="onnx"/>
			<freeze_placeholder_with_value value="{}"/>
			<input_model value="DIR/switch_keypoint_2022.onnx"/>
			<input_model_is_text value="False"/>
			<k value="DIR/CustomLayersMapping.xml"/>
			<layout value="()"/>
			<layout_values value="{}"/>
			<legacy_mxnet_model value="False"/>
			<log_level value="ERROR"/>
			<mean_scale_values value="{}"/>
			<mean_values value="()"/>
			<model_name value="switch_keypoint_2022"/>
			<output_dir value="DIR"/>
			<placeholder_data_types value="{}"/>
			<progress value="False"/>
			<remove_memory value="False"/>
			<remove_output_softmax value="False"/>
			<reverse_input_channels value="False"/>
			<save_params_from_nd value="False"/>
			<scale_values value="()"/>
			<silent value="False"/>
			<source_layout value="()"/>
			<static_shape value="False"/>
			<stream_output value="False"/>
			<target_layout value="()"/>
			<transform value=""/>
			<use_legacy_frontend value="False"/>
			<use_new_frontend value="False"/>
			<unset unset_cli_parameters="batch, counts, disable_fusing, finegrain_fusing, input, input_checkpoint, input_meta_graph, input_proto, input_shape, input_symbol, mean_file, mean_file_offsets, nd_prefix_name, output, placeholder_shapes, pretrained_model_name, saved_model_dir, saved_model_tags, scale, tensorboard_logdir, tensorflow_custom_layer_libraries, tensorflow_custom_operations_config_update, tensorflow_object_detection_api_pipeline_config, tensorflow_use_custom_operations_config, transformations_config"/>
		</cli_parameters>
	</meta_data>
</net>
